runs/Experiment2/BestModels/Experiment_Best_0.5.pt (torch, 589693 bytes, 39 tensors)

fc1.weight f4 [128, 20]
00000000: 826b 76be a5cc 06be 66de 5e3d 5531 93bd
00000010: 11ba 0f3e 661a 91be 4be5 323e 8d6b 3ebe
00000020: 1988 b23d ba60 b73d 37a3 07be 02bf 1cbd
00000030: a7e9 e7bd 11b4 a4be 03c6 143e 4330 0d3e
00000040: 8145 d23e 5221 3e3e 8088 ad3e 749d 36bc
00000050: ee8d 0dbe e694 16be 4e3a 29be ce7a aabe
00000060: bff9 8cbe c80b b2be 0191 f8bd d07c b4be
00000070: afb0 cfbe 8682 86be 0cfa 4cbe 0e87 30be
00000080: caa7 42be 0213 9c3c 34cc 103e 5a18 c83d
00000090: c1ce 253d c34b f63d 7dad 19be 1739 01be
000000a0: 3d62 f93d 5b29 963d 1d80 b63b 8260 353e
000000b0: fbbd 543d 12f4 26be 3eea 37bd b63a e2be
000000c0: 111b 8fbe 154e 69be e1e9 b53d 37f1 c6bb
000000d0: 8bd7 9f3d 2fc4 26be 2197 313e cf38 7a3e
000000e0: 7979 94be adfc 36bf 2358 80bf e1a8 e6bb
000000f0: b8e8 aebd d01d b43d 4f94 71bc 0b60 753d
00000100: 2036 083e 2928 f13d cd34 cebe 0f93 aabc
00000110: d1f3 153d 7f35 87be 9ef2 fc3c 5c7a dc3d
00000120: 20ef f73c e9b2 36bd 098d 003e a8a2 08bf
00000130: c94c 7cbe 0fb0 8abe 90a4 61bd 97b8 f23d
00000140: ccfe f0bd 2653 8ebe f484 36bb 1119 29bf
00000150: 52ca 8cbe 8426 efbd f490 b13c d861 173f
00000160: 8f64 313f 06a5 323f 2e1f 22be 2f6e 13bd
00000170: 3119 b6bd 2412 1bbe 52c4 2b3e 2d02 433e
00000180: 1d46 78bd 1d07 9d3e be19 833e fee4 87bd
00000190: 3c5d fd3d d8c1 e73d 9dd8 703e f3e1 943d
000001a0: eda2 78bd c92a 21bf 9d35 98be b526 0cbf
000001b0: 8fca f9be 63b2 1ebf ca24 8b3e 87b4 883e
000001c0: 0e6e 253e cef7 833d 3384 f0bd 9c3a 78bd
000001d0: d791 a03d 6306 443e b126 df3e 9b2e 3ebe
000001e0: 2801 5f3e 5086 d43d d722 1abe cae0 f03d
000001f0: e0de 023e e026 b3be e163 12bd faa9 2abe
00000200: 4cba cfbd 9527 08bd 1bf6 5a3c 7834 2f3d
00000210: 10ae 073e 2fbb aabe 9ad3 44bd 1237 b03d
00000220: 5047 31be 6808 75be 0287 c3be 6df0 c1bc
00000230: ff41 18bd 6153 f43d 06a9 0a3e d198 5a3e
00000240: 6cdb f73d 14d2 aebe bbc5 ecbd 42d3 a9bd
00000250: fae7 ab3c 960d 1e3d 85a1 1c3e 79cb 363e
00000260: bb0d 433e d2df 0fbe c0e3 0e3d 59e4 973d
00000270: 2d93 09bf c973 2bbf e386 49bf 0a05 0dbd
00000280: 93ee c03c f90b 2ebe 780b 64be 4a70 c8bd
00000290: b269 633e 5ebe a73d bded 303e f016 9c3f
000002a0: e4fa 8f3f 9823 6a3f 49b4 53be 8c15 4ebe
000002b0: 9f8e 56be 588f f9bc 4f95 c6bd 5d02 1dbe
000002c0: 4550 30be 81da b1be 8d99 05be 30cd 0b3e
000002d0: 8a5f f0bd 26df 0bbe b0da fbbd cbd9 8bbd
000002e0: 4c69 373e 0bd8 3a3d 23b0 0cbd 0383 98bd
000002f0: a1cb 06be 5139 14bd 0f9b fdbd b86f 3bbe
00000300: 6d87 70be fb7b 813e 1315 503e 5b85 80bd
00000310: 1146 b23e cded 69be 700b a9be f035 ba3d
00000320: 355c 0abe 52e0 ad3c f0c6 40bb d083 3ebb
00000330: 6ed8 11be 6ab3 773d 638b 5cbe d37d 3ebe
00000340: 2de1 20be 307c e7bd e0e9 68bd 71f4 a9bd
00000350: dc7e fdbd 9968 c6bc 49b0 88bb e506 c53d
00000360: 05a8 d0bd cde3 ddbd e6ca 293c 22f8 92bc
00000370: 24ec f13c 1f4d 5cbd 449e 70bd f099 afbd
00000380: 9970 4bbb 6580 a3bd a356 a2bd 27fe b03d
00000390: 1808 90bd f547 af3d dc13 84bd 6a8c de3c
000003a0: 79a5 30bd 6a3e 373d 104c 01bd 9e62 263d
000003b0: 804b e0bc 71bb 14bd 2e83 97bd 2b75 5ebb
000003c0: d31b 2ebd f5fa 0c3e dd76 393e 8789 1cbc
000003d0: 37b4 7f3e d0fe f1ba 3bbb dabd 6f1a 5dbf
000003e0: 0e01 3abf b51c 1fbf d70f 28bd ae9a 78bd
000003f0: 53ff 9d3d eff8 a8be 8d9b 793d f7e0 8c3e
-0.24064448 -0.13164003 0.054411314 -0.07187144 0.14035822 -0.28340453 0.17470281 -0.18595715
0.08717365 0.08953996 -0.13245855 -0.038268097 -0.113238625 -0.3216863 0.1452866 0.13787942
0.41068652 0.18567398 0.33893204 -0.011145938 -0.13823673 -0.14705238 -0.16526148 -0.33296818
-0.2753429 -0.34774613 -0.12137032 -0.35251474 -0.40564486 -0.26271456 -0.2001726 -0.1723902
-0.19009319 0.019052032 0.14140397 0.0977027 0.04048038 0.12026169 -0.15007587 -0.12619434
0.121769406 0.07332107 0.0055694715 0.17712596 0.051938992 -0.16304043 -0.044901125 -0.44185418
-0.27950338 -0.22783692 0.088824995 -0.0060712355 0.078047834 -0.16285776 0.17342807 0.24435733
-0.28998926 -0.714793 -1.0026897 -0.007039175 -0.08540481 0.08794749 -0.014744832 0.059906047
0.13301897 0.11775238 -0.4027466 -0.020822076 0.036609475 -0.26408002 0.030877408 0.10765526
0.03026539 -0.044604216 0.125538 -0.53373194 -0.24638666 -0.27087447 -0.05508858 0.11851614
-0.11767349 -0.27797812 -0.0027850242 -0.66053873 -0.27498108 -0.11677268 0.021675564 0.5913367
0.69294065 0.69783056 -0.15832207 -0.03599375 -0.08891524 -0.15143639 0.16774109 0.19043799
-0.06061374 0.3066949 0.25605577 -0.06635474 0.12371299 0.1131627 0.23520131 0.07269659
-0.060702253 -0.6295591 -0.29728404 -0.5474656 -0.48787352 -0.61990947 0.27176505 0.2670023
0.16155264 0.06443749 -0.11743965 -0.06060277 0.07840317 0.19143061 0.43584207 -0.18572466
0.21777785 0.103771806 -0.15052353 0.11761625 0.12780333 -0.34990597 -0.035739783 -0.16666403
-0.10142955 -0.033240873 0.01336434 0.042774647 0.13249993 -0.33345935 -0.04805336 0.08604254
-0.1731236 -0.23928988 -0.3818894 -0.023674214 -0.037172314 0.11929966 0.1354104 0.21347357
0.12102398 -0.34144652 -0.115611516 -0.08292247 0.020984638 0.038587175 0.1529599 0.17851056
0.19048207 -0.14050224 0.034885168 0.07416601 -0.537402 -0.6697355 -0.78721446 -0.034428634
0.023551261 -0.16996755 -0.2227 -0.097870424 0.22208288 0.081906065 0.1727819 1.21945
1.1248441 0.9146056 -0.20674242 -0.20125407 -0.20952843 -0.03046386 -0.09696447 -0.15332933
-0.1721812 -0.34737018 -0.13046856 0.13652492 -0.11736973 -0.13659343 -0.12297571 -0.0682865
0.17911261 0.04561619 -0.034347665 -0.074468635 -0.13163616 -0.036187474 -0.12383091 -0.18304336
-0.23489161 0.25289902 0.20320539 -0.062754355 0.3481908 -0.2284462 -0.3301654 0.09092319
-0.13511737 0.021225128 -0.002941545 -0.0029070266 -0.14242718 0.060473837 -0.21537547 -0.18602686
-0.15710898 -0.11302984 -0.056863666 -0.082985766 -0.12377712 -0.024219798 -0.0041714055 0.09620456
-0.10188297 -0.10834465 0.010363316 -0.017940585 0.029531546 -0.053784486 -0.058744684 -0.08574283
-0.0031042455 -0.07983474 -0.07926681 0.08642226 -0.07032794 0.085586466 -0.064491004 0.027166564
-0.043126557 0.044737257 -0.03156668 0.040621392 -0.027379751 -0.03631157 -0.073980674 -0.003394435
-0.042507004 0.13767608 0.18111749 -0.009554273 0.2497109 -0.0018462781 -0.10680243 -0.8636846
-0.7265786 -0.6215318 -0.04103073 -0.06069439 0.07714715 -0.3300242 0.06093936 0.27515385

fc1.bias f4 [128]
00000000: 5252 24bc c3e8 c2be 0f07 933e 0c8f e1bd
00000010: e718 06bf 8a0d ac3d 904a 953d d507 4d3e
00000020: 63d9 333d 86de 56be bc60 1a3c f738 533e
00000030: e1bb 8c3d 166f d93c a010 5abe 0a27 d53d
00000040: 1c6b bfbd 9379 f9bd 837d b9bd 5d41 4abe
00000050: ebb9 23bd 1804 edbe 07c7 70be b9ac eb3d
00000060: 3a25 c43e cf2e 17be 624b c6bc 78eb 743d
00000070: 3fca 08be 2382 95be 1ea3 0fbe 4896 74be
00000080: 6899 94bd d9ef 0b3e 3d4a 10ba 09e0 5fbe
00000090: 66c9 e53c be13 af3c def7 94bd 4720 84bd
000000a0: dd2e f4bc 99f6 3ebd f1b2 633e a9a8 b6be
000000b0: 04a3 2ebe 44e0 42be aaf3 e6bc 34c7 8abd
000000c0: ebd0 c6bc ccea e43d 8a1b 3b3d fd48 033e
000000d0: b3c3 423e fa38 b8bd c280 c5bc e6a1 1f3e
000000e0: 3a40 073e 8949 703e 84df 8d3d cbdd 9cbd
000000f0: a27d 8ebd a47b 1f3e 159f dabd 99f6 13bd
00000100: b71d f3bd 1c49 1d3e c3c9 08be d560 7cbe
00000110: 33b6 66be b4e6 79be 1853 d83c 0f3b cbbd
00000120: 5dad 0a3e 05de 093d 8fa6 bdbc ec57 a73d
00000130: 9a13 85bc 10f3 80be d5ac 9c3d dda5 413d
00000140: 6b62 ae3d 3053 29be d0a2 65be 57b4 593e
00000150: 8e94 4fbe a309 2ebe 87c7 12be c8f2 2abd
00000160: 1779 433e e73d e3bd cdf0 6bbd d9b4 3f3e
00000170: 04cd 21bc 1f91 b83e 34df 20be b20e ffbd
00000180: 0dd8 89bc 4d04 84be 91f3 3b3d 9cf4 f1bc
00000190: 6ebb 74be 5d80 e7be c53e 0cbe f557 8d3e
000001a0: 3f7e 96bc d0d2 ba3c 2338 8dbd 3e27 993e
000001b0: 465d 413d a02c f1bd 57ef 8bbd 2b97 0c3d
000001c0: c190 00be d363 393e 4767 2dbd 238e 38be
000001d0: f27b f9bc 2489 acbe 14de aabe 3da0 0dbd
000001e0: 4dc4 cebd 2363 913e cebe c43c 5f74 7ebe
000001f0: f090 10bd 1992 1a3e 4bdd a7bd b975 00be
-0.010029392 -0.38068208 0.28716323 -0.11013612 -0.5238175 0.0840102 0.07289612 0.20022519
0.043908488 -0.20983323 0.009422477 0.20627199 0.068717726 0.026542228 -0.21295404 0.10407837
-0.09346601 -0.121813916 -0.090571426 -0.19751497 -0.039972227 -0.46292186 -0.23513423 0.115075536
0.38309652 -0.1476395 -0.024205867 0.059794873 -0.13358401 -0.2920085 -0.14027068 -0.23885453
-0.072558224 0.13665713 -0.00055042264 -0.21862806 0.028050136 0.021371718 -0.072738394 -0.06451469
-0.029807502 -0.046621893 0.2223623 -0.35675552 -0.17054373 -0.19030863 -0.02819236 -0.06776276
-0.024269542 0.111775964 0.04568056 0.12820812 0.19019966 -0.089952424 -0.024109248 0.15589103
0.13208094 0.23465551 0.06927398 -0.07659491 -0.06957556 0.15574509 -0.10674874 -0.036123846
-0.11870902 0.1535992 -0.13358216 -0.24646313 -0.22530441 -0.24404413 0.02640681 -0.09923374
0.13542695 0.033659 -0.02315071 0.08171067 -0.016244698 -0.25185442 0.076501526 0.04727732
0.085148655 -0.1653564 -0.2242539 0.212602 -0.20271513 -0.16995864 -0.14333926 -0.04173544
0.19089161 -0.11095791 -0.057602692 0.18721332 -0.00987554 0.3604822 -0.15710145 -0.12453975
-0.016826654 -0.2578453 0.04588658 -0.029535584 -0.23899624 -0.4521512 -0.1369582 0.27606168
-0.018370746 0.022805601 -0.06895473 0.29912752 0.047208093 -0.1177609 -0.0683276 0.034323853
-0.12555219 0.18104486 -0.04233482 -0.18022971 -0.03045461 -0.3369838 -0.33372557 -0.034576643
-0.10096035 0.28395948 0.024016764 -0.2484908 -0.035294473 0.15094794 -0.08196505 -0.12544908

fc2.weight f4 [128, 128]
00000000: ced6 e43c d4ce a23d 3c49 72be bf71 cbbd
00000010: 1330 803e db5b 9bbe 9504 22bf 7c29 43be
00000020: 4268 60be 3d65 2dbf c460 1bbe f7f2 543d
00000030: 50aa 8a3e 6b9c bebc 675f cf3d df75 963e
00000040: aa20 a4bc d0f9 a7be 4539 16bd a0be c5be
00000050: ccaa 5fbe b320 91be ebd3 16be ca7b 23be
00000060: 744c ba3d 272c 1bbf 8a2c 1dbc 53cc 0f3e
00000070: dd8c 20be f0f0 afbe edff 283c d5c6 16be
00000080: a330 93bd 35d4 d2bd 8493 af3d 2786 21bf
00000090: f220 7e3e cd34 21be c423 c43d b58a 80bd
000000a0: e683 30bd d347 bdbe ece9 02bd e139 c63d
000000b0: 7806 e6be 38ae 7c3e 5532 2abe 5433 babe
000000c0: 2e82 95be e511 073d d122 933e b08d 34bf
000000d0: c20b 5dbe 6fd9 923e 5c3c 843c e4d0 65be
000000e0: 20b3 803d 2a00 96be d8d9 15be e01a 15be
000000f0: 722f 45be 5020 473f e19f 833d f621 4ebf
00000100: 7e0c 20bd 3820 b63e 2cc9 08bf e2c5 adbd
00000110: 8872 fbbd cc3d 20bd 51ef 77be ad94 293e
00000120: b735 603e 64ee 29be d77a fdbe 4611 aabe
00000130: c7cd 7b3d 5c7d a4be bbc7 9ebe 8e5e 503d
00000140: 216d 22be 7a65 203f dcf9 80be 5244 0ebe
00000150: 0bab 16be 09a1 b3be 2828 0d3e 3712 f33d
00000160: ae76 47bd e1eb a03d ce8c a3be d491 aeba
00000170: efb4 a5be e0b4 fb3d d825 84be 1d52 0fbf
00000180: 8d08 823e 51a1 69be dae6 32bb bc6b b63d
00000190: b395 243e 6772 64be 6092 f8be fd48 aabe
000001a0: 362c 1abe 48a7 0dbf b650 463d a276 febc
000001b0: f3a4 8cbf 90d0 18bf d2e2 8bbe 1a47 d2be
000001c0: efff 61be 4744 ba3d 79b9 f23e 75b6 84bd
000001d0: 0e4d f7be b179 53bd 1935 2cbf e12f 86be
000001e0: 92f6 22be 0329 e33e bb3d 013e 515e 3dbe
000001f0: 9c83 703d 14d8 623e 8ed3 a2be b1be 8bbd
00000200: fcf3 75be 7235 01bf a44a 4abd ee92 d53c
00000210: 4707 bbbe e8cb ed3e 99c7 3abb 6762 c83e
00000220: dc8b 20be 3084 b6be 3501 ba3c d641 c43c
00000230: 59ba 9b3e 0200 c33c 4610 09bf f721 80be
00000240: 59e3 4b3e 1e5e b03e 90d1 39bf 0e28 26bd
00000250: c47a 233c 6e59 8c3e 527a 83bd 5fd6 1a3e
00000260: 0192 de3d a55e b8be a6a5 b2bd 5419 53bf
00000270: 8376 f83c 1570 c8be 8d9a 00be eb46 443e
00000280: 933b 843e 33a0 f83a 96fe 85be e3e4 0dbf
00000290: e82b a63d 9942 1cbf d21b f5bd a0b2 8a3d
000002a0: 830a 71be f20e f9be cede 3bbe 14bd 7abe
000002b0: f462 3cbd cef4 203e 54df 51bf 1be5 aebe
000002c0: 93e6 d73c 4ae8 abbd b8b4 da3c 0795 c53e
000002d0: e66b a0be 76d2 02bf a15f 1cbd 57fd 74bd
000002e0: 7f6f b9bd ba50 8cbe 9f38 68be ded2 4f3f
000002f0: fd03 9f3d 9699 503e da57 bfbe b583 f1bd
00000300: a989 a1be 97eb 103e 4209 83bd 7a5f 84bd
00000310: e9ed 3bbf c5dd 4ebd 7af7 09be 5e72 ac3e
00000320: 999b 263e fbc9 80be d0f7 40bc b7a0 a33e
00000330: 929d 3cbc f11f 7ebe 4eee 9cbf 63b3 bcbd
00000340: 79e1 db3c 1fc2 d33e 68a0 7dbe 02af 8d3e
00000350: 53c6 bc3c 99e2 00bd 2527 00bf d3b4 d6bd
00000360: 1d18 033e 2fb0 14bf 656c 92bd 01a8 5fbe
00000370: 1c21 b6bd bc62 333d 21d5 ec3e 15a6 c8be
00000380: 3bb2 d43e ce33 eebe 1a30 5f3b a996 e33e
00000390: d362 a6be c18b 30be ced0 67be 7df0 18bf
000003a0: 258a 03bf 72c2 1dbd 9b34 cabd e424 60be
000003b0: 5e9b 4ebe 5668 20be cea8 68be 992e 263e
000003c0: e9c2 5fbd 092a ccbc 51e0 82bd ed3d e13e
000003d0: a0c9 8e3d bf4b 0d3e 67c5 803e c4cc cebe
000003e0: 2c88 9ebe a54a 263e f168 3dbd b8e3 27bf
000003f0: 952e d03b eeb4 123e d1a2 24bf e812 02bd
0.027934458 0.079496056 -0.23660749 -0.09933805 0.25036678 -0.30343518 -0.6328824 -0.19058794
-0.21914771 -0.677326 -0.15173632 0.05198952 0.27083063 -0.023267945 0.101256184 0.29386804
-0.020035107 -0.3280778 -0.03667571 -0.38621998 -0.21842498 -0.2834526 -0.14729278 -0.1596519
0.090966135 -0.60614246 -0.0095931385 0.14042787 -0.15678735 -0.34363508 0.010314924 -0.14724286
-0.07187011 -0.102943815 0.08573058 -0.63095325 0.24817255 -0.15742798 0.09577134 -0.06276456
-0.04309454 -0.3696886 -0.031961367 0.09679008 -0.4492681 0.24675834 -0.16620763 -0.36367285
-0.29200882 0.03297605 0.287375 -0.705287 -0.21586516 0.28681514 0.016142063 -0.22442967
0.062841654 -0.29297 -0.14633882 -0.14561033 -0.1925638 0.7778368 0.06426979 -0.8052057
-0.039074413 0.35571456 -0.53431964 -0.08485009 -0.122777045 -0.039121434 -0.24212386 0.16560622
0.2189549 -0.16594845 -0.49507782 -0.33216304 0.06147554 -0.32126892 -0.31011757 0.050871424
-0.15861942 0.6265484 -0.25190628 -0.1389325 -0.14713685 -0.35083798 0.1378485 0.118687086
-0.048697166 0.0785749 -0.31943363 -0.0013318607 -0.32364604 0.122903585 -0.25810122 -0.5598467
0.2539715 -0.22815444 -0.0027298243 0.089072675 0.1607273 -0.22309266 -0.48549175 -0.3325881
-0.15055928 -0.55333376 0.048416816 -0.031062428 -1.0987839 -0.5969324 -0.27321488 -0.4106987
-0.22070287 0.09095054 0.4740713 -0.064801134 -0.48300976 -0.051629726 -0.6726852 -0.26208404
-0.15914372 0.44367227 0.12621205 -0.1849301 0.058719262 0.2215274 -0.31802028 -0.06823481
-0.24018854 -0.50472176 -0.04938759 0.026071038 -0.3652899 0.4644463 -0.0028500317 0.39137575
-0.15678352 -0.35647726 0.022705654 0.023957174 0.3041561 0.023803715 -0.53540456 -0.25025913
0.19910945 0.34446806 -0.7258539 -0.040565543 0.009978 0.2741198 -0.06419815 0.15120839
0.10867692 -0.36009708 -0.08723001 -0.8246052 0.030329948 -0.39148012 -0.12558956 0.19167678
0.25826702 0.0018968642 -0.26170796 -0.5542738 0.08113843 -0.6103912 -0.11968197 0.06772351
-0.23539166 -0.48644215 -0.18346712 -0.2448619 -0.045992807 0.15718386 -0.81981397 -0.3415917
0.026355064 -0.08393915 0.026697502 0.3859026 -0.3133232 -0.5110239 -0.038177136 -0.059811916
-0.09054469 -0.2740534 -0.22677849 0.8118113 0.077644326 0.20371088 -0.37371713 -0.11792699
-0.3155034 0.1415237 -0.0639825 -0.06463523 -0.734099 -0.050504465 -0.13473311 0.33681005
0.16270293 -0.251541 -0.011777833 0.31958553 -0.011512177 -0.24816872 -1.2260225 -0.09213903
0.026840912 0.4135904 -0.24768221 0.27672583 0.023043787 -0.0314661 -0.5005973 -0.10483708
0.12802167 -0.58081335 -0.07149581 -0.21841432 -0.08893034 0.043795332 0.46256354 -0.3918921
0.4154223 -0.465239 0.003405577 0.44450882 -0.32497272 -0.17240812 -0.22638246 -0.59741956
-0.51382667 -0.038515516 -0.09873315 -0.21889073 -0.20176455 -0.15664801 -0.22720644 0.16228713
-0.05462924 -0.024922388 -0.06390441 0.43992558 0.06972051 0.13798426 0.25150606 -0.403906
-0.30963266 0.16239412 -0.046242658 -0.65581846 0.0063532093 0.14326832 -0.6431094 -0.03175631

fc2.bias f4 [128]
00000000: c763 443d db86 0c3d 1ce0 83be f41c 0dbe
00000010: 46f2 57be 2daa c93d 9bb1 213e 9f73 c23d
00000020: cfc5 46ba d8c7 703d 233e 9e3d 57aa 03be
00000030: fde0 9ebd 1d9d 88be 2f02 2bbe 843b f1bd
00000040: dbf3 d7be c596 bb3d 6974 a13c 662a 273e
00000050: 6d62 e53b 91d4 42bd 4569 383e ecbd 653d
00000060: 9690 033d 1516 203e 7de6 8dbd 3a54 18be
00000070: b889 4dbd 37a5 273e 5ded fabd 64d2 3fbe
00000080: ccec a93d 2e3c 66bd 8e44 0e3d 37c7 26be
00000090: bf1a 06bd 3dda 7fbd 6c9c b0bd 01bb 563e
000000a0: 856a 74bd 41ab 6f3e 66db 83bd 3c71 993d
000000b0: cb6f 9cbe 386a 96bd 409f 513e 6780 b4bb
000000c0: d286 fc3d 7cfe 213e 76b1 4fbe a1b6 6e3d
000000d0: d835 5abc dbd0 b9bd 2a76 a4bd 2182 d63b
000000e0: ff21 a5bd 446e 89bd 8195 80be 3085 debd
000000f0: 415a b3bd 1ff9 83bd c6c0 b6bd aa95 d33d
00000100: 0199 6cbe 1dd0 a6bd 634f 67be e3c2 58be
00000110: 0ba9 823d 2c71 043e 5538 93bd 44f7 73bd
00000120: abf6 813c 3eb1 97be 3b58 dbbd 0449 ddbd
00000130: b1fc 1abe 50a5 9f3c 4426 65bc 615a c53c
00000140: da44 8dbe a073 93bd f239 17be 37fa 113e
00000150: 2d80 6c3d dbb6 2ebd 0f47 0ebe 2016 a9be
00000160: ce72 4c3d ea4b 29be b903 403c 45e6 853b
00000170: 8d1a d1be dfbf df3d 3b43 2fbd 2d56 7bbc
00000180: d018 9239 31cb 903e 0256 0b3e 665c 1b3e
00000190: 8c21 c2bc 23f4 1fbb 7b32 8bbd b7ea 0bbd
000001a0: a8d1 0bbf 8eb9 65bc 8696 52be e09d ddbd
000001b0: 101a 90be 6da1 9abc 9119 fd3d 0201 c5bd
000001c0: ce42 03bc 7d15 3d3d 3893 9f3d 0cf6 f2bd
000001d0: 9a31 1b3d ad67 1cbe 15c6 c63d 8c3e 91bd
000001e0: ca65 313d ad99 8dbe b64f 343d cce0 dbbd
000001f0: 148e f9bc 7893 37be a39e 01be 7385 f13c
0.047946718 0.034308296 -0.2575692 -0.13780576 -0.21088514 0.098469116 0.15790407 0.09494709
-0.00075825764 0.058784336 0.077266954 -0.12857948 -0.07757757 -0.26682368 -0.16700052 -0.1177893
-0.42178234 0.091596164 0.019708829 0.16324767 0.0070002587 -0.047566 0.18008907 0.056089327
0.03212031 0.15633424 -0.06928728 -0.1487588 -0.050180167 0.16371618 -0.12252305 -0.18732601
0.082971185 -0.056209736 0.034733348 -0.16286932 -0.03274035 -0.062463988 -0.08623585 0.20969774
-0.059671897 0.23405172 -0.06438331 0.07492301 -0.3055404 -0.07344478 0.20470905 -0.005508471
0.123304024 0.15819734 -0.2028254 0.058279637 -0.013318501 -0.09073039 -0.080303505 0.0065462743
-0.08063125 -0.067104846 -0.25114062 -0.10865247 -0.08757449 -0.064440005 -0.08923487 0.103312805
-0.23105241 -0.08145163 -0.22588877 -0.21168093 0.06379899 0.12933797 -0.07188479 -0.059561983
0.01586469 -0.29627413 -0.10710188 -0.10804942 -0.15135457 0.019488007 -0.013986174 0.024090948
-0.27591592 -0.07199788 -0.14768198 0.14255606 0.057739425 -0.042654853 -0.13894294 -0.33024693
0.049914174 -0.16532865 0.011719638 0.004086288 -0.4084057 0.109252684 -0.042788725 -0.01534037
0.00027865777 0.28280023 0.13607028 0.15171966 -0.023697637 -0.0024406991 -0.06796738 -0.03415939
-0.54616785 -0.0140212905 -0.20565233 -0.10821128 -0.28144884 -0.018875802 0.12358392 -0.09619333
-0.008011533 0.04616307 0.077917516 -0.11863336 0.0378891 -0.15273924 0.0970575 -0.07092008
0.043309964 -0.27656308 0.04402133 -0.10736236 -0.030463256 -0.17927349 -0.12658171 0.029482579

fc3.weight f4 [4, 128]
00000000: fe4f be3e a5d1 f5be 5a1e b93e c817 5f3c
00000010: 3b0f 18bf 6512 b8be f806 94be f907 8a3e
00000020: 486d 88bd cefe 23ba 2250 4a3f 0fbe 30be
00000030: ff8c 3fbb b80f 68bd 4fb8 363f 15b1 4dbe
00000040: 6a6e 083e 8865 483e 1308 133c 20ca 233f
00000050: 02b1 12bc 2800 c6bd cf71 123f 01ff 0f3f
00000060: cb5e 8fbc 1b5b 08be 8762 5abe 2c27 6e3e
00000070: 497a e0bd 06ce bebd c930 6fbf f580 29bb
00000080: 64a3 1dbe d54e 813c 8db0 c23e 4beb 46be
00000090: e41e 13bc c11a 85bb fe2a 4cbb 5166 38bf
000000a0: 271a 3ebe 76f7 813e 1228 02bf 26a6 b9be
000000b0: 82ab 283f 4b53 963e e9bd 553e 8fa3 8ebe
000000c0: 39c9 1b3e 52d4 a9bd a9ea 383f e7c1 2c3e
000000d0: 541d afbc cd80 d13e eba4 7a3e 577a 2ebe
000000e0: f22a a2be 4d3f 6dbd b8d2 83bf 4d70 08bc
000000f0: 7576 d2be e479 19bf b486 f9be 09da f7bd
00000100: d345 05bf a59b ae3d 588d 41bf ae4e 02bf
00000110: 54ac 033f ee53 ee3d 217b fdbe f142 e2be
00000120: 95e0 573f 0f32 cc3e 136d 213f b89f 01bf
00000130: 031c 483e 04f5 1f3f 744f 8fbe 3e98 b6bb
00000140: aa67 3cbf 9aaf 2a3c e06b 833e 9965 5cbe
00000150: c83e 2abf 2236 2e3e 389c e0bd 1a8b 903c
00000160: e823 0dba 2360 55be 9328 b2bb 758c 833e
00000170: 0020 1abf d58f 613f c626 4fbd f465 20bc
00000180: 0aed 51bf 15dc c93d 09ca 8f3d 37bb eb3e
00000190: e0a4 3c3e 8670 843e f058 8d3c 0e01 3cbf
000001a0: 3246 8b3e 9603 02bf d13b ac3e 8913 713e
000001b0: 710b e8be c848 4cbf 577e 4abf f404 823d
000001c0: ad19 01bf 4902 bebb c4ea 3d3f 0d4c 6f3f
000001d0: 12f1 92bf bf41 f6be a82a dc3e f29f 94bc
000001e0: 23e4 cf3d 7d24 eb3e 7f46 043e 7ff8 c2be
000001f0: ec3a 2e3c 3951 46bf bf7d 2abf 4a14 363b
00000200: e23e bbbe e914 07bf bc5f ca3e 5f4e 813d
00000210: b106 fa3d 3bef 5bbe 2df5 9ebe 7785 873e
00000220: 70d1 673c 9002 eb3e 0ab5 3f3f b22b 9e3e
00000230: 39dc a33b 622f 173f 959e 02be a45f 49bf
00000240: a245 ac3e 1820 2c3e c826 c1be b972 a53e
00000250: a00d 583a 156b 733e dd71 013f 9ef6 97bf
00000260: 88c3 ff3c e391 1bbf be6b e43d ae0d 2b3f
00000270: b4f5 3b3e 1baa 83bd 9fa9 a8be 5d1a 53bf
00000280: 6e44 a1bc 7632 ac3e f130 d73c c590 953d
00000290: 8252 2d3c 0e4c 3c3c 26ab e93c 9e0d 213f
000002a0: d9bc 06be 69c3 103f 33d7 c43e 1f27 82be
000002b0: 123d 613f 5765 e53e 73ef ccbd 4dcf 99bd
000002c0: 9801 523f 25d7 88be c208 433d 1622 d93d
000002d0: 1711 63bc 3a4f b63b a823 acbe dd3d f03c
000002e0: bebd 8b3f a31f e33d 0a54 17bf 8f80 30bf
000002f0: 65d0 6bbe 66f3 24bf 242a 47be 24b5 09bf
00000300: cb5a 0fbd 1b1f e43e 6074 9bbd b786 30bf
00000310: 0d3b 903f 2fdf 18bd e2a7 eabe a076 04be
00000320: d67f 343e 782c 373f db4a aabe e5d7 0fbe
00000330: be79 ac3e df85 0c3f a5eb 0a3f 8ec3 59bc
00000340: 7865 263b 758b 7aba 56be f13e 9339 a2be
00000350: 557c b4be e4be e03e cad5 2abf cdd4 82be
00000360: 798e a4bc b44a 043f f224 4a3c c77e 3dbe
00000370: 406f ad3e c715 3b3f 0b73 543e 1449 293d
00000380: 9eac 8c3f 88e7 9ebb 9763 f83e d454 0c3f
00000390: 5070 a23d 5e1c d7be fca8 4fbd 57cd f33e
000003a0: 1a0c 753d 939f a03e 5b07 16be 9e60 933e
000003b0: 9b49 893f 3dda bf3d bedd 15be 1056 ac3e
000003c0: f8e6 e1bd 9286 e5b9 a1d5 a7be 9e1e 4fbe
000003d0: bf39 1a3f 30af febd ec0f a03b 55df 5ebe
000003e0: 9c1b 26be 3e2f 6cbe 7482 a63e e64e 6abe
000003f0: fb7a a9be c65a e2be 534d 4e3e 2a25 843e
0.37170404 -0.4801151 0.3615597 0.01361651 -0.5939824 -0.35951534 -0.28911567 0.26959208
-0.06661469 -0.00062559254 0.7902852 -0.17260002 -0.0029228327 -0.056655616 0.7137498 -0.20087083
0.1332337 0.19569981 0.008974093 0.63980293 -0.008953335 -0.096679986 0.5720491 0.5624848
-0.017501255 -0.13316004 -0.21326648 0.2325713 -0.10960824 -0.093166396 -0.93433815 -0.0025864218
-0.1539436 0.01578466 0.38025323 -0.19425695 -0.008979533 -0.004062027 -0.0031153555 -0.7203112
-0.18564664 0.2538411 -0.5084239 -0.36259574 0.658867 0.29360422 0.20873226 -0.2785916
0.15213479 -0.0829245 0.72233063 0.16870843 -0.02137629 0.4091858 0.24476974 -0.17038856
-0.3167339 -0.057921696 -1.0298681 -0.008327556 -0.41106 -0.59951615 -0.48735583 -0.12102134
-0.5205967 0.085257806 -0.756063 -0.50901306 0.51434827 0.11637102 -0.49508002 -0.44191697
0.8432706 0.39881942 0.6305706 -0.50634336 0.19541936 0.6248324 -0.27990305 -0.005572348
-0.7359568 0.010417843 0.2566824 -0.21523131 -0.66502047 0.17012838 -0.10967296 0.017644454
-0.00053840736 -0.20837454 -0.0054369657 0.25693098 -0.6020508 0.88110095 -0.050574087 -0.0097899325
-0.8200232 0.098564304 0.07020957 0.4604127 0.1842227 0.258671 0.017254323 -0.7343911
0.27201992 -0.5078672 0.33639386 0.23542608 -0.4532123 -0.79798555 -0.7909903 0.06348601
-0.50429803 -0.0057986123 0.7418635 0.9347542 -1.1479819 -0.48097035 0.43001294 -0.018142674
0.101509355 0.45926276 0.12917517 -0.38080212 0.010634165 -0.77467686 -0.66598123 0.002778309
-0.36571413 -0.5276628 0.39526165 0.06313776 0.122083075 -0.21477978 -0.3104643 0.26469013
0.014149055 0.45900393 0.7488562 0.30892712 0.005000618 0.59056675 -0.12755807 -0.7866156
0.33646876 0.16809118 -0.377249 0.3231409 0.00082417764 0.23771317 0.50564367 -1.1872137
0.031221166 -0.6076948 0.11153363 0.6681775 0.18355447 -0.064289294 -0.3294191 -0.824621
-0.01968595 0.3363225 0.026268454 0.07303003 0.010578753 0.011492742 0.028523993 0.62911403
-0.13157977 0.5654817 0.38445434 -0.25420472 0.8798381 0.4480388 -0.10006609 -0.075102426
0.8203368 -0.26726642 0.047615774 0.106022045 -0.013859055 0.0055636438 -0.33620954 0.029326374
1.091728 0.110900186 -0.5911261 -0.68946165 -0.23028715 -0.64433897 -0.19449669 -0.53792024
-0.034998696 0.44554982 -0.07590556 -0.6895556 1.1268021 -0.03732222 -0.4583121 -0.12935877
0.1762689 0.7155223 -0.33260235 -0.14047201 0.33686632 0.5489177 0.54265815 -0.013291253
0.002539007 -0.0009557524 0.47215527 -0.3168455 -0.35251108 0.43895638 -0.66732466 -0.2555298
-0.020087468 0.5167649 0.01233791 -0.18505393 0.3387394 0.73080105 0.2074701 0.04132946
1.0990179 -0.004849378 0.4851348 0.5481694 0.07931578 -0.4201383 -0.050698265 0.476176
0.059825994 0.31371745 -0.14651243 0.2878465 1.0725588 0.093677975 -0.14635369 0.3365941
-0.11030382 -0.00043778546 -0.32780173 -0.20226523 0.60244364 -0.12435758 0.0048847105 -0.21764882
-0.1622147 -0.23064896 0.32521403 -0.2288166 -0.3310164 -0.4420988 0.20146684 0.25809604

fc3.bias f4 [4]
00000000: 5d80 da3b 32d3 ebbd 89b9 43be 6f27 3fbd
0.006668134 -0.11514892 -0.19113745 -0.046668466

head.weight f4 [128, 24]
00000000: 66cf e5be b4ea 96bc d8ea 09bf be73 e33e
00000010: f9df 2e3d 9412 a5be ac5b bd3d 4d59 ac3e
00000020: b002 683e a26d 593e c798 fcbc 39e7 0c3e
00000030: 0c2b 2abe d168 b2bc cb71 34bd 4fd4 09bc
00000040: 2c4a 893c 96cf 3cbe 9f38 603d ffd5 633e
00000050: 5520 fabd e779 4ebe 2849 25be 48a7 7ebd
00000060: 432d 4bbf 07ee 7cbf e6e8 ccbd 3f3e d03e
00000070: 7ec9 6a3c c470 aebd fadb ca3d 3931 793f
00000080: 8ee4 233f c182 283f e1b1 19be e043 60be
00000090: 5ff5 86be 87a3 10be fb40 c6bd d517 083e
000000a0: 9d59 35be 9a56 a63d 0f26 09be 2874 7c3d
000000b0: 7479 8bbe 492d 23be c093 e3bc e22a b83e
000000c0: 695b 2f3e 5ffd d93e efe5 553e bdf0 38bd
000000d0: ee2f 44bd 48e5 6bbe 1880 eb3c 40b8 d03e
000000e0: a156 1f3e 4fe1 3a3e baec 05bc 53be 1abe
000000f0: 95a9 f43d f6a1 303e b2c9 1cbe 632c 47bd
00000100: afe0 4abe b508 c1bd 61df 983d 5df4 953d
00000110: eb3a 4b3c 26a7 183e 7450 d23c 67dd f3bc
00000120: 3cf0 a53c 2d18 5cbf cd7a ac3f ae1e e0bc
00000130: 7507 febd 270e 9cbd c438 213e 7ad7 883f
00000140: 8e7d 103f 9f83 ff3e 19e3 a6be 3039 0cbe
00000150: d293 d73c b2ee 35be 2bc6 3e3e 0da0 00be
00000160: 090b f13c 54a6 893c 0b9f 863e 2ad2 cbbc
00000170: 8bba 913c e85a b1bd cb81 983e fdf0 18be
00000180: bbd8 9fbe 871f c6bd 3330 923e 2f37 d63e
00000190: 7355 22be 9546 a13e 43b7 9f3d c4fd 773d
000001a0: 3999 e33c 0b71 0dbe ab0e 1fbe b4f0 34be
000001b0: 6d44 233c f565 9dbd 48db 0e3e e430 a83d
000001c0: c717 b0bd d375 d5bc 82d7 7abe 9ba1 ae3c
000001d0: fe8b 61ba 7315 cebb 21f4 cbbd dc84 933d
000001e0: fc56 adbe 1734 2ebf 3f15 893e aae1 84bf
000001f0: 4957 a8be d440 67bd 620f 163e d54e 023d
00000200: 2281 f03d a10c 1d3e fef9 563e 3d27 a33c
00000210: bcd1 663d 6303 02bd 259f a7bd aa3a 093d
00000220: 624e af3e 9ebc 873e 1ee5 10bf 5014 8c3d
00000230: b501 2cbc f27d 663b 3ee4 cf3c 1e3c bc3b
00000240: 0e3e ec3e 52c7 2a3e 7e4e 0340 819d 18c0
00000250: 0777 013e db21 193e 6b4a a8bd 530b 29be
00000260: 31d4 83be a1f5 b8be 1d3b fb3b 81be a3be
00000270: 1888 2dbd 6179 fc3c b4c9 f63c 760f ca38
00000280: a994 2e3d 2140 b83c 94c3 b9bd 774d 913d
00000290: ae84 6d3b 16e8 0c3b fc43 963e 5b09 90be
000002a0: 0262 b83e 3f7d 4ebf f1f6 f63f c6a5 03c0
000002b0: 1daf 2bbe cbc2 96be 26f6 f33b 26b0 403e
000002c0: 3d58 173e cce6 dc3e ec3e ac3d 477b d5bc
000002d0: 5a2c 333e 00d8 3ebe 0012 5b3d cd49 b83d
000002e0: 600e 6b3e df98 3a3c dfd8 00bd 5cf3 d7be
000002f0: f117 32bd 4d35 7bbd ce94 2ebd d2a8 b73d
00000300: 6334 2fbf 40d1 aebe 0920 a3be acd3 dc3f
00000310: cf91 24be d542 21be 45b7 90bb 6e2b e83e
00000320: 6c06 b4be 2be7 d7be 1271 b63d fc46 5e3e
00000330: 1230 743e b8f0 063c 077f 983d 621c b2bd
00000340: 92e7 2f3e 4944 d9be 1fcf 03be 1251 f03c
00000350: fa1c 49bd f2c8 44bd 2412 36bd 0cfe 933d
00000360: 6f5a 183f 51c2 55bf d9d1 2940 14d2 14c0
00000370: b768 5abe 2004 bcbe 6a94 943c 2333 bb3e
00000380: add4 b93e 4768 4b3e e005 e2bb fe1a eb3d
00000390: 125f 313e 5914 6abe 5286 703d 7d97 ee3d
000003a0: d920 923e 108e 813c 0a8f 1bbd 76e7 eebe
000003b0: 7ebd 39bd 6121 b9bd 899e 38bd 411f f93d
000003c0: 22ba f1bd ff20 ed3d e5f7 70be 1c60 f23e
000003d0: 15ac ad3d 7d79 533e 7940 38be d2fb 02bd
000003e0: a03a 20be e581 8cbd 7950 62bd 3c1a e8bc
000003f0: 9fb6 b5bc f6c4 51bd 6814 743d 10f0 c6bc
-0.44884795 -0.018422462 -0.5387397 0.44424242 0.042694066 -0.32240736 0.09246001 0.3366188
0.22657275 0.21233228 -0.030834569 0.1376008 -0.16617984 -0.021778496 -0.044053834 -0.008412435
0.016759 -0.18438563 0.054741498 0.22249602 -0.12213198 -0.2016369 -0.16141188 -0.06217125
-0.7936594 -0.988007 -0.10005359 0.4067249 0.014330266 -0.08517602 0.099052384 0.9734073
0.6402062 0.65824515 -0.15009262 -0.21900892 -0.26359078 -0.1412488 -0.09680363 0.13290341
-0.17709966 0.08121987 -0.13393424 0.061634213 -0.272411 -0.15935244 -0.027780414 0.35970217
0.17124714 0.4257612 0.20888494 -0.04515146 -0.04789727 -0.23036683 0.028747603 0.40765572
0.1556039 0.18250011 -0.008174116 -0.15111665 0.11946408 0.17249283 -0.15311316 -0.048626315
-0.19812272 -0.09425489 0.07464481 0.07321999 0.012404184 0.14907512 0.025673129 -0.029768659
0.020256154 -0.8597439 1.3474976 -0.02735838 -0.12403766 -0.07619887 0.1574431 1.0690758
0.5644158 0.49905106 -0.32595137 -0.1369369 0.026315603 -0.17766836 0.18630283 -0.12561055
0.029424207 0.016802944 0.26293215 -0.024880487 0.017789146 -0.08659917 0.29786524 -0.1493568
-0.3122004 -0.09673982 0.28552398 0.41838977 -0.15852909 0.31499162 0.07798626 0.060544744
0.027783023 -0.13812654 -0.15532939 -0.17669946 0.009965044 -0.076854624 0.13950837 0.0821245
-0.08598285 -0.02605716 -0.24496272 0.021317294 -0.00086039293 -0.006289178 -0.09958673 0.07203075
-0.33855426 -0.6804823 0.26774022 -1.0381367 -0.32879093 -0.05645831 0.14654306 0.03181346
0.1174338 0.15336849 0.20993802 0.019916171 0.056352362 -0.03174151 -0.08184651 0.033503212
0.3423949 0.2651109 -0.56599605 0.06839812 -0.010498454 0.0035170284 0.025377389 0.005744471
0.46141094 0.16677597 2.0516658 -2.3846133 0.12643062 0.14954321 -0.08217319 -0.16508226
-0.25747827 -0.361249 0.007666959 -0.3198128 -0.042366117 0.030819597 0.030125476 9.6349904e-05
0.042622242 0.022491517 -0.09070507 0.07094853 0.0036242413 0.0021500639 0.29348743 -0.28132138
0.36012274 -0.8065986 1.929411 -2.056993 -0.16766019 -0.2944549 0.0074451147 0.18817195
0.14779754 0.43144834 0.08410439 -0.02605976 0.17497388 -0.18637085 0.053483963 0.089984514
0.22954702 0.011388986 -0.031456824 -0.42177856 -0.043479864 -0.06133013 -0.04262238 0.08967747
-0.6843931 -0.3414402 -0.31860378 1.7252097 -0.16071247 -0.1574815 -0.0044163787 0.45345634
-0.3516115 -0.42168555 0.08908285 0.21706766 0.23846462 0.008236103 0.074461035 -0.0869682
0.17178181 -0.4243491 -0.12871979 0.029335532 -0.0490999 -0.0480432 -0.044450894 0.0722619
0.5951299 -0.8349963 2.653433 -2.3253222 -0.21329008 -0.36721897 0.018137176 0.36562452
0.3629507 0.19863997 -0.006897673 0.11479758 0.17321423 -0.22859325 0.058721848 0.11649988
0.28540686 0.015814811 -0.03797821 -0.46660966 -0.04534673 -0.0903957 -0.045073066 0.12164164
-0.1180308 0.11578559 -0.23532064 0.4733895 0.08480088 0.20651813 -0.17993344 -0.031978436
-0.15647364 -0.06860713 -0.055252526 -0.028332822 -0.022181807 -0.051213227 0.059589773 -0.024284393

head.bias f4 [128]
00000000: ab21 a7bd 43f5 b6bd 4e1e 993e 383d 2abe
00000010: 5c75 153e 1341 f2be 028e a93e 98d8 7ebe
00000020: 25cd b23d 09c3 c33c 126e 223e de7a 36be
00000030: cf5a a8be a752 ddbb 5b01 07be 025e ac3e
00000040: 3efd adbc 3076 5c3e 78fc 01bd be0e 973e
00000050: 0331 79be eb7c b73d 4b18 233e b97e 29be
00000060: b657 69be 10b3 ad3d dd4f 503e be7c 2a3f
00000070: 1e2f 813e 2aa3 cdbe 915b 6a3e bdb5 513a
00000080: 83dd 92bd 1b4c 9f3e 55c4 d53d 22be 5a3e
00000090: 4b7b 36bd b1bb ac3d 6bf3 63bd 70f0 9d3e
000000a0: 1c31 0c3f fa73 153c 4736 7f3e 37df 4ebe
000000b0: bf56 ac3e 29ff 113e 40c6 aebd f451 24be
000000c0: 49f8 0bbd 2960 df3e dfd6 aabc 54fd e03e
000000d0: 20ca 22be ceb2 09be 9132 213e 238d 1a3e
000000e0: 4603 0f3e e557 6ebe b718 4ebe 8988 4f3d
000000f0: 1e02 f83d 1e64 dfb9 4c02 d93e 5dca 11be
00000100: 217e 1e3e a74e 383b 0bdb 9ebd d088 f4be
00000110: ee03 8f3e 04ce b83e 1802 44bd 6268 2f3d
00000120: 1235 893e b8eb 9b3e 749b 19be 497e 163e
00000130: 33b7 0cbb 9d99 703e 0567 4bbe 7c3d 2fbe
00000140: 619b a23e 70a9 20be 0d1e c93e ce23 953e
00000150: 864f 94be a8bd 9bbe 5545 38bd 9863 e83c
00000160: 7de1 ee3c 7445 b0be 9a52 10bd 940b e2bd
00000170: d72c fdbd 6db7 bdbe 47fa 7c3d 5f01 c7bc
00000180: cbab 0c3e f35f 053e f1b3 69be 5920 c5bd
00000190: 1dee bebd 9f33 6fbd df8a bdbc 5318 9e3e
000001a0: be4e ae3e 24bc 153e 8d3c 0e3e 1ef0 c8be
000001b0: 9ddd c43e 7bd5 293e 93c7 ec3d ec97 383e
000001c0: 1a24 8abd 5c10 283e 697f 06be 2040 febd
000001d0: baca b43e 08c8 fdbd b295 f63e 6447 f6bd
000001e0: 0f09 bc3d 52a0 86be 6479 783e 7dbc e63c
000001f0: cf55 093f 0cc5 54be 34c3 d1bd 60ec 343e
-0.081607185 -0.08933499 0.29905933 -0.16624916 0.1459555 -0.47315273 0.33116156 -0.24887311
0.087305345 0.023896711 0.15862301 -0.17820308 -0.3288178 -0.0067542377 -0.13184111 0.33665472
-0.02123892 0.2152946 -0.031734914 0.29503435 -0.24335103 0.08959373 0.15927236 -0.16552247
-0.22787365 0.08481419 0.20342965 0.6659659 0.2523126 -0.40163547 0.22886492 0.00079997984
-0.07171156 0.3111275 0.10437838 0.21361592 -0.044551175 0.08434237 -0.055652063 0.30847502
0.54762435 0.009121889 0.24923049 -0.20202337 0.33659932 0.14257492 -0.08533907 -0.16046888
-0.03417233 0.43628052 -0.020854412 0.43943274 -0.15897417 -0.13447115 0.15741946 0.15092902
0.13966092 -0.23275717 -0.20126615 0.05066732 0.12109779 -0.00042608468 0.42384565 -0.14237352
0.15477802 0.0028123052 -0.07756623 -0.4776063 0.27932686 0.36094677 -0.04785356 0.042824157
0.26798302 0.30453277 -0.15000707 0.14696611 -0.00214715 0.23496099 -0.19863518 -0.17113298
0.3175917 -0.15689635 0.3928074 0.2912888 -0.28966922 -0.30418134 -0.044987995 0.028367803
0.029160256 -0.3442799 -0.035235025 -0.110373646 -0.12362068 -0.37054005 0.06176212 -0.024292646
0.13737409 0.13024883 -0.22822548 -0.096253105 -0.0932276 -0.05839884 -0.023137508 0.30877933
0.3404445 0.14622551 0.13890286 -0.39245695 0.38450328 0.16585343 0.11561503 0.18026704
-0.06745167 0.1641249 -0.1313454 -0.124145746 0.35310918 -0.123916686 0.48161083 -0.120253354
0.09181415 -0.2629419 0.24265057 0.02816605 0.5364656 -0.20778292 -0.1024231 0.17668295

cos_embedding.weight f4 [128, 64]
00000000: 1a36 bebc f3bf 273c 432b efbb fbdf f03c
00000010: c4a4 b43c e2f7 753c 9744 333c a77b 6d3b
00000020: d731 003d c830 f9ba 96a6 c6bc c8f6 94bc
00000030: f55e afbc 90e1 bcbc fd93 3a39 5e9e 993c
00000040: dbc9 803a a743 e1bb df4f cb3c 6638 1b3c
00000050: 76a5 9d3c 99dc 8f3c 4adf 4db8 59c6 1abc
00000060: 5e04 15bd d2e7 9fbc 8e5e 893b cb96 18bc
00000070: 9aac 1f3c 30cf 573c 7e8e 163c a458 f23a
00000080: 8fef b83c 88ce 043a 7ecd 2cba 767d b0bb
00000090: fbd4 10bc ffe3 54bb bdc3 88bb 46d4 1e3b
000000a0: 6fd1 063c 5b0a 03bb 92d6 37bb 158a 103c
000000b0: 09c3 0e3c 1069 33bb ab9f d13b 0608 aaba
000000c0: cdf8 08bc d6ae 70bb c5ba 4cbc 81f2 7a3b
000000d0: 869c 373b 8885 29bb a217 3c3c 6375 bb3b
000000e0: f343 fc3a 30f4 243c 96d5 5cbb 0316 e7bb
000000f0: 8dbc aeba 2fa9 a0bc c725 aeba bec0 74bc
00000100: 5e36 9d3d 1e6b 2e3d 645d dd3c 6453 a93c
00000110: b7e2 ceba 9368 d8bb e822 23bb fab8 5f3b
00000120: 4ac5 a0bc edbb 52bc 27f8 2abc 0a02 27bb
00000130: 1319 b0bb 485e a7ba e25a ef3b e891 3c3c
00000140: 7907 f9bb fa5d 64bb c47c ed3a 3ce2 a43a
00000150: c020 9cbb 9e4c 2fbc 3848 87bc 6625 ec3b
00000160: a227 53bc 0f44 b63a d247 e639 87f8 763c
00000170: 6ea3 2d3c b19f 853b a4a8 85b9 130b 443b
00000180: e56d 8bbb 35ca 2bbc 9cbf 983b da9e edba
00000190: 64b0 193b 453b 14bc e258 8c3c 7cf6 2b3c
000001a0: 3032 3d3c 1585 3d3c 4f59 c93b 8dba 813c
000001b0: 14f1 4bbc 6a7f 2a3b d15c 0f3b 779e 6b3c
000001c0: 1841 e33b 9fd7 133b 5844 83bb 679a 4fbb
000001d0: 85ef 5fbc fb75 f8ba 716c 173b 9c2d f73b
000001e0: 8c26 c9ba e1ad b5b8 102c f83b b691 a3bb
000001f0: 9131 bf3b 5d10 253c 8411 833c bd14 543b
00000200: 4567 113e 197f 193e 41ec 0a3e 614f 143e
00000210: 76dc 4f3e 48fa c73d e8b1 8b3d bda6 8e3d
00000220: 7255 5cbc ce6f 48bd a539 31bd 16af 79bd
00000230: 2842 a5bd 180d 88bd 1223 a8bc 7b71 02bd
00000240: 98b7 263b 61d7 1d3d f40d 273d fcbd 223d
00000250: cb6b 813d dacf 8a3d 86ca bd3a fc2b 163d
00000260: 7abf af3b dd59 22bd eb27 2fbd f3bd 04bc
00000270: 6f0e 48bd 959e 14bd b9e3 6abc 0858 abbb
00000280: 3dbc ffbb e075 193d d6b9 f03c 58bb 503d
00000290: c839 d73c a008 113d 8d6e 253c b22f 1bbc
000002a0: a0e1 38bc d694 e7bc af5a 1cbd 0e41 e4bc
000002b0: 2062 48bc 3769 d5bc 0ddb b83b 57ea fe3c
000002c0: a67b f93b 513e ef3c 760f 153d 85c7 a33c
000002d0: 4f02 983b f3b6 c73b 8432 48bc bb95 1ebd
000002e0: 2668 05bc 8968 3bbd 98cf 213a e503 093c
000002f0: f2f4 253d fc36 283c da53 ac3c 97b3 64bc
00000300: 7aff cb3b e32d 883b e2a2 943b 1bd7 033b
00000310: db63 0d3a dea8 0d3a a9b9 563a 29cd d23a
00000320: feba 7cb9 6ce8 e5ba afcd 6e39 648f 2bba
00000330: c184 ccba c262 243a 6498 0fba 91be 83ba
00000340: f69c 5fb9 6957 d2b9 7791 30ba 098b 153a
00000350: 15f3 58ba ed65 283a e465 14ba ff0f 523a
00000360: 87ca 2dba 7a82 b3b9 dd31 c839 a064 a2b8
00000370: ee20 083a 8298 813a bb2c 8b39 b4e3 b7b9
00000380: 1237 3d3a 4202 2939 637e 893a 8ed2 deb8
00000390: a94a 16ba 4280 4638 10aa f4b9 4400 263a
000003a0: c28c dcb8 1692 b83a 28d1 1938 8b74 4db8
000003b0: 53cf 5739 d56d 1d3a 1a05 00b9 de6d 5d39
000003c0: 412d 78ba 54c6 0fb8 fef2 873a 9129 f739
000003d0: 21a1 98ba 5321 573a 1af8 cfb7 ca1f 1639
000003e0: 7ed9 9fb9 ed3c 543a 1775 beba 6b12 73ba
000003f0: e064 f736 8808 ae3a ef68 bb3a ebb8 27b9
-0.023219157 0.010238635 -0.0072988584 0.029403677 0.022051223 0.015012713 0.010941646 0.0036237033
0.03129753 -0.001901173 -0.024249356 -0.01818408 -0.021407584 -0.023056775 0.00017793472 0.018752273
0.0009825783 -0.00687452 0.024818359 0.009473896 0.019243937 0.017561244 -4.9083763e-05 -0.009446704
-0.036381118 -0.01951972 0.00419218 -0.009313296 0.009745741 0.013171956 0.009189246 0.0018489552
0.022575168 0.0005066176 -0.00065919 -0.00538605 -0.008839841 -0.003248453 -0.0041737244 0.0024235412
0.008228644 -0.0019995186 -0.0028051478 0.008821984 0.008713492 -0.0027375855 0.0063972077 -0.0012972362
-0.0083601 -0.0036725304 -0.012495701 0.0038291516 0.002801688 -0.0025866944 0.011480244 0.0057207807
0.0019246325 0.010067984 -0.0033696643 -0.0070521845 -0.0013331339 -0.019611923 -0.0013286405 -0.014938531
0.07676385 0.042582624 0.027022071 0.020669647 -0.0015784119 -0.006604263 -0.0024892632 0.0034137354
-0.019625325 -0.012862188 -0.010435141 -0.0025483393 -0.005374083 -0.0012769187 0.0073045352 0.011509396
-0.0075997678 -0.0034846053 0.0018118848 0.001257963 -0.0047646463 -0.010699419 -0.016513929 0.0072066067
-0.012887867 0.0013905781 0.0004392253 0.015073902 0.010598047 0.0040778746 -0.00025493384 0.0029913827
-0.004255044 -0.010485222 0.0046615135 -0.0018129006 0.0023451084 -0.009047334 0.017132226 0.010495778
0.01154761 0.011567374 0.0061446796 0.015836025 -0.012447614 0.0026015886 0.0021875391 0.014381043
0.00693525 0.002255894 -0.00400595 -0.0031677724 -0.013667946 -0.0018956059 0.0023105408 0.007543279
-0.0015346571 -8.66314e-05 0.007573612 -0.0049917353 0.005834766 0.010074702 0.015999563 0.0032360994
0.1419955 0.1498989 0.13566686 0.14483406 0.20298943 0.09764534 0.06821042 0.069653966
-0.013448106 -0.04893475 -0.043267865 -0.06095799 -0.08069259 -0.066431224 -0.020524535 -0.031846505
0.002543902 0.03853548 0.04078479 0.039731964 0.06319388 0.06777926 0.0014479912 0.03666304
0.005363402 -0.03963648 -0.042762678 -0.008101928 -0.04884189 -0.036284048 -0.01433652 -0.005229
-0.007804422 0.03746593 0.029385488 0.050959915 0.02627267 0.035408616 0.010097158 -0.009471821
-0.011284262 -0.028269213 -0.03817242 -0.027863052 -0.012230426 -0.026051147 0.0056413473 0.031117601
0.007613617 0.02920452 0.036391698 0.0199926 0.004638947 0.0060948073 -0.012219075 -0.038717013
-0.008142507 -0.04575399 0.00061725965 0.008362745 0.0405168 0.010267016 0.021036077 -0.013958833
0.0062255235 0.0041558607 0.0045360187 0.0020117227 0.0005393603 0.00054038863 0.00081911177 0.0016082871
-0.00024102253 -0.0017540581 0.00022774072 -0.0006544499 -0.0015603529 0.00062708196 -0.0005477725 -0.00100513
-0.0002132541 -0.00040119447 -0.0006735543 0.0005704617 -0.0008275968 0.00064238795 -0.0005660935 0.0008013248
-0.0006629605 -0.00034238753 0.00038184124 -7.743505e-05 0.0005192895 0.000988737 0.00026545473 -0.00035074132
0.0007217984 0.00016117937 0.0010489937 -0.00010625004 -0.0005733171 4.7326328e-05 -0.00046666013 0.0006332437
-0.00010516636 0.0014081623 3.6672835e-05 -4.8984348e-05 0.00020581232 0.0006005441 -0.00012208932 0.00021117131
-0.00094671926 -3.4278564e-05 0.00103721 0.0004714248 -0.00116447 0.0008206565 -2.4791854e-05 0.00014316957
-0.00030488888 0.0008096237 -0.0014530745 -0.0009272459 7.372917e-06 0.0013277689 0.001429824 -0.00015995248

cos_embedding.bias f4 [128]
00000000: eee1 ccbd c26b bb3e a6c2 73bd d8af b43e
00000010: ada0 903d ee9c 103f 1737 1c3e 224d 64bd
00000020: 3dd7 9c3e 5166 913e 56dd cdbd b44a 023f
00000030: ffe3 973e a39e 0a3f ed89 fb3a 31aa 6b3e
00000040: 76ec 28be 59eb 9dbd 772a ce3d ad00 53be
00000050: f80e ff3e a9b5 c23e b55b c73e d8bd 713e
00000060: 1b62 0d3f 56dd 033f 2fc1 fc3d 468e 163f
00000070: 4033 31be 26b6 923e 519f 8c3e 9a53 f33c
00000080: 1fc7 c73e e249 31be d248 a7bd 2996 1dbd
00000090: 96ef c13e 30a8 093e bc20 983e b1aa 43be
000000a0: c449 ddbc e71f 1e3f 4cc2 db3c 9090 d1bd
000000b0: adbd f33c bc2f c63e 5033 06be 4cac 123f
000000c0: 94ab 19be e148 5a3d c468 36be cd72 9a3e
000000d0: eb17 78bc ddf4 ce3e bb09 b83e f84b d03e
000000e0: afec 14be 6a80 783e ea14 173f 1b79 86bd
000000f0: a1ee 02be 4d52 dc3e f4d3 e73e efec a93e
00000100: 7a2c cd3e ef55 9e3e 62e2 443f 41f8 833e
00000110: b3d3 5abd 2d71 f3bc a1e8 273f 4f2d fbbd
00000120: 280b 543d 3d55 e0bc 2e0f 913e 99d2 0c3f
00000130: 3fd2 653f b1ad 91bd ab1d ee3e 3b96 82bd
00000140: 8c67 cf3e 5a14 b23e 70f0 17bc b462 61be
00000150: 78ee 3fbe f916 ed3e 8564 0c3f 8100 e83e
00000160: 47a5 453f e4af 083f 2764 b1bd 6bcc 0f3f
00000170: 7217 cb3d 8e1d 043f 65d2 a73d bc33 bc3e
00000180: 8982 463e dc8c 3cbe 71ce 703e 7e9f bc3e
00000190: f8f1 a83e 0e50 bf3e bfda d43e 0ad0 873e
000001a0: 5c76 8c3c 5445 8d3b dac6 113e d5cf d83e
000001b0: 0bce 94be 22ce e93d f98c a83e 6dfb 8e3e
000001c0: eea3 cc3e c42e 743e ce76 2d3f 781a 06bd
000001d0: 881b 3ebe 5a5f fd3e 2ab4 df3e d17b c33e
000001e0: c5e9 e13e d7ee 793d fb30 853c 62e8 5dbe
000001f0: 4044 a33e 31c8 a33e 3947 4e3e 0eed 0f3f
-0.1000403 0.3660565 -0.059511803 0.35290408 0.070618965 0.56489456 0.1525539 -0.055737622
0.30632964 0.28398374 -0.10051982 0.5089524 0.29666135 0.5414831 0.0019190885 0.23014142
-0.16496453 -0.07710905 0.10066693 -0.20605727 0.49816108 0.3802922 0.38937154 0.23607576
0.5522782 0.51509607 0.12341534 0.5881084 -0.17304707 0.28654593 0.274653 0.02970295
0.39019105 -0.1731334 -0.08168186 -0.038473282 0.37878102 0.13443065 0.29712474 -0.19108082
-0.027012713 0.6176743 0.026826046 -0.10232651 0.02975353 0.38708293 -0.13105512 0.57294154
-0.15006858 0.05329216 -0.17813402 0.3016571 -0.015142421 0.4042119 0.35944924 0.4068296
-0.14543413 0.24267736 0.5901629 -0.06566068 -0.12786342 0.4303154 0.45278895 0.33188578
0.40072995 0.30924937 0.7690793 0.2577534 -0.05342455 -0.029717052 0.6558934 -0.12264501
0.051768452 -0.027384395 0.28331894 0.55008847 0.89773935 -0.07113207 0.4650701 -0.063763104
0.40508687 0.34781152 -0.009273633 -0.22010309 -0.18743312 0.4630659 0.5484088 0.45312884
0.7720532 0.5339339 -0.08661681 0.5617129 0.09916581 0.51607597 0.081944264 0.3675822
0.19385733 -0.18413109 0.23516251 0.36840433 0.32997108 0.37365764 0.4157314 0.2652591
0.017146282 0.004311243 0.14236012 0.42346063 -0.29063448 0.1141627 0.32920054 0.27926198
0.39968818 0.23845965 0.67759407 -0.032740086 -0.1856519 0.4948681 0.43692142 0.38180402
0.44123664 0.06101879 0.016258707 -0.21670678 0.31888008 0.3198867 0.20144357 0.5622109

ff_1.weight f4 [128, 128]
00000000: fc1b ddbb ad4b 06be 3898 a43d bdd4 d43b
00000010: 6718 06bd 9afd 083e 723b e23c 4a84 59bd
00000020: b4a8 72bd 01d8 82bd c8ad 913d f668 ff3d
00000030: f90e f4be c82f 5cbe 80f1 8abe c7ec 99bd
00000040: 421b 06bd 56a4 99bd 524e 16be 698e 103d
00000050: 81ed bebd 3786 91bf 9830 f9bc 5248 71bd
00000060: 4c66 833d 020f 2bbe bf12 0abe 7777 94bd
00000070: 048a 8b3d 737e b23b fb45 d33c ae7c e83d
00000080: d256 30bd 3695 c63d 5fe1 87be a3af ed3d
00000090: f781 59bf 3b44 d53d f341 3fbe 3565 403e
000000a0: b02a 5ebd 2fd9 643d 2300 093b b6b0 f9be
000000b0: 4024 80bd 5c45 733d 39d3 f53c 83c3 b5bd
000000c0: 510d e9be cefc 13bc ac3a b03b a992 f73d
000000d0: ed0b a7be 6593 a6bd 17fd d6bd 7158 233d
000000e0: e116 893c 2f26 6abe bfc2 a7bf 53f3 313c
000000f0: ce43 bcbd bb52 bcbe f911 ed3d b67d 9cbe
00000100: d1df 123e b7ff 703e 48f6 8dbf 0db2 e33d
00000110: d9c4 85bd 6a8a 8abc 287e 49bf 40ee a8bc
00000120: 272a f8bb 1dda bd3d b9aa 1c3e a61c c5bd
00000130: 366c 5abd d034 85bd a62d 97be c530 ad3d
00000140: a347 4d3c 4297 7cbe 164f bf3c c4ca 23bb
00000150: 6bae 5f3b ac55 5cbd ef29 a83d 0e59 1bbe
00000160: b5fa 09be cc43 883d 57cb d6bc de31 963d
00000170: 7bff 1dbe f7f5 583c d0c6 563b d637 8c3d
00000180: 283f 003d b44b 2b3e d7ca c03c c732 f53d
00000190: 7dee 24be f025 03be b5bb d4bd 77f6 a93d
000001a0: 20b5 babb 5339 bd3c 8298 6b3d 3187 013e
000001b0: 8c08 1e3d 06b8 903b 5de5 bfbd 7773 41be
000001c0: 901d 58bd d765 f43d f4e3 a33c 74e7 93bd
000001d0: 21b6 e0bd 5a1b 7bbe 276b a23c e32f 14bf
000001e0: 79ee 083e 0c20 acbe 5de1 5fbd 3ea6 193a
000001f0: f197 81be d668 603d f231 c4bd 9bc5 9cbe
00000200: bcf1 75be f6f1 403e 04bd 1d3e fdac 99bc
00000210: 51e3 013e 3132 0bbd f064 92bb c9eb 25bd
00000220: 9bee 56be e923 31bd 9453 3f3d 5241 183d
00000230: 7de6 69bf 74e2 c6be 2f04 9abe aad4 913d
00000240: 76fa d33d 340a fb3d 503c 5abe 4b45 a13d
00000250: 6c2b a9be 4f09 ff3c 9ee5 d7bd 3afc 2c3d
00000260: 560e 013e ac96 a0bd e6c6 d63d fe74 86be
00000270: 9c2c 323c 55f3 acbd 9dab 0f3e ccc6 813d
00000280: c99d 053c 2a48 d5be 2c4e 2aba 97b1 0cbd
00000290: abd9 3f3d e107 eb3c 7f6d 033d f7a9 c5bd
000002a0: d359 04bd 5524 593d f323 a53d 6997 73bd
000002b0: 0ae6 663d dba2 92be 0fc4 2ebd 474a e3bd
000002c0: a5dd 64bd 98b2 9cbd 5e84 4abd 9929 aa3d
000002d0: 4869 9f3d 816b 9c3c 09ca e5bd 55b6 2f3c
000002e0: b41a 4f3e 1bc5 413e e720 4ebe 3aee a0bc
000002f0: 2247 11bd cfa8 a1be 27e6 d23c 9101 a9bd
00000300: 9db8 65bd 1837 f3bd ea66 47be bd6d 993d
00000310: d3b9 43bd 3235 c63d dbdb b6bd 9803 dfbd
00000320: 97c2 b83d e0c0 193d b436 16bf a119 16bd
00000330: 9e42 75bd dc37 0e3c f155 93be 4792 5f3d
00000340: c302 8f3e 38a1 933d b983 2b3c b7bf ad3c
00000350: 0339 25bd aeb8 e03d 7341 06bf 8ea8 c03d
00000360: 543e 843d 62af 483e 9a12 b33d eb48 14bf
00000370: 1fe6 7e3d 5ac8 513d 7267 27bd 2cc5 ff3d
00000380: c2d2 e5bd df64 cebd 2011 dcbc 790f 0c3d
00000390: 3289 38be c2d3 e1bb 6bbe 203e a314 573d
000003a0: 7d59 d23d f1e1 dabc 08d8 8ebd 3b6b 07be
000003b0: 62bb f13d 22d0 50bd 8b29 cabd 521a c93b
000003c0: 7b21 a7be 3ce0 bb3d f0b0 11bf ad31 523c
000003d0: a19f 133e ac64 a7be da39 d03d 1945 02bf
000003e0: d8d9 613e 4313 0dbf 352d 473d efd8 04bb
000003f0: 4b56 8fbe 85d3 013d 955d 2d3d 71f8 5abe
-0.0067477208 -0.13114806 0.08036846 0.006495087 -0.032738116 0.13377991 0.027616236 -0.053104676
-0.05924292 -0.06388856 0.07113224 0.124711916 -0.47667673 -0.21502602 -0.27137375 -0.07515865
-0.03274084 -0.07502048 -0.14678314 0.035292063 -0.09322644 -1.1369084 -0.03041868 -0.05890686
0.06415996 -0.16704944 -0.13483714 -0.072493486 0.06813434 0.005447203 0.025790205 0.11351906
-0.04305155 0.096964285 -0.26539132 0.11605766 -0.84963936 0.104134046 -0.18677501 0.18788607
-0.05423993 0.055871185 0.0020904623 -0.48767632 -0.06256914 0.059392318 0.030007945 -0.088751815
-0.45517972 -0.009032441 0.005378088 0.1208852 -0.32626286 -0.08133582 -0.10497492 0.039879266
0.016734542 -0.22866128 -1.3106307 0.010861236 -0.0919262 -0.36781868 0.11575694 -0.3056466
0.14343192 0.23535047 -1.1090784 0.11117945 -0.06531686 -0.016911704 -0.78708124 -0.020621419
-0.0075733843 0.092701174 0.152995 -0.09624605 -0.053325854 -0.06504214 -0.29527014 0.08456568
0.012529287 -0.24667075 0.02335314 -0.0024992684 0.003413106 -0.05379264 0.08211123 -0.1517069
-0.13474543 0.06653556 -0.026220007 0.0733373 -0.1542949 0.013242236 0.003277231 0.06846587
0.03131023 0.16728097 0.023534222 0.11972576 -0.16106601 -0.12807441 -0.10387365 0.082989626
-0.0056978613 0.023098623 0.05751849 0.12649228 0.03858237 0.0044164686 -0.093699194 -0.18891703
-0.052762568 0.11933487 0.020006157 -0.072218806 -0.10972238 -0.24522153 0.019826485 -0.5788557
0.1337222 -0.336182 -0.054658283 0.0005861259 -0.25311235 0.05478748 -0.09579839 -0.3061951
-0.24017996 0.18842301 0.15404135 -0.018759245 0.1268437 -0.033983413 -0.004467599 -0.040508065
-0.20989458 -0.043247137 0.046710566 0.03717167 -0.9136732 -0.38844645 -0.30081317 0.071206406
0.10350506 0.122578055 -0.2131207 0.07874545 -0.3304094 0.031132368 -0.10541843 0.04223273
0.12603125 -0.078412384 0.104871556 -0.26261133 0.0108748935 -0.084448494 0.14030309 0.063367456
0.008155295 -0.4165662 -0.0006496634 -0.03434905 0.046838444 0.02869028 0.032086845 -0.09651559
-0.032312226 0.053013165 0.080634974 -0.059470568 0.056371726 -0.28639874 -0.042667445 -0.11098152
-0.05587544 -0.076512516 -0.04944264 0.083087154 0.07783753 0.01909423 -0.11220176 0.010724624
0.2022503 0.18922846 -0.20129739 -0.019644845 -0.03546823 -0.31574103 0.02574451 -0.08252252
-0.056084264 -0.11875743 -0.19472852 0.07491634 -0.047784638 0.09678115 -0.08928653 -0.10889357
0.0902149 0.037537456 -0.5867722 -0.036645535 -0.059877984 0.00868031 -0.28776506 0.05458286
0.27931795 0.072084844 0.010468417 0.02120958 -0.040337574 0.10972725 -0.5244362 0.09407149
0.06457201 0.19598153 0.08743782 -0.57923764 0.06223118 0.05121646 -0.040870138 0.124887794
-0.112218395 -0.100778334 -0.026863635 0.034194443 -0.18021086 -0.0068916986 0.15697639 0.052509915
0.10270975 -0.026719065 -0.069747984 -0.13224499 0.118033186 -0.05097974 -0.09871205 0.006137171
-0.3264273 0.09173629 -0.5691061 0.012829226 0.14416362 -0.32693994 0.10167284 -0.50886685
0.22055757 -0.55107516 0.048627097 -0.0020270904 -0.27995524 0.03169586 0.042325575 -0.21383835
