runs/Experiment2/BestModels/Experiment_Best_1.pt (torch, 589693 bytes, 39 tensors)

fc1.weight f4 [128, 20]
00000000: 7313 38bd 98e0 97bc f9c3 b7bd ff86 66bd
00000010: 0491 213d 767a 45bd 0ee4 e1bc 9885 47bd
00000020: 2e6d 3d3c 39a2 6dbd 35e9 b5bd b66c 17bd
00000030: b987 8abd 7c68 33bd 2841 453d 9714 293c
00000040: 36bd 30bc 60de 1cbd 8553 0b3d 99ee b8bd
00000050: 9b5b 903c 9050 653d 5cb8 73bd 5fee adbc
00000060: fcae c3bd 5a02 9abd f407 f1bd 66fa 403c
00000070: e1a5 82bd ea57 463d 81ec 86bd 6304 ffbc
00000080: e95f 28bd 3634 5dbd 30e6 473d b667 3c3d
00000090: 5acb 5bbd 821f 483d 3953 64bd 0341 cd3b
000000a0: fed1 9b3e 17be bc3e f942 0dbe f54e 8cbf
000000b0: bb43 543d 6cda 70be 6377 44bd 3db0 adbf
000000c0: 1d8d 99bf acb9 99bf af29 953d c0fb c73a
000000d0: 69c1 9c3d 67bb 25be fadd 273e 6162 5f3e
000000e0: 66ae afbe d53c cbbd 646a 82be c675 483e
000000f0: 5efe 1c3e 9d54 dc3c 910e 5ebd ea95 17bf
00000100: 2a5a cc3d 3d01 49be 804c 6dbe 157c 2b3f
00000110: e3c5 3b3f de1c 093f c3b6 55bd 389b c23b
00000120: 4d62 94bc cd7d 0d3e eec2 fa3c 4233 e13a
00000130: ab67 a1bd fec3 b5bd 0f3e 88bd 7f58 583d
00000140: 8cc0 59be d2e0 c2bd f494 9ebd 0ffb 37be
00000150: 22b1 57be e79a cebd a417 8e3e 59f7 bb3d
00000160: 406b 733e b9a8 773e c79e 8ebe fda9 f7bd
00000170: 8bc3 3dbe f465 a7be 261a ce3d 3eb4 ce3d
00000180: 206b 33bb 9f4f 863e f1c5 023e 2ca8 873e
00000190: 4dee 813e 2dad 8d3e 0e20 56bc dae8 ddbe
000001a0: 7033 053d b9b1 22bf 3df6 80bd 0e4e 19bf
000001b0: 79c4 02bf 7c4b 00bf 85c8 0b3e 4c91 2e3e
000001c0: aa24 d53d df0d e63c 9068 74bd fa65 0b3e
000001d0: 221b 5c3e 7879 fdbc c26c 1f3e 745e fcbd
000001e0: b063 263d 5b51 99bd dc5c cdbd 65e0 043d
000001f0: 61a3 9bbc 77a3 cabd f0dc 79bb ea2e 16bd
00000200: 786c d93c ae7d d43d 69b1 14bd 2ba0 36bd
00000210: 5e70 243d a1ab 79bd b9a2 3b3d f7c3 a6bc
00000220: a1a0 d1bc 422a c2bd 1403 69bd 62c7 b6bd
00000230: c6df 70be 716b 413c a2da eb3c 0657 c03e
00000240: 2153 a93e 14ff e1be e43b 59be 2448 c0be
00000250: 483b b3be 4b30 d1be 75f3 3a3e 2de7 253e
00000260: 97a3 443e a5a5 5cbd 690b 1dbd 11bc 833c
00000270: f7b6 adbd 9e9c a83d b4f7 6abe 3384 703d
00000280: 8952 3cbe 2ae8 07be 4478 b3bd f2bd 9c3e
00000290: 8495 f23d 33ef 3cbe b783 0b3e ef08 763f
000002a0: 8711 633f 1bb0 453f 7b04 bbbd 4b66 dabd
000002b0: 68bc adbd 366e 973e 10e6 40bd 4096 4dbe
000002c0: 5de1 dcbe d2d2 6cbe b943 af3c 57b8 3a3e
000002d0: 8930 6abe 3db8 f8be 150f 363e 7c30 95ba
000002e0: 83eb 153e 4b33 7abe de0c df3d 735d 81be
000002f0: 3346 96be 1b05 22be ead2 3dbe b2e9 63be
00000300: d0fe 61be a5cf 48be b40a 40be 524f e7bc
00000310: 7817 a9bd 1016 b13d c0e7 1bbe 6698 853c
00000320: 65de debe 75d3 26be 7546 553d 52b3 1fbc
00000330: bf0f b6be 4d0f 8cbd e1b6 2fbf acd6 323d
00000340: 830e 423e 25a4 803e 5fdd b83d 5784 103e
00000350: fa16 5a3d 1ca8 36be dbc2 e83d f479 183e
00000360: cd4a aa3c 03f9 7d3d 94b2 a93e 6658 07be
00000370: 8a79 03bd f459 88be 2452 93be 8e1b 3cbe
00000380: 93df d9be bec0 97bd 8748 dabe a095 71bf
00000390: e6d5 85bf 6ed2 49bf aa39 0cbe 3fc1 abbc
000003a0: 2370 bcbd aed2 663d 42d5 763b 50cd 213e
000003b0: 90d6 aa3d c184 d9bd 549e 71be 4deb 56be
000003c0: 1711 d5be 213f edbd 7d4b 3c3e ade5 db3d
000003d0: 46e1 42bd ee51 04bf 2d5c 83be aa06 7abf
000003e0: 8ddf 3bbf c018 2bbf d8d3 f4bd 03da eebd
000003f0: fca0 54bd 981c eabc 3441 4d3e 98be 873e
-0.044940423 -0.018539712 -0.08972926 -0.056281086 0.03944494 -0.04821249 -0.027574565 -0.04871139
0.011561675 -0.058016036 -0.08882371 -0.03696891 -0.06764168 -0.043800816 0.04815784 0.01031985
-0.010787299 -0.03829801 0.034015197 -0.09029884 0.017621806 0.055985034 -0.05950199 -0.021231828
-0.0955486 -0.0751998 -0.11769095 0.01177845 -0.06379295 0.048423685 -0.06588078 -0.031130021
-0.041107092 -0.05400487 0.04880351 0.045997344 -0.053660728 0.048858173 -0.05574343 0.0062638535
0.3043365 0.36863777 -0.1379508 -1.0961596 0.051822405 -0.23520821 -0.04796542 -1.3569409
-1.1996189 -1.2009788 0.07283341 0.0015257522 0.076540776 -0.1618477 0.16393271 0.21814872
-0.34312743 -0.09923712 -0.25471795 0.19576177 0.15331408 0.026895816 -0.05421311 -0.59213126
0.09978135 -0.19629379 -0.23173714 0.6698621 0.73348826 0.5355967 -0.05217625 0.0059389137
-0.01811328 0.1381752 0.030610528 0.0017181414 -0.07881101 -0.08875273 -0.06652462 0.05281877
-0.21264857 -0.09515537 -0.07743254 -0.17966865 -0.21063665 -0.10088139 0.2775241 0.09178037
0.23771381 0.24185456 -0.27855512 -0.120929696 -0.18531625 -0.32694972 0.10063581 0.10092972
-0.0027377084 0.2623262 0.12770821 0.26495492 0.25377122 0.27671185 -0.013069166 -0.43341714
0.032519758 -0.63552433 -0.06296966 -0.59884727 -0.51081043 -0.5011518 0.13650711 0.17047614
0.10407384 0.028082786 -0.05967003 0.1361312 0.21494725 -0.03094171 0.15568832 -0.12322703
0.040622413 -0.074862204 -0.10027477 0.03244056 -0.018998804 -0.0989446 -0.0038126074 -0.036665834
0.02654098 0.10375534 -0.036302004 -0.04458634 0.040146224 -0.060954694 0.04580948 -0.020357115
-0.02558929 -0.09480716 -0.0568877 -0.08924748 -0.23522863 0.011805401 0.028790776 0.37566394
0.33071235 -0.44139922 -0.21214253 -0.3755504 -0.35006166 -0.40857157 0.18256934 0.16201468
0.1920303 -0.05386891 -0.03834096 0.016080888 -0.084821634 0.08232997 -0.22946054 0.058719825
-0.1839086 -0.13272157 -0.08763173 0.30613667 0.11844924 -0.18450622 0.13624464 0.9610738
0.8869862 0.7722184 -0.09131714 -0.10664042 -0.08483201 0.29576272 -0.047094405 -0.20076847
-0.4314069 -0.23127297 0.021394597 0.18234383 -0.22870077 -0.48578063 0.17779191 -0.0011382247
0.14640622 -0.24433629 0.10891126 -0.2526661 -0.29350433 -0.1582226 -0.18537489 -0.22257116
-0.2206986 -0.1961046 -0.18754083 -0.028236065 -0.082564294 0.08646786 -0.15225124 0.01630802
-0.4352905 -0.16291602 0.052069146 -0.009747343 -0.35558888 -0.06838856 -0.68638426 0.04366176
0.18950848 0.25125232 0.09026598 0.14112984 0.05324457 -0.17837566 0.11365291 0.14890271
0.02078762 0.062005054 0.33144057 -0.13217315 -0.03209833 -0.2663113 -0.28773606 -0.18369886
-0.42553386 -0.074098095 -0.4263346 -0.94368935 -1.0455902 -0.78836715 -0.13693872 -0.02096617
-0.09201076 0.056353264 0.0037663733 0.15800977 0.08341706 -0.10621024 -0.23595554 -0.20988198
-0.416146 -0.115843065 0.18388171 0.107371666 -0.04757812 -0.51687515 -0.25656262 -0.9766642
-0.73387986 -0.6683464 -0.119544685 -0.11662676 -0.05191134 -0.028578088 0.20044404 0.265126

fc1.bias f4 [128]
00000000: ef06 763c 344e 3abe 8896 903d 425e 83be
00000010: ac3f babe f472 26bd 0ec0 d1bc 11bd 263e
00000020: 69b1 1b3e 9619 82be 70a1 dabd 2b0c 0f3d
00000030: 33db b6bd edd4 b53d 93ee 78bd 5e7c eb3c
00000040: 48b5 353e 5259 a1bc d957 9fbe f6e0 8fbd
00000050: 3128 db3d 82fa 48be 1d89 31be e8d9 a63d
00000060: 5084 043e 360d e63d de37 1c3d f075 853e
00000070: bcdf 0b3e 2e01 aabe 570d 64bd 160c b3be
00000080: 5b26 96bd d756 f03d 3937 82bb 71a3 c9be
00000090: b4a9 873c 3670 ea3d cf54 5b3d de13 36be
000000a0: 4b85 443e d52d a73d 7dd2 cf3d 3bde a5bd
000000b0: aa0f 01be f274 88be facd 28bc 361e 223e
000000c0: 70f1 ad3d 4702 513e b8e3 dabc 4b8c 1fbd
000000d0: 0b1d 423d 3192 733d c13e 9c3c 004d d73d
000000e0: fc69 023e 939f 123d 4960 423e 94f4 8fbe
000000f0: bfdd 073e 43f7 883d 930e 05be f93b aabc
00000100: e3b3 07be 77ba 57bd 3d57 37be a343 b2be
00000110: 9556 58be d3c2 59be a471 203e 3ac2 02bc
00000120: f934 b03e 5a83 313e 7fab d8bc c431 06bd
00000130: 2f21 033d 6c42 dbbb 7cdd 523d a330 c8bc
00000140: 7ce1 db3d 5ea3 c2bc 5da2 71bd 0377 db3d
00000150: 30fb 7dbd a59e 64bd 7467 c0bc b63f babd
00000160: b0b1 afbc a6e9 6abe 26a3 353d 0035 1dbc
00000170: 3607 afbc 7e4a 363e 2cd5 0abe b4f7 d13d
00000180: 8b90 b6bd 9915 75be fe0c d33d 3545 64bc
00000190: 34eb bebe b6ab 48be aa83 d9bd a1ae 963e
000001a0: a6ab 693d a77e 8bbd 189e bf3c 0e7e 1d3e
000001b0: e960 1c3d d89d 263d 3394 64bd 9f5e 563e
000001c0: 7e9c 413e 160c 823d b3db 2c3d 9d57 51be
000001d0: 2741 033d 411f 92bd 1d64 15be ba72 aebd
000001e0: f5c4 273c e797 003e fa37 d8bd 4e8f 6ebe
000001f0: 7e8e 03be 53e5 23be c115 a8be 3d12 aa3d
0.015016302 -0.18193895 0.070599616 -0.2565785 -0.36376703 -0.04063697 -0.025604274 0.1628306
0.15204395 -0.25410146 -0.10675323 0.034923714 -0.08928528 0.08878503 -0.060774397 0.028745826
0.17744935 -0.019695912 -0.3112171 -0.0702533 0.10701025 -0.19626811 -0.17337461 0.08147031
0.12941098 0.112329885 0.038139217 0.26066542 0.13659567 -0.33204025 -0.055676784 -0.34970158
-0.073315345 0.117353134 -0.003973868 -0.39382508 0.016560413 0.11447184 0.053547677 -0.17781016
0.19191472 0.08163039 0.10147569 -0.08099028 -0.12603632 -0.26651722 -0.010303015 0.15831837
0.08493316 0.20411025 -0.026719913 -0.038952153 0.04739098 0.05946559 0.019072892 0.105127335
0.12735742 0.035796713 0.18982042 -0.28116286 0.13268183 0.066877864 -0.12993841 -0.02078055
-0.13252215 -0.05266806 -0.17904373 -0.34817228 -0.21126778 -0.21265726 0.1566835 -0.0079808775
0.34415415 0.17335263 -0.026448963 -0.032762304 0.03201407 -0.0066912677 0.051480755 -0.024437254
0.10736367 -0.02375954 -0.058992732 0.10716059 -0.06200713 -0.055815358 -0.02348683 -0.09094183
-0.021447033 -0.22940692 0.044345044 -0.009595156 -0.021365743 0.17801854 -0.13557881 0.10252324
-0.08914288 -0.2393402 0.103052124 -0.013932516 -0.3728882 -0.19596753 -0.10620816 0.29430106
0.057048462 -0.068112664 0.023390815 0.15380117 0.03817836 0.040677875 -0.055805396 0.20934533
0.18907353 0.063499615 0.04220171 -0.20443578 0.032044556 -0.071348675 -0.14588971 -0.08517976
0.010239829 0.12557946 -0.10557552 -0.23296854 -0.12847325 -0.16005449 -0.32829097 0.0830426

fc2.weight f4 [128, 128]
00000000: af09 10bd c4a5 a23d cb66 f1bc 1b16 d73e
00000010: 1f7b fc3d 5724 f03d 6cc5 cebc a9d7 063e
00000020: 5248 613c 536a a1be bea5 00be 3a63 1bbf
00000030: 53b9 8a3e d033 8a3d f880 4dbd d0bf b8be
00000040: ef20 a33d c495 c93e fef4 9f3d d039 c7bc
00000050: 5eab 993e fab0 78be c03b ffbe 6772 b4bd
00000060: a857 563d 86a0 593d 725e 63bd 51fa b93e
00000070: 457b efbe 133d 25bf d5e8 6fbe b311 80be
00000080: 72b6 643d 6d08 8f3d b348 393d f0b8 34be
00000090: 6196 96be 62f6 93be a1be 673e fbe1 e63e
000000a0: e3d5 013e 2e45 ffbe 50f0 2fbf 68dc 5e3e
000000b0: fc27 39bc d6ad fe3d 638d debd 9af3 99be
000000c0: dd66 74bf 1ae0 8d3d 936d 583e f317 253e
000000d0: df51 2b3e 3781 a73d d677 4c3e 56f4 193d
000000e0: d750 25bf f96a b0bd b794 cf3d 8c65 093f
000000f0: 143f ff3e d586 773e 929a 093d bbeb 11be
00000100: 225e babd c1a6 30be cb74 3cbf 0431 bdbe
00000110: 6726 a3be 2512 15bd 49e7 e1be e964 92be
00000120: e6e0 803e d5f3 863e 2b29 8fbe 9737 cc3c
00000130: f667 083e a650 4cbd 9d63 ec3c 0ece 9b3b
00000140: 02a2 aa3d 84b0 c2be 72ac e1be 35f9 78bf
00000150: 9a26 99bc 5ae0 4fbe 3379 4cba 3e81 fb3e
00000160: b68f 59be 1738 bc3e f204 96bd d0cf d93c
00000170: 1e29 8c3e 785a 4e3e eb99 fcbd 37c5 683d
00000180: c6e4 7d3b b23a d8be 96ef 68bb 3801 85be
00000190: 3385 74be cb15 103d 35da a5bd 430b 5d3d
000001a0: d387 993d 8a46 0e3e 8662 be3c 78f7 0bbe
000001b0: e2b5 b0bc 670c 18be ff6c 48bf df88 713e
000001c0: 1ef5 7c3d a1ec 1fbe 39aa 6fbd da52 ef3d
000001d0: 7bbc 0cbd 944b 283d 7b4e a93d d9a3 e3bc
000001e0: eb05 a5bc a8e0 e43d e125 dd3c 9d0b d13c
000001f0: d76d 4bbf e7ed f03c 82c2 993e 51ad dc3c
00000200: 551f 2fbd a8b1 be3b 8a5a 8abf 66ec 993e
00000210: 5f2d 99be b6d4 413e 5fa7 b0bc 3518 0bbe
00000220: 8f65 1d3e b80a 62bd 6923 fcbe 2708 87bc
00000230: 1ee9 48bf e256 74be de32 40be 6b55 9d3e
00000240: 98ac 003e 00d0 29bf 4cad 873b b693 de3d
00000250: f421 6fbe 691a 12be 165c 983e b515 933e
00000260: 76c0 a5be 5bc4 b2bd 503a 6bbd 8b33 5cbf
00000270: 4e7c d83e 05dc e93d e8c8 8f3e e87a eabd
00000280: dc6f a5be 32e4 14bd 7438 d2bd 0a6a 6cbe
00000290: 1729 663e 3ff4 1e3e 3f51 2d3d 0f4d bdbd
000002a0: 04a3 823d 3917 aa3d 1480 7cbe 8bee a53e
000002b0: feec 98bd 896b 9d3e 07aa 723c 1559 f43d
000002c0: 7c97 43be 8429 8ebd 8d5e 253d 868f 163e
000002d0: 05aa c9be a9d1 98bd ebb6 4c3e e45d a6be
000002e0: 6dbe 04be 90f8 8b3e 9667 b13e 9fa3 b13e
000002f0: 2bfd a2bd 8504 0cbd 24a3 c0bd 288e 9e3e
00000300: 74e4 aabe 5e39 d83e a8eb 80bd 4d27 b93d
00000310: e39a 323e d538 26bd 7e9a c93d ca68 003f
00000320: 4cab 893d a3ea 413d 823e bf3d 882e 44be
00000330: 08cd 1cbe d9be b53c d9a7 fbbc 4b41 e23c
00000340: 73b6 343e f40a ec3d 7d1f ed3c 6dbe 933d
00000350: 73cb 013e d258 0abd 566f 0bbe a10b fc3d
00000360: 493c 1d3e 33f0 25be be2d 7dbd 2130 3a3d
00000370: 1aea 033d a5b8 a13d 580f f53c 9f35 00be
00000380: de3a c43c d34f 793d 8873 d5bd 672a 7f3e
00000390: fe97 fa3d fdfc 4f3e 152d 343d cdd4 f6bd
000003a0: 43ab 99bd 320b c4be bb52 cabd cf94 563e
000003b0: c094 993d 063f d2be 29cd 653e b21f cebd
000003c0: a3f7 caba c599 793e a4dd 9c3e 2f9f f3be
000003d0: 1a33 563d 13df 463e 7e61 143f fae0 36be
000003e0: 5576 81be b857 913d 622c 3a3d db3d 06bf
000003f0: fcaa a9be 5c1e cebd 68a9 efbe 2a3e 0cbe
-0.035165485 0.079417735 -0.02946796 0.42009053 0.12328171 0.11725681 -0.025240622 0.13168205
0.013750153 -0.3152643 -0.12563226 -0.6069828 0.27094516 0.06748164 -0.050171822 -0.3608384
0.07965266 0.39372075 0.078104004 -0.02431956 0.30013555 -0.24286261 -0.49850273 -0.08810883
0.05232969 0.053131603 -0.055509992 0.3632379 -0.46773735 -0.64546317 -0.23428662 -0.25013503
0.055838056 0.06984029 0.045235347 -0.17648673 -0.29411605 -0.28898913 0.22631313 0.45094284
0.12679248 -0.49857467 -0.6872606 0.21763766 -0.011301037 0.124355 -0.10866811 -0.30068666
-0.95469457 0.069275096 0.21135549 0.16122417 0.1673045 0.08178943 0.19967589 0.037586533
-0.64576477 -0.086141534 0.10135787 0.53670573 0.49852812 0.24172528 0.033594675 -0.1425008
-0.09099986 -0.17251112 -0.7361571 -0.36951458 -0.31865236 -0.036394257 -0.4412177 -0.28592613
0.25171584 0.26357904 -0.27961096 0.024928851 0.13320908 -0.0498816 0.028856093 0.0047547882
0.08331682 -0.38025296 -0.44076878 -0.9725526 -0.018695164 -0.20300427 -0.00078000425 0.4912204
-0.21246228 0.36761543 -0.07325162 0.02658835 0.2737512 0.20151699 -0.12334045 0.056828704
0.0038741096 -0.4223228 -0.0035543195 -0.25977492 -0.23878936 0.035177033 -0.0809826 0.053965818
0.074966095 0.13894096 0.023240339 -0.1366862 -0.021571103 -0.14848481 -0.78291315 0.23587368
0.0617572 -0.1561761 -0.058511946 0.116857246 -0.034359436 0.041087702 0.08266922 -0.02778809
-0.020144423 0.11175662 0.026995601 0.025518233 -0.7946448 0.029410316 0.3003121 0.026938112
-0.04275449 0.005819518 -1.080888 0.3006317 -0.29917428 0.18928799 -0.021564184 -0.13583453
0.15370773 -0.055186003 -0.49245766 -0.01648338 -0.7848071 -0.23861268 -0.18769404 0.3072923
0.1256584 -0.6633301 0.0041405316 0.108680174 -0.23352796 -0.14267887 0.29757756 0.287275
-0.323734 -0.08728858 -0.057428658 -0.8601615 0.42282337 0.114189185 0.28082967 -0.11449224
-0.32311904 -0.036350437 -0.10264674 -0.23087326 0.22476612 0.1552286 0.04231381 -0.092432134
0.06378749 0.083052106 -0.24658233 0.32408556 -0.07467078 0.30746105 0.0148110455 0.119310535
-0.19100755 -0.06941512 0.040373374 0.14703187 -0.39387527 -0.074618645 0.19991653 -0.32493508
-0.12963267 0.27338076 0.34649342 0.34695145 -0.07958444 -0.034183998 -0.094061166 0.30967832
-0.3337742 0.42231268 -0.06294948 0.09040699 0.17441897 -0.040581543 0.0984392 0.50159895
0.067221254 0.047342908 0.09338094 -0.19158375 -0.15312588 0.02218573 -0.030719684 0.027619025
0.17647724 0.11525527 0.028945679 0.07214055 0.12675266 -0.033776112 -0.1361669 0.123069055
0.15355028 -0.1620491 -0.0618112 0.045456056 0.03220568 0.07896546 0.029914543 -0.12520455
0.023953851 0.060867142 -0.104224265 0.24918519 0.122360215 0.20311351 0.043988306 -0.12052307
-0.07503369 -0.3828979 -0.09879061 0.20955203 0.07499075 -0.41063708 0.22441544 -0.10064639
-0.0015485178 0.24375065 0.30637848 -0.47582385 0.052294828 0.19421034 0.5796126 -0.17859259
-0.25285593 0.07096809 0.045452483 -0.52438134 -0.33138263 -0.10064384 -0.46808934 -0.13695589

fc2.bias f4 [128]
00000000: c231 d73d 7b3e 7b3d c8d7 3a3d f2b6 b9be
00000010: 37b9 10bd 8298 0ebe c65c 113c 236e 8fbe
00000020: a70a 0fbd c9fe a3bd d6b7 873d e664 33bb
00000030: 2581 32be 966f 9ebd 03cf 42bd e2a9 1e3d
00000040: e95c 91bd b6c4 67be 68da 06bd 1526 be3d
00000050: 742d 1c3e db38 d2be 1616 33bd 044f 0cbd
00000060: fdf7 cebc 705d d63c 1245 21bd 9934 f1bd
00000070: 988e 53be b864 5bbe 778b 5c3e b114 dcbd
00000080: c63f 1d3d a1c2 513d 12db ff3c 9c84 92be
00000090: 2eea c2be a2b8 463d fd31 a23d d00e 81bd
000000a0: b03d 34be 2397 be3c 08db e7bc 3984 cbbd
000000b0: bdb6 ac3c fb4d e93c b43f 483e e6e7 9abd
000000c0: 7918 353d aeb7 b73d 8d6c 8abe 3dc3 f03c
000000d0: 3ab0 bdbd ca82 573c 6611 23be 763b afbd
000000e0: 265a c23d ae42 9bbc fc36 a73c 5206 91be
000000f0: 304f 8dbe bb69 ab3d 7adf 59bc 1db0 34be
00000100: c8ba 43be 40f0 233d c6f4 5dbe 5e73 5cbe
00000110: d43f 30bd 051b 723e 50c1 87bd 4bf3 dc3b
00000120: 6306 3fbe 2288 113e a9a8 8c3d b5ec 4abd
00000130: a966 79bd e589 01be f2a7 473d 0826 d53d
00000140: 6aed 1fbd 9488 a83d 63e1 8e3d ddb1 ee3d
00000150: 10e7 ab3d 4dad e83c ac01 6cbd b5f0 163e
00000160: 2987 613e 2c20 e5bd 224a d33d 02dd 073e
00000170: 35c4 9d3d 0370 4a3d a995 e8bb 3f8c ee3d
00000180: 2d81 a6bd 8780 bebd 5616 3f3e da61 72bd
00000190: 5e77 083e 423f d7bd 0b11 dabd 76f2 c4bd
000001a0: 3c2d 8ebd 5cff 8b3d 2c43 d2bd 7b51 c63d
000001b0: 8cb0 0d3c 110c 443e 3b3c 29bd e57c 7c3d
000001c0: 8497 1abd 6e47 633e aee9 6dbd 7ec3 80bd
000001d0: 04f5 813c b5b0 67be 9c3f 6ebd 6f3c c1bd
000001e0: 7b40 dfbe f485 a1be 4c03 7dbd d138 c83c
000001f0: d5c6 82be 3d00 f1bc 7df9 e73c c61b 993d
0.105075374 0.061338883 0.04561594 -0.3627239 -0.035332885 -0.13925365 0.008872217 -0.28013715
-0.03492227 -0.08007581 0.06626861 -0.0027373373 -0.17432077 -0.07736127 -0.047560703 0.03873623
-0.07097799 -0.22633633 -0.032923132 0.09284607 0.15251714 -0.41059002 -0.043722235 -0.034255043
-0.025264734 0.026167601 -0.03937251 -0.1177761 -0.20659864 -0.2142514 0.21537577 -0.10746134
0.038390897 0.051211003 0.03123239 -0.28616798 -0.3806929 0.048515923 0.07919691 -0.063016534
-0.17601657 0.023265427 -0.028302684 -0.09937329 0.02108323 0.028479567 0.19555551 -0.07563762
0.044212792 0.08970581 -0.27035943 0.029389972 -0.09262128 0.013153741 -0.15924606 -0.08556263
0.09489851 -0.018952694 0.02041196 -0.28325135 -0.27599478 0.08369776 -0.01329791 -0.17645307
-0.1911422 0.040024042 -0.21675405 -0.21528384 -0.04302962 0.2364312 -0.06628668 0.00674287
-0.1865478 0.14212087 0.06868107 -0.049542148 -0.06088892 -0.12650259 0.04874415 0.104076445
-0.039044775 0.08229175 0.06976583 0.116550185 0.08393681 0.028402949 -0.057618782 0.1474026
0.22024216 -0.11187777 0.10316874 0.13267902 0.07703439 0.04942323 -0.007097919 0.116478436
-0.08130107 -0.093018584 0.18660864 -0.05917535 0.13326785 -0.10510112 -0.10647782 -0.09616558
-0.069422215 0.06835815 -0.10266718 0.0968351 0.008648049 0.19145228 -0.041317206 0.061642546
-0.037742153 0.22195217 -0.058084182 -0.06287287 0.015863903 -0.22626002 -0.05816613 -0.09435355
-0.43603882 -0.3154751 -0.061770722 0.024441155 -0.25542322 -0.029419059 0.028317207 0.074760005

fc3.weight f4 [4, 128]
00000000: 6151 3bbe 1449 763e 4aee 43bf 4ab6 bf3d
00000010: ad37 d5be 43e4 9abe 668c 03bf ac65 a9be
00000020: 8d96 903e 8b67 6cbe 02b0 92bc 1001 2fbf
00000030: 4a30 e7be aefa e1bb 8994 3cbe e3ff e23e
00000040: 43e1 443e c9da 78be 6cfa 28be f160 54bf
00000050: f108 89be a7fa a2bf f3f3 723e bdd8 aabe
00000060: 316f 9d3e 1362 46be 4ce8 0fbf 780c fcbe
00000070: 1b06 9f3e 2cde b43d fb11 6abd b93b fb3e
00000080: 8fb6 65be e376 00be faa5 c13e a183 863e
00000090: 20ce a53d 5adc 95bd 32c4 063f 170c 6fbe
000000a0: 8581 0a3f 3734 eb3d e70f febe be73 a9be
000000b0: 9bc7 61be 957d b0be 9646 1d3f bdd7 2dbe
000000c0: 2110 723e d767 25be 7474 27bb 0d68 aebe
000000d0: 15b2 1fbe 438d 6a3e 52a5 9fbe 4519 2cbe
000000e0: 5aab bc3e 1230 b2bd da54 aa3d 23cf 2e3e
000000f0: 54ae 00bf b79e 10be 6a8c 1d3e 70df 753f
00000100: 6d06 aa3e 44b2 fb3e 5140 9cbe 79b0 a2be
00000110: 598c 94be 15da 1abf 6580 30bf 1d8c 53bb
00000120: efa7 24bf 2054 613f 5491 e13a 44b8 86be
00000130: d57e 013f 9606 01bf 98d3 603f d0e4 5cbf
00000140: 2547 213f 93c8 463e 44fe 583f 8d03 debe
00000150: 57ce f1bd 4c56 7c3e 1d39 05bd 7d38 063d
00000160: 1055 c23e 2875 08bf f21c b8be 820a d8be
00000170: edf0 393e 088b 033e 1128 e0be 0fce cd3d
00000180: bde7 c83e e163 35bf ebf1 423f 0438 c4be
00000190: 87e1 0ebe 3d4a a63d 2166 e23d 7ebe c3be
000001a0: 783d 23be cdf3 ac3c 945b 43bf 8f4d 313e
000001b0: 42a3 72be d287 ab3e 5640 2bbd cc45 91bc
000001c0: 268f f8be 6f4c ae3e 8fec 3d3e 62dd 0fbd
000001d0: 7389 383f 809f d13e eb2f bd3e eb4e 733e
000001e0: 9267 42bc c50b 883e 31cf b3bf ef9d 13bf
000001f0: cca8 f23d 03a1 f73c 15df ad3f 9c2b 8b3e
00000200: 79d3 313f dcb8 673e cbc4 33bd a704 873e
00000210: 02be 433e 2d02 95be c888 25bf b4a4 043e
00000220: c59e db3e 7bd2 1b3e 9c6e 25be ecbc 32bf
00000230: c9d5 bfbd 2b34 03bc e430 13bf f71d b6be
00000240: f285 a4bc 1be9 c13e d550 87be 6cea 6cbc
00000250: dc53 d5bd c706 57be 0e72 913e e9db cdbd
00000260: 3490 af3e b3b3 60bd 88e9 a7bd 0616 71bc
00000270: b03e ef3d 97ed 35bc 0182 9d3f dac3 12bd
00000280: be48 673e fd41 97be 5cb7 ff3e 1f68 6c3e
00000290: 2c0d dfbe 39a8 473f 589a 1f3b 8441 3fbf
000002a0: 9970 fcbb af67 013e d1d7 ab3d 9925 c0be
000002b0: d576 2bbf 419d b13d d432 dcbc f09b cfbd
000002c0: 403c 4c3e c294 d43d 176b 8c3e c866 ed3e
000002d0: edb6 b6be cf05 8d3e 32ea 33be 337c 44be
000002e0: 848f 44bb fcae 91bd 07c7 eb3e 0931 90be
000002f0: 8264 11bf ce87 63bf 44b6 b4bc c7dc 6f3e
00000300: a105 acbe 280e 143f cd84 7a3d c4b7 c8be
00000310: 25b7 32bf 380e f4bd e2af 45bf e39e 823c
00000320: 3451 2c3e 1f15 213f 2996 a13a 8d8c b03c
00000330: c56e 9bbe 5311 003e d8e9 5b3f c26c 22bf
00000340: b5b7 8abe 1d3d 283f 7536 6c3d 7870 e9be
00000350: cf42 03bf a72f 16bd 32eb 863e d22c 92bc
00000360: c1f0 103f ae6f c23c 2b87 11be bf8c 3abe
00000370: db14 cf3e c4a6 f0bd 833d 9cbe 1e4c 943d
00000380: 0269 51bc 5433 30be d1bb 2bbe 1614 00be
00000390: 8911 443e 1046 e63e 193a 063e 7fe9 803d
000003a0: 39f8 24be 8a6a 9ebc 3700 2cbf 4f49 093f
000003b0: 9564 c83d d717 8a3e d433 e23e 2210 e1be
000003c0: 80cf 9b3e 024b ee3d d09a 823b 7b15 5b3d
000003d0: d07f 673f 5932 4d3f f43c 923d ffab cd3d
000003e0: f0cc 633e 072c 57bd cf23 64bf b22e 7fbe
000003f0: bf51 573e 2abe de3e 9c15 6b3f fb5a d6be
-0.18292762 0.24051315 -0.76535475 0.09360941 -0.4164404 -0.30252275 -0.51386106 -0.33085382
0.2823986 -0.23086374 -0.017906193 -0.68360996 -0.4515403 -0.0068963384 -0.18416037 0.4433585
0.19226556 -0.2430221 -0.16501778 -0.8296042 -0.26764634 -1.2732743 0.23725872 -0.33368483
0.30748895 -0.1937335 -0.5621383 -0.49228263 0.31059346 0.088314384 -0.057146054 0.49069002
-0.22432922 -0.12545352 0.37821943 0.262723 0.08095956 -0.07317419 0.5264312 -0.23344456
0.5410388 0.114845686 -0.49621508 -0.33096117 -0.220488 -0.3447081 0.6143583 -0.16976829
0.23638965 -0.16152893 -0.002555159 -0.3406376 -0.15595277 0.2290545 -0.31180817 -0.16806515
0.3684948 -0.08700575 0.083169654 0.17071204 -0.50266004 -0.14123045 0.15385595 0.96044064
0.33208027 0.49159443 -0.3051782 -0.31775263 -0.29013327 -0.60489017 -0.68945915 -0.003227956
-0.64318746 0.8801899 0.0017209449 -0.2631246 0.50584155 -0.50400674 0.87822866 -0.8628664
0.6299918 0.1941245 0.8476298 -0.43362084 -0.11806934 0.24642295 -0.03252517 0.032768715
0.37955523 -0.53303766 -0.35959584 -0.42195517 0.18158312 0.12846005 -0.43780568 0.10049068
0.39239302 -0.7085553 0.7615039 -0.38323987 -0.1395322 0.081196286 0.11054636 -0.38231272
-0.15941417 0.021112347 -0.7631161 0.17314743 -0.2369509 0.3350206 -0.041809402 -0.017733477
-0.48546714 0.3404269 0.18547271 -0.035123236 0.7208473 0.40942 0.3695062 0.23760574
-0.011865513 0.2657148 -1.4047605 -0.5766286 0.11848602 0.030228144 1.3583704 0.2718171
0.69463307 0.22629112 -0.04388885 0.26370737 0.19115451 -0.29103222 -0.64661837 0.12953454
0.4289457 0.1521701 -0.16155475 -0.6981952 -0.09366948 -0.008008043 -0.57496476 -0.35569736
-0.020083401 0.37873158 -0.26428857 -0.014460187 -0.104163855 -0.20998679 0.2840733 -0.1005171
0.34289706 -0.054858875 -0.081988394 -0.014714723 0.116818786 -0.011104009 1.2305299 -0.03583131
0.22586343 -0.29542533 0.4994458 0.23086594 -0.43564737 0.7799106 0.002435347 -0.74709344
-0.0077038524 0.12637208 0.08390773 -0.37528685 -0.669782 0.08672572 -0.026879705 -0.101371646
0.19944859 0.10379936 0.27425453 0.46367478 -0.35686436 0.27543494 -0.17569807 -0.19188003
-0.0029992769 -0.07113454 0.46050283 -0.2816241 -0.5679399 -0.88879097 -0.022059567 0.23424064
-0.33598045 0.578341 0.061161805 -0.39202702 -0.69810706 -0.119167745 -0.772215 0.015944904
0.16827852 0.62922853 0.0012328076 0.021551395 -0.30357948 0.12506609 0.8590369 -0.634472
-0.27093282 0.6571825 0.05766912 -0.4559362 -0.51273817 -0.03666654 0.26351315 -0.017843638
0.5661736 0.023734894 -0.14211719 -0.18217753 0.404456 -0.11750558 -0.3051568 0.07241081
-0.0127813835 -0.1720708 -0.16770865 -0.12507662 0.19147314 0.44975328 0.131081 0.06294536
-0.16110314 -0.019337911 -0.6718783 0.53627485 0.097848095 0.26971313 0.44180167 -0.4395762
0.30431747 0.116354 0.0039857402 0.053487282 0.904294 0.8015495 0.07140532 0.10042571
0.22246146 -0.052532222 -0.8911714 -0.24920157 0.21027277 0.4350446 0.9182985 -0.41866288

fc3.bias f4 [4]
00000000: c1fe 1e3e da22 36be 0d22 92bd e480 eb3d
0.15526868 -0.17786732 -0.07135401 0.11499193

head.weight f4 [128, 24]
00000000: 06e8 0f3e d2be 91bd 8955 533f 7009 c5bf
00000010: a187 8cbc 254d bdbe b5b6 d43d b538 8cbe
00000020: 5f5e dbbe 41bb c0be 5011 013d caec 233e
00000030: f16c 00be ba16 003d a19e 78bd e2a2 373c
00000040: a945 e8be 5bf9 a73e 1263 833e ad9d 11bd
00000050: e8c2 8bbe 7686 bebd 1f77 56be 9ed9 133f
00000060: d022 22c0 e7e1 ecbe eca0 23c0 cad0 6940
00000070: 216b 13be 2efe 22bc df9b 683c 04aa 833d
00000080: 4c3b 76be d48d 8fbe a9a0 6cbe f50f 1dbe
00000090: 804a 35bd fc59 82be 8e1d a93a 6ea4 0f3d
000000a0: b32a b73d 2662 81be ec62 58bd 2c36 3fbc
000000b0: ebf9 04bd 1fda 073e 8541 1abe 29ff 233c
000000c0: debb a7be 781b 1bbe 3af7 ee3e fcd8 3ebe
000000d0: 639b 57bd 2682 523e 22a8 ea3d 23c9 803e
000000e0: 56ad 5fbd b58f 84bc d2bc b73c 3c65 38be
000000f0: 3d28 c53c a2ce 153d 2c42 32bd 06e7 e43b
00000100: 5dcd 653c 3dd0 423d e89b 93bd 0a7b 37bd
00000110: 33ba cebc 9cbe 67bd 202c 4f3d 4c4f e1bc
00000120: 827c be3e a5b8 eb3e 2741 99be 25d4 2abf
00000130: 2f6f c4bb 7bed 983d 6ba5 a83d 7ed9 693f
00000140: 3ba0 1a3f 8b08 0a3f c125 8fbe 024d 54bd
00000150: 5a34 ab3d 0ad5 abbd bd9c 423e 2d8f 51be
00000160: ba5c 203d ab15 ef3d 52d5 103e 6f0e aa3d
00000170: bb82 1f3d cb2a 393d 8f35 f13d 97ce 12be
00000180: 8803 003e 4f82 823d c475 af3e 602e 52bf
00000190: d477 1abc adee b83c be43 e23c ddea d2be
000001a0: ae18 e1be 003e 2dbf 7335 7fbd a35b bfbd
000001b0: 3eb6 c93d 52f9 8cbd d087 d33d 8c14 c33c
000001c0: 9c9e d9bd a6a8 d83d b0dd 803c 05fe 74bd
000001d0: 33a1 f23d 52bf 993d 3829 b53c 5edb a3bd
000001e0: c9f9 1bc0 f429 66bf 5ea0 fcbf d9a8 4240
000001f0: e360 86be f4b1 4abd 5a53 803e ea43 8b3e
00000200: cba3 d33e c147 0f3f 2f42 0f3e e021 b5bd
00000210: b72f 903c a508 3a3d d8e6 0abe 6222 5b3c
00000220: 6b35 0ebd 87a9 253e 8ef4 2abe 41c0 14bd
00000230: a735 173d 614b 073e 2c04 12be bed2 eebd
00000240: c845 573f 760e d2bd 62ed 003f 9502 a8bf
00000250: 5dd3 033c 45d6 55be 94d1 ccbc e8eb e73d
00000260: 1ba8 7abe cf08 70be 14ed cc3d 981e 2dbe
00000270: 8af2 1d3e d84f 14bd dd02 703c b7e9 f2bc
00000280: 3981 cabd 84eb a8bd b8ec abbc e6f3 813e
00000290: e0d0 083f b03a 483d f7b6 8e3d 9678 9dbe
000002a0: b0ea fcbe 2ce2 1c3d 07c1 3cbf 8374 f53e
000002b0: eeae 2ebe 4575 1f3e 3839 7dbd 9c56 8d3f
000002c0: 3a41 853f c6a1 a73f 3946 c83d b27e 39be
000002d0: 2456 cd3d ad0a ecbc f91e 513d b174 343d
000002e0: 381a c1bd 857b a5bc a899 36be de05 23bd
000002f0: 64d9 05bd e28d a73c 5722 f7bc 015b ff3c
00000300: 6b3d 8d3d 1fca 30be 0995 b13e 3561 4dbe
00000310: 1322 8ebe e01b 9d3d bde0 48be ff2e 39be
00000320: 4f48 32bf 85f0 1dbf 51d2 1b3b 2474 4d3e
00000330: 6d3a 263e a455 51bb 7eba eebb c52f adb9
00000340: f1d0 ae3c e324 b73c 69f5 98bd f200 0fbd
00000350: 43e4 8f3c 60c8 b3ba 1a53 48bc 6306 0dbc
00000360: 3d4f f8bf 4d5b 0cc0 cb4c 2e40 2b92 0f40
00000370: 68ad 37bc cdf0 d9be 3d95 43be 8284 1cbe
00000380: 374d edbb 5ed7 30bd 94a3 29bc 25d6 a83d
00000390: 1094 1f3e 7f32 22be 2b7e 583c 426e 373e
000003a0: 9b2d 573d ed89 653e c8cd c8bb dc6d 893d
000003b0: 353b dbba a73d a93d 7601 d4bc 08f6 183c
000003c0: 2d99 4c3e ae77 7c3e 52d0 dabf 7f2f 253f
000003d0: 711c bcbd 2141 2ebd d210 9bbd a6da 7a3d
000003e0: 878e bbbe 5f88 febe df4a 053e 4b20 533d
000003f0: 919d 803d 453d 0c3c be2d a83c e473 893b
0.14053354 -0.07116474 0.8255239 -1.5393505 -0.017154517 -0.3697292 0.10386411 -0.27387014
-0.42845437 -0.37642863 0.03151065 0.16008297 -0.12541558 0.031271674 -0.060698155 0.011208268
-0.45365646 0.3280743 0.25661522 -0.035550762 -0.2729714 -0.0930299 -0.20943879 0.5775393
-2.5333748 -0.462661 -2.556697 3.6533685 -0.14396335 -0.0099482965 0.014197319 0.06428912
-0.24046057 -0.28037894 -0.23108162 -0.15338118 -0.0442605 -0.25459278 0.0012902485 0.03506892
0.08943691 -0.25270194 -0.052828714 -0.01167063 -0.032464903 0.132668 -0.15064056 0.010009565
-0.3276052 -0.15147197 0.46672994 -0.1863746 -0.052638423 0.2055746 0.1145785 0.25153455
-0.054608665 -0.016181806 0.022428904 -0.18007368 0.024067039 0.036574014 -0.043520138 0.006985548
0.014026013 0.047561873 -0.07207471 -0.044795074 -0.025235271 -0.056578264 0.05057919 -0.027503632
0.37204367 0.4603931 -0.2993252 -0.66729957 -0.0059946994 0.07467171 0.08234676 0.9134749
0.6040074 0.53919286 -0.2795849 -0.051831253 0.08359595 -0.08390243 0.19005103 -0.20464773
0.03915093 0.11674055 0.14143875 0.08303534 0.038943034 0.045206826 0.117777936 -0.1433662
0.12501347 0.06372511 0.34269536 -0.8210201 -0.009427983 0.022574747 0.027620193 -0.4119481
-0.43964142 -0.6767273 -0.062306833 -0.0934365 0.09849213 -0.068834916 0.103286386 0.023813508
-0.106259555 0.10579042 0.015730709 -0.059812564 0.118471526 0.075071946 0.022114381 -0.08000825
-2.4371207 -0.89907765 -1.973644 3.0415556 -0.26245794 -0.049486116 0.25063592 0.27200252
0.41335902 0.5596886 0.13990091 -0.08844352 0.017600877 0.0454184 -0.13564622 0.013374897
-0.034718912 0.16177951 -0.16694853 -0.03631616 0.0369164 0.13212349 -0.14259404 -0.1166129
0.8409085 -0.102566645 0.5036222 -1.3125788 0.008045998 -0.20882519 -0.025002278 0.113242924
-0.2447819 -0.2344086 0.100061566 -0.16906202 0.15424553 -0.036208957 0.01464912 -0.02965246
-0.098879285 -0.08248046 -0.0209869 0.25381392 0.5344372 0.048884094 0.069684915 -0.30756062
-0.49397802 0.03830163 -0.73732036 0.47940454 -0.17058918 0.15572079 -0.061822146 1.1042056
1.041053 1.3096244 0.09779019 -0.18114737 0.10026196 -0.028813684 0.05105493 0.044056598
-0.09428829 -0.0202005 -0.17832053 -0.039800517 -0.032678023 0.020453397 -0.030167742 0.031171324
0.0689648 -0.17264603 0.34684017 -0.20056613 -0.27760372 0.07671332 -0.19616981 -0.18084334
-0.69641584 -0.6169513 0.0023776481 0.20063835 0.16233225 -0.0031941915 -0.007285415 -0.00033032722
0.021339865 0.022356456 -0.07468683 -0.03491301 0.017564898 -0.0013716333 -0.012226844 -0.00860748
-1.9399182 -2.1930726 2.723437 2.2432964 -0.011210777 -0.4256653 -0.19099899 -0.15284923
-0.0072418707 -0.04317414 -0.0103539415 0.0824397 0.15583825 -0.15839575 0.013213675 0.17913154
0.052533727 0.22415896 -0.0061280467 0.06710407 -0.0016726019 0.082637124 -0.025879603 0.009336002
0.19980307 0.24655029 -1.7094824 0.645256 -0.09185112 -0.04254258 -0.075715676 0.061243676
-0.36632177 -0.49713418 0.13016842 0.05154447 0.062800534 0.00855953 0.020529624 0.0041947234

head.bias f4 [128]
00000000: 22a0 87be 1959 3f3e c095 553c 6ac4 80be
00000010: 0b4a 97bd 35c3 cbbe a2dd 463e 8003 0bbe
00000020: 2b41 acbc a025 a13e 1a36 583c ab6f 9dbe
00000030: 69e2 bfbe 5378 8f3e 13dc 1abe aa29 283e
00000040: 28d8 96bd 793b 933e a2bc 93bc 5aa9 7dbd
00000050: c172 3bbe 72a8 453e 756a babe ba13 52bc
00000060: 7700 d5be 2844 a2bc 86b7 8f3c 1460 0a3e
00000070: b430 723e b0d2 56be 38ec ca3d 04f4 73be
00000080: acdd 2fbd 4c99 713e 45e6 57be fa62 8d3c
00000090: 7247 f4bd e369 99bd 5fe2 f7bc d728 f03d
000000a0: eb74 cc3e 69b4 363e 908d 843c a6e6 7bbd
000000b0: 9129 2e3c ea7a a13c 056d 98bd 3ef5 df3d
000000c0: 8bfb c1bd ead6 b83d 2cbf 5dbe b884 733c
000000d0: 6e9d 0dbe 1fc5 4cbe a965 963e 203d 8bbe
000000e0: 8d2b 7cbe 36b1 8abe 93c2 02be 26a9 59be
000000f0: aeed dd3e 5d89 9a3e 59d1 963e 4577 5dbe
00000100: a22d 583d 5d81 f1bd c8d0 253e 7682 eabd
00000110: f005 b13d 854b 1f3e c6ff f0bc 0a38 e9bd
00000120: 5b2a 93bd 164e 1b3e 4b7c c1bd 04c3 0dbd
00000130: 08cb 85be 3453 1e3d d2eb 2cbe 3e0f 103d
00000140: b9de 703e ca0d bf3d aff0 373e 455f 6f3d
00000150: cc94 24be 85ed 93bd f6f9 963d d65f 383c
00000160: f04b 083e 3dc9 fa3c f05e 12bd ba94 bcbe
00000170: 5a76 8ebe 2872 6fbe a213 a33b 6ce9 9f3d
00000180: 9871 333d 454e 843c a931 48be 1500 1dbe
00000190: c5fe 8ebe f5cc 09be b58f 013e 65d5 963c
000001a0: e140 a33d 43b1 e3bc 82db 3b3e 22ef a2be
000001b0: 5c9c f83d 59fe 3b3e 9d87 f73a ea24 21be
000001c0: 639f 0e3d 4fcf 063e c6fb 6ebe 2040 febd
000001d0: faed 1cbb 174e 44be 692b 9e3e b00c b03d
000001e0: af2e 353d 4e27 1cbe 8921 e33d 59a6 78be
000001f0: 0ef4 883e 0fee 24be 971d b7bd 3f88 2cbe
-0.2648936 0.18686332 0.013036191 -0.25149852 -0.073871695 -0.3979737 0.19420484 -0.13575554
-0.021027168 0.31474018 0.013196493 -0.30749258 -0.37477425 0.28021488 -0.15123014 0.16422144
-0.07365447 0.28756312 -0.018034283 -0.061929084 -0.18305494 0.19302538 -0.36409345 -0.012822086
-0.41601917 -0.01980789 0.017543565 0.13513213 0.23651391 -0.20978808 0.099083364 -0.23823553
-0.042936012 0.23593634 -0.21083935 0.01725911 -0.119276896 -0.074908994 -0.03025931 0.117265396
0.3993295 0.17842259 0.016180784 -0.06149926 0.010630027 0.01971193 -0.07442669 0.10935448
-0.09471806 0.090253666 -0.21654958 0.014863186 -0.13829586 -0.1999707 0.29374436 -0.27195072
-0.24625988 -0.27088326 -0.12769537 -0.21255931 0.43345398 0.30182925 0.29456595 -0.21627529
0.052777894 -0.11792252 0.16192925 -0.11450665 0.086437106 0.15556152 -0.029418837 -0.11387642
-0.07185813 0.15166506 -0.09447535 -0.03460981 -0.26131463 0.038653567 -0.16886833 0.035170786
0.23522462 0.09328802 0.17962907 0.058440465 -0.16072387 -0.07223038 0.07371895 0.011253318
0.13310218 0.030613536 -0.03573507 -0.3683222 -0.2782467 -0.23383391 0.0049767056 0.078081936
0.043809503 0.016150603 -0.19550194 -0.15332063 -0.2792875 -0.13457091 0.12652476 0.018412301
0.07971359 -0.027794486 0.18345454 -0.3182307 0.12139198 0.18358745 0.001888502 -0.15736738
0.03481997 0.1316502 -0.23338231 -0.124145746 -0.0023945556 -0.19170414 0.30892494 0.0859617
0.044233974 -0.15249369 0.11090381 -0.24282207 0.267487 -0.16106437 -0.08941191 -0.16848849

cos_embedding.weight f4 [128, 64]
00000000: 9157 c33b 270f 003b ed59 1abb 47eb 903b
00000010: d477 ccbb 0a33 593b 9e84 4cbb a79a 4f3b
00000020: 15df a1bb d312 1bba 527e 5aba 200b 153b
00000030: a8de bfba ee4f ae3a c27e 593b f8e2 b938
00000040: fa94 443a 0e38 753a 5026 f03a 2e3c 853b
00000050: 21db 1939 4486 10bb 8a0a b83a 1acc 703b
00000060: feca 05ba 1c9b 2b3b b938 1dba dbf8 8cba
00000070: 7993 14bb 2de1 d139 387e a6ba bd8a 58bb
00000080: d3eb 45ba 1ba3 cf3a 26c7 60ba 93b0 a83b
00000090: 35cb ab3a 95ba 113b 2619 0dba 0a3c ebb8
000000a0: 1eda 17ba b2ce c537 be73 6a3b 71da 5f3a
000000b0: 4aa9 0cba c068 5a3b 3e96 e0b9 92cc e239
000000c0: d73d 6b3a 6b5a b1ba 3be5 3fb9 8178 25bb
000000d0: 25f1 bf39 872f d23a 9fbb 9cba ae7d beba
000000e0: ec58 1dba 2964 6ebb c7ef 4d3b afca 96b9
000000f0: aa0d 583b b6c3 eb3a 8e14 00ba 0b02 85b8
00000100: 84c8 7f3b 7bda a73b 32fb 283a 5be2 97ba
00000110: afb0 3938 db82 05bb 4022 1cbb bc08 603b
00000120: d880 d237 d918 f2ba da3d 87ba 92c8 2fba
00000130: 1e28 ccba d8b4 30bb 66f0 04bb fae6 e5b9
00000140: e7a2 3d3b 2883 88ba 3d70 efba f963 d8ba
00000150: f074 a23a f814 803a 02cb 043b c0f7 39bb
00000160: 9674 413a 1783 29bb 8bac 01bb fdcb 0bbb
00000170: 268f 12b9 0aae a7b8 40f0 f7b9 7f9f 043b
00000180: e276 973a e83e 33bb 7d39 b0ba ed80 263a
00000190: 7a79 adbb 3df9 aab9 6dc6 ea39 f93d 8139
000001a0: 8222 f43a 21cd 873b 28c8 f4b8 5bc8 10bb
000001b0: 1a7c 07bb 5d65 08ba b6a8 86bb 7034 19bb
000001c0: 0a47 0ebb 790a bb3a 4fa5 6d3b c96f 05bb
000001d0: 9086 1cbb 03c1 52bb 1b4a 80ba ac99 953a
000001e0: f8e4 6eb7 7704 e8ba 81f9 6c3a c49c 723b
000001f0: 38eb f0ba fade b7ba 0a41 a1ba eaa1 6fbb
00000200: 9053 493d 9fef f5bb b978 b7bd cb4c 60bd
00000210: da34 133d c692 03bc 5d75 1ebc 036c dd3c
00000220: 3db1 f13a 4fae 59bd 0ca8 2cbc 235f afbb
00000230: 8c04 00bd d7a7 90ba 51a9 9e3c 54ae a4bc
00000240: e4b3 9ebc 6d6a 883c efed 73bc efd7 c8bc
00000250: ab48 2f3c b52d 3e3c 84da acbc f297 283c
00000260: 966d 9d3c 4239 44bb 62ed 0bbc 92f0 a73c
00000270: 931e 8139 8fc1 3e3b b0e7 923c 0a50 aa3c
00000280: d5a6 843b ea49 9d3c 28aa 503c b187 f43a
00000290: 11ba c73b a14d a23c bb28 093c bd64 ae3b
000002a0: 88a0 973c 1d78 363c 2c20 bd3b b7e3 b53b
000002b0: 52a0 4f3c 9576 36bb 3cb5 133b 79e1 e23a
000002c0: cec9 1b3c 8224 e8b9 49e8 023c cf98 84b9
000002d0: 290f 993b ac2f 1cbc e1bc 26bb 0435 c4ba
000002e0: 5773 753b 1303 d2bb f355 8e3b 1ea2 d93b
000002f0: 353d a8bb f736 81bb 2861 103c 395f 2fbc
00000300: ba9d c3bb 286f 9bb9 7a4e c5b9 193d 823a
00000310: ef14 20bb a4dc dcb9 a447 d9b9 54d2 4d3a
00000320: 9231 35ba aa80 f439 3c08 89ba 203a 9dba
00000330: 68f5 d439 bc3f 81ba fc5b c7b8 46f8 2db9
00000340: 4d59 e6ba 241f 1e3b 0461 66ba 9d97 233a
00000350: 7479 f5ba a5c2 8e38 c106 bd39 9b53 c4ba
00000360: 8950 9b39 eb98 a93a 52a8 1f39 3927 d439
00000370: 9ad7 0b3a c8f1 6c3a 567c 90ba 4590 cd3a
00000380: c040 2a3a a234 91b9 70d4 9eba 8a65 0739
00000390: d768 9db9 9e55 44ba ca68 81ba 1254 8cba
000003a0: 20cc 4d39 d32d 933a 99e8 033b bdd8 32bb
000003b0: 2b89 82ba 01fd 833a 944a 12ba 016b e8ba
000003c0: 55fc 3a39 50fa e938 1e76 003a 952b 7d3a
000003d0: 8da2 253a 26a5 a5ba 50c2 71ba 685a 4239
000003e0: 8a9d 153b 35e6 d53a 7e72 2139 1c5e 1d38
000003f0: 35f4 673a 6ac5 beb9 221a 103a 87f1 6eba
0.0059613665 0.0019540282 -0.0023552135 0.0044225785 -0.0062398706 0.0033141994 -0.0031206976 0.0031677873
-0.0049399235 -0.0005915586 -0.0008334863 0.0022742227 -0.00146385 0.0013298967 0.0033187126 8.863764e-05
0.0007499006 0.0009354361 0.0018321965 0.004066012 0.00014672849 -0.0022052685 0.0014041227 0.0036742748
-0.00051037956 0.0026184982 -0.0005997527 -0.0010755317 -0.0022670908 0.00040031355 -0.0012702411 -0.0033041679
-0.0007550094 0.0015841456 -0.00085745973 0.0051480024 0.0013106825 0.0022236456 -0.00053824706 -0.000112168564
-0.0005792695 2.358048e-05 0.0035774554 0.0008539325 -0.0005365802 0.0033326596 -0.00042836549 0.00043258496
0.00089737534 -0.0013530975 -0.00018300574 -0.0025248828 0.00036610026 0.0016035893 -0.0011957771 -0.0014533305
-0.0006002325 -0.0036375618 0.0031423436 -0.0002876124 0.0032967129 0.0017987404 -0.00048858754 -6.342315e-05
0.0039029429 0.0051224804 0.00064461224 -0.0011587845 4.4271987e-05 -0.0020372185 -0.0023824126 0.0034184894
2.5093948e-05 -0.001847054 -0.0010318116 -0.00067056075 -0.0015575921 -0.002696326 -0.002028489 -0.00043850375
0.0028936209 -0.0010415064 -0.0018267703 -0.0016509286 0.0012394469 0.0009771874 0.0020262604 -0.002837643
0.00073797384 -0.002586549 -0.0019786682 -0.0021331303 -0.00013976972 -7.995598e-05 -0.0004729051 0.0020236669
0.0011555816 -0.0027350727 -0.0013444867 0.0006351609 -0.005294022 -0.00032610624 0.00044779797 0.0002465097
0.0018626007 0.0041443263 -0.00011672109 -0.0022092077 -0.0020673336 -0.00052030926 -0.0041094674 -0.0023377202
-0.0021709823 0.0014270089 0.0036261862 -0.0020360819 -0.0023883916 -0.00321585 -0.000978771 0.0011413596
-1.4239216e-05 -0.0017701526 0.00090398645 0.003701971 -0.0018380648 -0.0014028244 -0.0012302708 -0.0036565014
0.049151957 -0.0075053717 -0.08958573 -0.054760735 0.035939075 -0.008030599 -0.009671536 0.027029043
0.0018439662 -0.05314475 -0.010538112 -0.0053519174 -0.031254336 -0.0011036348 0.019367846 -0.020102657
-0.019372888 0.01665231 -0.014888271 -0.024517028 0.010698478 0.011607577 -0.02110029 0.010290133
0.019217294 -0.0029941355 -0.008540483 0.020500455 0.00024627577 0.002910707 0.017932743 0.020790119
0.0040482082 0.019200284 0.012735881 0.0018656162 0.006095179 0.019812407 0.008371527 0.0053220675
0.018509164 0.011137036 0.0057716575 0.0055508274 0.012672501 -0.0027841676 0.0022538444 0.0017309628
0.009508563 -0.0004427769 0.007989951 -0.00025290853 0.0046709967 -0.00953285 -0.002544217 -0.0014969413
0.003745278 -0.006409058 0.004343742 0.0066416403 -0.0051342496 -0.00394332 0.008812226 -0.010703855
-0.00596973 -0.00029646722 -0.00037633238 0.0009936421 -0.002442654 -0.0004212606 -0.00041442842 0.0007851471
-0.00069119886 0.0004663517 -0.0010454725 -0.0011995472 0.00040618633 -0.0009860913 -9.506193e-05 -0.00016591055
-0.0017574221 0.0024127448 -0.000878826 0.00062405487 -0.0018728212 6.807343e-05 0.0003605392 -0.001497853
0.00029623907 0.001293925 0.00015226126 0.00040465014 0.00053345563 0.0009038714 -0.0011023383 0.0015683254
0.0006494634 -0.0002769577 -0.0012117755 0.0001291243 -0.00030023485 -0.00074895646 -0.0009873149 -0.0010706207
0.00019626366 0.0011228867 0.0020127653 -0.002728983 -0.0009959092 0.0010069908 -0.0005580571 -0.0017732085
0.00017832343 0.0001115693 0.00049004133 0.00096576783 0.00063184724 -0.0012637719 -0.0009222375 0.0001853496
0.0022829496 0.0016319217 0.00015396808 3.7519363e-05 0.00088483404 -0.0003638671 0.0005497058 -0.000911497

cos_embedding.bias f4 [128]
00000000: 0134 c83e a40a e83e d1fb 62bc a36f 3b3e
00000010: 4107 4abe 1bb3 9a3e 77b6 4dbe 2a8e 8d3e
00000020: 1598 073d e8aa cf3e 7ec7 f03d 4119 aa3e
00000030: d210 d13e ffd0 193f 2549 503e b656 9b3e
00000040: f5fb 2bbd d5a4 e7bd b0bc 063e fe9d 3dbe
00000050: 02d7 3dbe 58e8 c63e 2634 8fbc 03b2 12be
00000060: a79e 0f3f 808d 2d3e 4234 08be 8c43 393e
00000070: 0eac 713e d587 203e 9fd5 8b3e c833 f9bd
00000080: a7a6 dc3e 321d efbd b2e4 553e 6a3f 113e
00000090: d6c4 a33e 7461 ffbb b208 c13e c7aa 69be
000000a0: 0b4a 173e 245e 813f 2c19 dcbd 412a 953e
000000b0: 87f1 e83d 43e7 3b3e 93ee aa3e 3eaf 213f
000000c0: e4d7 123e 8e83 a73b ae00 433e 9a73 5dbd
000000d0: dc69 1cbe c5d3 933e 4efb 463f ae61 a03e
000000e0: 13f2 773b 4152 903e 59b1 c43e b8a9 9d3e
000000f0: d1b4 abbe de7a 92be a20b 133e 4013 ce3e
00000100: 6e67 20be 6d36 cf3e f98c d93d b20b be3e
00000110: 9d6d 41be 41d1 52be b8aa ba3e b097 573e
00000120: 1901 aa3e 6196 ab3e 57bf 6b3e c62d a83e
00000130: 4213 113f 4fb5 233e e759 323f 6012 02be
00000140: 10c4 0dbe 9d5b c63e 7c93 84be 6f99 753d
00000150: c6a6 633e 9b5a e83e 95ef fe3e b74f 173f
00000160: b5af a73e d7db d13e b1d7 b2bd a2c2 af3e
00000170: 908b 8e3e bb14 453d 46c8 8f3e 0c50 3b3e
00000180: fa32 953e 244d b43d 42c5 7b3e 550c 833e
00000190: 1722 1c3e 67a8 b33e d49b f43e af1a af3e
000001a0: fd16 85bd 16a6 01be fd8f 53be 1325 c63e
000001b0: 6b58 223e 1bf9 f6bc 6ae1 913e fa28 0f3e
000001c0: 8b07 e13e 45c2 bd3d aa68 413f 781a 06bd
000001d0: 6f4f 39bd ac0d 913e 78d9 933e f796 0d3f
000001e0: 2f69 9cbd 73d7 803e ffcc aa3e 8153 01be
000001f0: f849 863e 61b2 303f 6256 7dbe 45b7 403e
0.39102176 0.45320618 -0.013853983 0.18304305 -0.1972933 0.30214772 -0.20089136 0.27647525
0.03310402 0.4056008 0.117568 0.33222392 0.40833145 0.6008453 0.20340402 0.30339593
-0.04198833 -0.11310736 0.13157916 -0.185173 -0.1853905 0.3884914 -0.017480921 -0.14325719
0.5610146 0.16948509 -0.13301185 0.18092173 0.2360079 0.15676816 0.27311417 -0.121680796
0.43095896 -0.116754904 0.20888022 0.14184347 0.3198611 -0.0077935997 0.37701946 -0.22819053
0.14774339 1.0106854 -0.10746989 0.291338 0.11374193 0.18349938 0.33385143 0.63158023
0.14340168 0.005112118 0.19043228 -0.054065324 -0.15274757 0.28872505 0.7772721 0.31324524
0.0037833496 0.28187755 0.38416556 0.30793548 -0.3353639 -0.28609365 0.14359906 0.40249062
-0.15664455 0.4047121 0.106225915 0.37118298 -0.1888947 -0.20587637 0.36458373 0.21053958
0.33203962 0.33513168 0.23022209 0.32847422 0.5667001 0.15987132 0.6966843 -0.12702322
-0.13844323 0.3874177 -0.25893772 0.05996078 0.22231588 0.45381626 0.49792162 0.5910601
0.3275124 0.40988037 -0.08732546 0.3432818 0.27840853 0.048115473 0.28082484 0.18292254
0.29140455 0.08803776 0.24586967 0.25595346 0.15247379 0.35089418 0.47775137 0.34200045
-0.06498525 -0.12661013 -0.20660396 0.3870016 0.15854041 -0.03014808 0.2849229 0.13980475
0.43951067 0.092655696 0.7555033 -0.032740086 -0.04524177 0.28330743 0.28876853 0.5530848
-0.0763725 0.25164375 0.33359525 -0.1262951 0.2622831 0.69022185 -0.24739984 0.18819912

ff_1.weight f4 [128, 128]
00000000: 2ec6 e0bc f1f6 66bf 79ba 603d e222 f0bc
00000010: d762 14be ca1d 123e 4482 46bd aa0c 14bc
00000020: e1c6 5fbd 9f40 a0be c5c5 66be bd4b abbc
00000030: 76a2 86bc 9714 733c 5684 273d a3cc debd
00000040: 0a3f 2b3d bde6 933d 9fb2 b1bd 4522 2f3d
00000050: 6e07 84be 17f0 153d 03ae 35be 1308 29be
00000060: 8ce3 cbbd 0fb0 f4bc 654c 9a3b f25a e43d
00000070: bbc2 48bd 59ae 94bc c1fc abbc 9445 e13c
00000080: 9f9d 0cbe 16bf f83d 66f2 893d a875 2dbe
00000090: d7a4 16bf a12e 113c c9b6 83bd 3ffa 4abd
000000a0: 1c88 f63d 60bc 873e 2274 143d ac7a bd3c
000000b0: aeac 9a3e e7b3 053e 9ac6 dfbd 8c98 3abf
000000c0: f976 46bc 55ec 253c bff4 d0bd 15ad ef3d
000000d0: 7156 63bb b3c9 22be ec5b 83be fd82 debd
000000e0: e7f9 813d d013 b63e 3bae 37be 839d d5bd
000000f0: c00f 99be 5b12 d63d 2884 e8bd 979f ea3d
00000100: b368 3d3d b32b 263e 6812 a83d ad2f 5abd
00000110: 7d0a 2dbe 7922 aabb 7803 f13d ff2d 2dbe
00000120: f6b0 54be 18c3 9bbe 6e5e a83d 656e f2bd
00000130: 44bf 583c c203 e73d 5897 483d dc90 7f3d
00000140: a4c3 803d 3385 dcbe ef14 2b3d cde3 f33d
00000150: 6b6e bdbd 4265 55be 55b3 a33c 31b2 193d
00000160: 4d20 b3bd 38aa 1a3e 5b22 d8bc 1793 cc3d
00000170: a356 f8be 7f23 a0bd 5d84 693c 0d33 373d
00000180: 2686 043e e1d9 9ebe 913c 5cbd bb0b a9bd
00000190: 858f 043e 0ece 523a 4282 253d 080e 24be
000001a0: 4a00 9abb 864a fb3c c61f 9ebe 94dd 023e
000001b0: 0b52 bf3d 31ca 7b3d 4df5 da3d 5cf5 ad3d
000001c0: ce36 80bd 5085 e9bd 1d6d 2c3e 74e7 93bd
000001d0: 2463 f03d da23 9bbe a084 b63d 06a7 093e
000001e0: 29e7 54bd 8aec b93c 99ce 0fbe 78f5 bc3d
000001f0: 13a1 f9bc 5f68 1fbe 03b6 b6bd a371 463e
00000200: b776 2f3e 5403 00bd 963e 3cbd 8716 8cbc
00000210: 0ca9 31bd 9156 69be 14bf eb3c f29e 923d
00000220: 7b01 02bb 7908 94be 048c 443e 9d8f 21be
00000230: 8adf 88bd d5ad d3bd 072c 87be 4561 653d
00000240: 97e9 19be e6f4 273e 44ce 27be 9d80 8fbc
00000250: 0532 ce3c 0462 8ebd 5316 a6bd dfed 803d
00000260: d80b 86bc 9186 873d dd94 7a3d deae a93e
00000270: e697 223d ace2 d73d a2dc 4abd 6477 a7bb
00000280: a8d4 edbb a047 21be b8e2 b3bd b3f9 55be
00000290: 414d aebe 5fc2 23bb abe9 9cbf 3089 c53c
000002a0: 9824 7dbe 4e46 48bc 7c9b 4dbd 5c66 25be
000002b0: 0795 2bbe 3922 063c e694 3ebe 1cbb 2ebe
000002c0: 939b 5a3e 4f2d a23c b86e f7bc 23d9 163d
000002d0: 0eca 50be f500 84be cbd9 26be 48af 213d
000002e0: ad4c 9dbd 9d11 28bf 1259 24be 9f94 69be
000002f0: 1d6e 18be aa02 5cbd f507 b13c b16f 97bf
00000300: 89f1 edbc 1275 25bd 6396 42bd 630c c83d
00000310: 4e59 93bb 3eca 77bd 85b4 263e c6f4 48be
00000320: d00e d93d e52f 283e 326d 88be 9c51 06be
00000330: d2b9 febc 39b1 303e f601 c4be 44a3 dfbd
00000340: 42bb 2ebe 117b 64bd 0cd9 98bc 25c2 cebe
00000350: 49b7 a33d 9ef6 d4be a102 1cbd 4a7c 0c3c
00000360: c4c4 693d 025a 153e d684 b43d fe88 d13d
00000370: 43c3 24be 1278 32be 0a69 d5bc fb07 ce3b
00000380: 5c2b 76be a92f bd3d de88 0b3e 55dc 4e3e
00000390: 026a abbd 10fb 9fbe 1cce 85be 8db6 fc3c
000003a0: 2213 853d 5bd6 78bd b245 803d 11dd 213d
000003b0: 18a1 233b 6589 e0bd 6426 96bd 6548 cabd
000003c0: a38d f2ba 4eac ca3c d716 563d b031 523c
000003d0: 0474 e8bd 26a6 2bbe 9a12 503e b508 94bf
000003e0: 69e9 bf3b 45bb 2e3e 998e 88be 18bf 58bd
000003f0: f221 403e 4afd 8dbd e30c 89bd ce9c b1bd
-0.02743825 -0.9022055 0.054865334 -0.029313508 -0.1449083 0.14269176 -0.048464075 -0.0090362225
-0.054633025 -0.31299302 -0.2253638 -0.020910138 -0.01643489 0.014836452 0.04089769 -0.10878875
0.041808166 0.07221744 -0.086766474 0.04275729 -0.25786918 0.03660592 -0.17742161 -0.16506986
-0.099555105 -0.029869108 0.004708814 0.11150159 -0.049013834 -0.018149542 -0.020994546 0.027498998
-0.13732003 0.12145822 0.06735687 -0.16939414 -0.58845276 0.008861215 -0.06431348 -0.04955506
0.120376796 0.26510906 0.036243565 0.023129784 0.3020987 0.13056909 -0.10926552 -0.7288902
-0.012113326 0.010127147 -0.102029316 0.11702935 -0.0034688974 -0.15897255 -0.25656068 -0.10864828
0.06346493 0.3556199 -0.17937557 -0.104304336 -0.2989483 0.1045272 -0.11353332 0.114562206
0.046242427 0.16227607 0.08206636 -0.053268123 -0.16898532 -0.0051920977 0.1176824 -0.16912077
-0.2077063 -0.30422282 0.08221136 -0.11837462 0.013229195 0.112800136 0.048972458 0.062394008
0.062873155 -0.43070373 0.04176801 0.11908684 -0.09249576 -0.20839408 0.019982973 0.037523452
-0.08746395 0.15103996 -0.02638357 0.09988993 -0.485036 -0.0781927 0.014252749 0.04472642
0.12941799 -0.31025603 -0.053768698 -0.082541905 0.12945373 0.0008041569 0.040407427 -0.16020977
-0.0046997415 0.030675184 -0.30883616 0.12779838 0.0934182 0.06147212 0.10691319 0.08494064
-0.06260453 -0.114023805 0.16838498 -0.072218806 0.117376596 -0.3030079 0.08912015 0.1344262
-0.051978264 0.022695798 -0.14043655 0.09226507 -0.030472314 -0.15567158 -0.08921435 0.19379286
0.1713513 -0.031253174 -0.045958124 -0.017100586 -0.043374106 -0.22786929 0.028777637 0.07159223
-0.0019837308 -0.28912714 0.19194037 -0.1577744 -0.06683262 -0.1033589 -0.26400778 0.056000967
-0.15030514 0.16402015 -0.16387278 -0.017517382 0.025170336 -0.06952289 -0.08109727 0.0629537
-0.01636307 0.066174634 0.061177123 0.33141226 0.039695643 0.10541281 -0.049526818 -0.005110668
-0.0072580166 -0.15749979 -0.087834775 -0.20896034 -0.34043315 -0.002498768 -1.225881 0.024113268
-0.2472099 -0.012223793 -0.05019711 -0.16152328 -0.16756068 0.00818687 -0.18611488 -0.17063564
0.2134841 0.019796995 -0.030204162 0.03682817 -0.20389578 -0.2578198 -0.16294019 0.0394738
-0.0768064 -0.65651876 -0.16049603 -0.228106 -0.14885755 -0.05371348 0.02161024 -1.183096
-0.029045837 -0.04039485 -0.0475067 0.097679876 -0.00449673 -0.060495608 0.162798 -0.19624624
0.105985284 0.1642452 -0.2664581 -0.13117069 -0.031094465 0.17255105 -0.38282746 -0.10919812
-0.1706362 -0.055781428 -0.018658184 -0.40382496 0.07993943 -0.41594404 -0.038088445 0.008574555
0.057072416 0.14585117 0.08814399 0.10231207 -0.16090111 -0.17428616 -0.026051063 0.0062875724
-0.24039978 0.09237606 0.1362643 0.20201237 -0.08369829 -0.31246233 -0.2613381 0.030848766
0.0649779 -0.0607513 0.06263293 0.039517466 0.0024967846 -0.10963706 -0.07331541 -0.098770894
-0.0018505346 0.024740364 0.052267876 0.012829229 -0.11350253 -0.167626 0.20319596 -1.1565157
0.005856682 0.17063625 -0.26671293 -0.052916616 0.18762949 -0.06933077 -0.06691911 -0.08672486
