runs/Experiment1/BestModels/Experiment1_best_0.75.pt (torch, 586621 bytes, 39 tensors)

fc1.weight f4 [128, 19]
00000000: 226e a3bd 637f c63d 7716 573e 15f2 723e
00000010: 221e 9ebe add1 b33d 5836 f0be 1a90 953f
00000020: 2093 823f 1ce3 853f 6018 fb3d 1cad 0f3e
00000030: cd9a b63d 298a c33c e287 8dbe ea90 513e
00000040: f100 133d 5321 99be 69a0 a4be 5dd7 943e
00000050: a4ba 273e 249a 91be 99ed b93e 4a09 cbbe
00000060: 9df1 c83d 8864 b33d d528 463f cd47 463f
00000070: 5e9b 213f 5d72 953e 3d3a 863e 8971 3c3e
00000080: e466 3b3e bd61 edbd 139b 05be 139c ab3e
00000090: 476e e9be beaa 4ebf e15d b8bd 2f41 95bb
000000a0: 3bcf 6cbd 96b7 b73e 91a6 1b3e 2cff a83d
000000b0: b385 2bbe 4580 57bf 3cae 37bf 0246 48bf
000000c0: 9a88 ae3d c25b a73d 8ac8 eabb 3721 213e
000000d0: 171e 49bc 0ba4 57be 1556 c53d a3c0 b53c
000000e0: b7ec 5ebd 0800 0dbe 937f 20be 319a a0be
000000f0: 1763 b03d 1342 58bd 06e7 acbe def4 7abe
00000100: ae3b 08bf cec9 acbe 7ec8 efbe c84f 49bd
00000110: 4ac4 0fbe df30 33be a15d 9b3e 45a8 83bc
00000120: 6f91 2dbe 16b0 e03e 7e00 bf3e 1e3a bd3e
00000130: 492d 11bd 9a0a 9bbc d79c 303d 346e 3fbc
00000140: e7b7 bebd 22ef d7bd 68df 15bc ded9 e73b
00000150: d0c7 40bd 5837 40bd 2f55 783d 8ff9 cbba
00000160: a9da 60bd fb20 343d f9d9 81bd e225 3f3c
00000170: c1ea 90bb 8fe3 bcbd a371 3c3d 50ae a7be
00000180: 5b47 a9be 1244 53be c33a 81bd 5fef cabd
00000190: 9d6b 22bf 1cd0 fbbd 92c1 c1be 6908 6abe
000001a0: dae5 cdbc a858 e8be 184d 8dbe 8c40 d4be
000001b0: 2404 89be 0b39 16be 480f 16bd 6ded 7c3e
000001c0: a5a8 493e 455b 743e a0b4 c1be b64a 9a3c
000001d0: f898 9a3e c1aa 143e 2590 0b3f e1ca bfbe
000001e0: 5779 3fbe 5348 7a3e 31db 4f3d 5995 163c
000001f0: f9a9 e33d 4c68 cfbc 2135 e8bc 1390 7d3e
00000200: 8351 1bbe fddf 49bd 8335 55be b9ce e23d
00000210: 910f afbd 034a 9fbc 2e57 37bc b705 63bd
00000220: 626c 7a3b 2db3 86bd 07fa 8cbd cdd8 8bbc
00000230: 36f2 3abd 7abd 74bd c078 d93c 2488 90bb
00000240: 0147 453c fe91 8cbc 0e6b 683d 00e5 8fbd
00000250: 5055 f53c 34ba 863d 95d1 50bd 6347 8fbc
00000260: 419a 823e 2cce 01be 3210 7fbd b691 b53c
00000270: c515 d4be 2a86 973e 9d45 c3bd 8046 cbbf
00000280: 963b b7bf 95a3 a5bf 5b8f 1b3e fb3c ce3d
00000290: 48d1 f4bc 5ced a83d e270 843d 58e7 d2bd
000002a0: ee0e 853d 300b 733d 329a 5c3e fabf 053f
000002b0: db61 7b3e 1a1d 2bbe 0ad9 3dbe 343d 05bf
000002c0: bf04 b03e 1b58 01bd 9567 923e b775 063e
000002d0: 999b 6f3e 99ae 793d 6402 1a3e ad2a 1f3e
000002e0: 46be edbb 2f94 ab3c 6c95 3ebe ebcd 193e
000002f0: c9e7 cfbd b781 8ebe 24ee 933d a666 03be
00000300: d0f2 903c b14f 92be 6343 62be c811 ff3d
00000310: 948e 3e3e 898b 01bf 1728 dfbe cf02 9bbe
00000320: 7de6 20be c4dd ecbd 6758 46be d79f 46be
00000330: 14b8 743e 5105 853e c4b7 4bbf 03f2 1d3e
00000340: d264 0abe a6b8 583d 2490 52bd e340 8cbc
00000350: 754d acbd b13e f9bb 8dd5 de3c e326 b3bd
00000360: 9d2e 70bc e406 d8bc d66b 21be ea06 04bd
00000370: b94e 58bd d1d7 febd 726c 03bc a496 453c
00000380: 20aa d23c 5dd4 503d 2877 d73b 7db3 653d
00000390: 1ba3 bcbe 1c78 9fbb 463c 663e d988 a13d
000003a0: 3b2d 263e 5f78 0cbf 5656 a6be 34ce d3be
000003b0: 9b2d bfbe 71cf fbbe 42aa 213e a489 403e
000003c0: 687a 9b3d b7ef eeb9 8c87 54bd 8047 1a3e
000003d0: 1296 693e d259 9e3d ba34 2a3e 02fc dcbd
000003e0: e171 abbb f4ef f13d 5094 7b3c 2ece b03e
000003f0: 3bbb c3bd 4bd5 3dbe 3ac3 50bf edb8 77bf
-0.079799905 0.09692266 0.21004663 0.2372516 -0.30882365 0.08780227 -0.4691646 1.1684601
1.0201149 1.0459933 0.122605085 0.1403088 0.08916245 0.02386959 -0.27642733 0.20465437
0.03588957 -0.29908237 -0.32153633 0.2907056 0.16379791 -0.28437912 0.36314085 -0.39655524
0.09811709 0.08759409 0.77406055 0.7745331 0.63127697 0.29188815 0.26216307 0.18402685
0.18300968 -0.11590908 -0.13047437 0.33517513 -0.45591947 -0.8072928 -0.09002281 -0.0045548896
-0.057814818 0.35882252 0.15200259 0.08251795 -0.16750221 -0.841801 -0.71750236 -0.78231823
0.085221484 0.08171798 -0.0071650194 0.15735327 -0.01227524 -0.21058671 0.096355595 0.022186583
-0.054424968 -0.13769543 -0.15673666 -0.3136764 0.0861265 -0.05279739 -0.33770007 -0.24507472
-0.53216064 -0.33747715 -0.4683265 -0.04914835 -0.14039722 -0.17499112 0.3034487 -0.016071448
-0.1695001 0.43884343 0.37305063 0.36958402 -0.035443578 -0.018925954 0.043118324 -0.011683989
-0.0931242 -0.10543658 -0.0091475025 0.0070755323 -0.047065556 -0.04692778 0.060628112 -0.0015562045
-0.05489603 0.043976765 -0.06340403 0.011666747 -0.004422516 -0.09223091 0.04600681 -0.32750177
-0.33062252 -0.20631436 -0.06310036 -0.09908938 -0.63445455 -0.12295553 -0.37842995 -0.2285477
-0.025134016 -0.4538014 -0.2759788 -0.41455495 -0.26760972 -0.14670198 -0.036635667 0.24699946
0.19693239 0.23862942 -0.37833118 0.018834453 0.3019483 0.14518262 0.5451682 -0.37459472
-0.18698631 0.24441652 0.050746147 0.009190881 0.11116404 -0.025318287 -0.028345646 0.24761991
-0.15167813 -0.049285877 -0.20821194 0.110745855 -0.08547891 -0.019444471 -0.011190219 -0.055425372
0.0038211574 -0.06577144 -0.068836264 -0.017071152 -0.045641147 -0.05975101 0.026546836 -0.0044107605
0.012040854 -0.017159458 0.05674272 -0.070261 0.029947907 0.06578484 -0.050981123 -0.017490095
0.2550831 -0.12676305 -0.062271304 0.022164207 -0.4142286 0.29594547 -0.09534762 -1.588089
-1.4315059 -1.2940546 0.15191405 0.10070225 -0.02988495 0.08248398 0.06466843 -0.102980316
0.06496988 0.05933684 0.21543196 0.5224606 0.24549048 -0.1671032 -0.18539825 -0.52046514
0.3437862 -0.031578165 0.28594652 0.13130842 0.233992 0.060957525 0.15039974 0.15543623
-0.0072553484 0.020944683 -0.18611687 0.15019958 -0.101516314 -0.2783334 0.07223156 -0.12832126
0.017693907 -0.28576425 -0.22096018 0.124545634 0.18609077 -0.5060354 -0.43585274 -0.3027558
-0.15712924 -0.11565736 -0.1936966 -0.19396912 0.23898345 0.2598062 -0.7957728 0.15424351
-0.13515022 0.05291047 -0.051406994 -0.017120784 -0.08413211 -0.0076063504 0.027201438 -0.087476514
-0.014659551 -0.026370473 -0.15763792 -0.032233156 -0.05280945 -0.124435075 -0.008021461 0.012059841
0.025715888 0.050983775 0.006575484 0.056079376 -0.3684319 -0.004866613 0.2248393 0.0788743
0.16228192 -0.5487117 -0.32487744 -0.41368258 -0.37339482 -0.49181703 0.15787604 0.18802506
0.075917065 -0.000455735 -0.05188708 0.15066338 0.22811154 0.077319756 0.16621676 -0.10790254
-0.0052320813 0.118133456 0.015355185 0.34532303 -0.09557196 -0.18538396 -0.8154789 -0.9676655

fc1.bias f4 [128]
00000000: 6628 f83b 89c6 20bd 4d0c 313d 81c5 38be
00000010: 1135 12be 593d 62be 0064 6f3d b09b 01be
00000020: 9755 50bd e4e2 963e efbf 8cbe bee8 a63d
00000030: 3dbd 1bbe 18a6 3f3e ff06 d3be ed6a ddbd
00000040: 7c91 383d 1b0a 77be 2429 ec3d 8e9a d5bd
00000050: 4925 22be e1d6 193e 5322 ecbc 7792 2cbe
00000060: f56e 433e 5f07 08be c9d4 60be 3e7f c2be
00000070: d4ee 103d c0f4 813e 7512 16be 5d76 653e
00000080: 17e9 4b3e ce8e 7b3d cb6b a63e 5047 8e3e
00000090: bf9b 07be 2b74 78be 324d e83c e3f0 f2bd
000000a0: d5fa 643d 84ef b1be 82b3 8ebe f9d4 38be
000000b0: cf4e 08bd 7679 933e 5940 60be 2706 7ebe
000000c0: 8d60 833d 616d 8fbe a4ed 13be d0b1 89bd
000000d0: 2feb 74be 4137 a9be 4299 043e 4ddb 26bb
000000e0: f2f4 14bf 61d9 a73c 6703 cfbd c439 bb3d
000000f0: 03fb 0cbe 6cf2 23be 91e3 06be 2d2c 11be
00000100: 3995 fa3d 153c 2e3e 745d 4bbe c92a 79be
00000110: 5698 003e eb93 3d3d 46d6 983d c11d 95be
00000120: d6a6 c3bd 625f 443e 61c3 9a3e 4c66 12be
00000130: ac01 4f3d 949d 41be e006 6f3e 7f6b bfbe
00000140: 5518 5abe 66b7 84bd f2fd db3d 9548 c93c
00000150: a697 88bd b539 18bd 2aea 9dbc 8e0a 8c3c
00000160: dcc5 6fbe be92 13be 99a3 ea3d 65cf 3e3e
00000170: 239c e03c be8c 683e a801 7c3e 113e 81be
00000180: 2c72 c5bd 9585 50be 4a3f 073e ddcb 653d
00000190: 2e11 e33d 950f aebd 64a2 913d 586a 13bd
000001a0: e5d9 483e 7fc6 db3c 30db 1b3e 21e6 093e
000001b0: 1efd 2b3e 4423 9ebe edbe b6be 549a 7d3e
000001c0: ec1b 33be a869 49be eb31 57be 5e42 d9bc
000001d0: a62f 32bd 6c96 d5bd 9a8a 5abe ab2b aabe
000001e0: c42f 9fbe 7a5f 043d 4fcd 69bc 5141 99be
000001f0: 0b94 893e 38b8 54be c94a 87be c551 c03e
0.0075731752 -0.039251838 0.04322462 -0.18044092 -0.14278056 -0.22093715 0.058444977 -0.12657046
-0.050862875 0.2946998 -0.27490184 0.08149861 -0.15208907 0.18715703 -0.41216275 -0.1081141
0.04506062 -0.24124949 0.115312845 -0.104298696 -0.15834536 0.15023376 -0.02882496 -0.16852747
0.19085295 -0.13284062 -0.21956171 -0.37987703 0.035384014 0.25382042 -0.14655478 0.22408433
0.19913135 0.061415486 0.32504115 0.27788782 -0.13243006 -0.24263065 0.028357122 -0.11862352
0.055903275 -0.34753048 -0.2787133 -0.18049993 -0.033278283 0.28803605 -0.21899547 -0.24807034
0.064149 -0.28013137 -0.14446121 -0.06723368 -0.2391784 -0.33049968 0.12949088 -0.0025460303
-0.58186257 0.020489397 -0.10108071 0.09141877 -0.13767628 -0.16010445 -0.13172747 -0.14177008
0.12235493 0.17015107 -0.19859868 -0.24332727 0.12558112 0.046283644 0.074627444 -0.29124263
-0.09553306 0.1917701 0.30227187 -0.14296836 0.050538704 -0.18907768 0.23342466 -0.373867
-0.21298344 -0.06480293 0.107417956 0.024570743 -0.0666955 -0.03716441 -0.019276697 0.017094877
-0.23415321 -0.14411446 0.11456985 0.18633802 0.027418202 0.22709939 0.24610007 -0.25242665
-0.09640917 -0.20363458 0.13207737 0.056102622 0.11087261 -0.08499066 0.07111052 -0.03599009
0.1961437 0.026828049 0.15220332 0.13466693 0.16795775 -0.3088628 -0.3569254 0.24765903
-0.1749112 -0.19669211 -0.21015136 -0.026520904 -0.043502472 -0.10429081 -0.21341935 -0.3323644
-0.3109113 0.032317616 -0.014270141 -0.29932645 0.2687076 -0.20773399 -0.26424244 0.37562385

fc2.weight f4 [128, 128]
00000000: a563 f23e 356e c43d 81d8 ba3d 7be9 68be
00000010: 8447 033d e0c8 e1bd 5b87 9ebf e340 38bd
00000020: a8fe 8c3e cea7 1b3e 39ff 923e cc8d 323d
00000030: 8567 9cbe 24fa 283d c5be ec3e 508c d5bd
00000040: 6fef 023e b8c4 b6bc 948d 273d 0052 e8ba
00000050: 2854 a1bd 689d c13e 6b2b 81be 74c8 863e
00000060: 00c0 8638 a52c 283e 7049 c1bc 8022 15bf
00000070: 7cd7 17bc e098 fa3d 8da3 3abd ba02 b8be
00000080: f715 183e 2b6d febb 5983 5dbe 321f 5fbe
00000090: e15d 67bb 4b88 0dbe f41a 79bc a4e8 32bf
000000a0: 3044 373e 2503 493e 71b9 16be 35c4 a43d
000000b0: d587 adbc 5883 b13e 15e6 3f3e f9b9 d0be
000000c0: b0c2 41bd 5101 a23c 1ed4 72bc e552 55bd
000000d0: cceb 5abe b680 cbbc 7278 1abe 93a2 0bbd
000000e0: 44ad 3ebd e08f 2bbd 5c53 51bc 5d56 3b3d
000000f0: 1003 dfbd 6af3 64bd 0376 ab3e 32e4 d4bc
00000100: a453 8ebf c11d 19bd 9e63 283c 5bef 02bf
00000110: b7b6 1abe bfe1 843e 7be0 88bd 69b0 2cbe
00000120: 6d85 12be f0eb a13e d3c7 213e 2334 19be
00000130: d414 9bbd 418d 183e b1c9 74be 12ba a9be
00000140: 53d6 0cbe d351 55bf fcd5 853d 3f52 bd3e
00000150: 6915 e5be 5408 f43d f293 b3bd df11 ec3d
00000160: 1c3f 86be f413 c93d ba1e 4b3d 95cf 693e
00000170: 7d12 4cbd 14e6 0fbf c528 0fbf 3551 0ebd
00000180: 8da4 b0be 7610 85be ed8b 9dbd f3c7 5a3d
00000190: 736b 753b 789f b9bd e4fb 03bf 86a9 11be
000001a0: 1493 8e3e a6c8 6f3e 4894 13bc 0aaa 783c
000001b0: f71c 393d 643f 87be 2445 0fbe 32e2 1d3e
000001c0: 00ee 88bd 90a1 a0be 49d4 16bc 245f 8fbe
000001d0: a487 fa3d f2f2 983e ba4f fbbd 5563 673e
000001e0: 6bad 1cbd 5843 10be 69b6 0ebe aada bcbf
000001f0: 8743 08bf fce7 87be 6789 e33d f66a 553e
00000200: d618 dabe a8d8 173e e4a7 35be 2d08 88bf
00000210: 05fe 9e3d 1a71 6e3d 0a5e 263e 31f8 963d
00000220: cf80 03be ea32 debd 8b5a 263e 16df b4bd
00000230: 7ed7 86bc 84cd 6f3e 1c47 27bf 287f 01bd
00000240: e587 353e 1a0f 083d 0e89 bbbe b9ab a43d
00000250: 5768 8fbb 17bc 83be 7f20 da3e 26d2 e8bd
00000260: b7ac 85bd 5474 35bb d02b 17bc 3cf2 53be
00000270: e84b c3bc 78f6 423d 1644 c0bb e512 9e3e
00000280: a436 cc3c d8d2 bf3e 1132 023d 4d0a 8ebd
00000290: a6c8 743e 6f3c e8be 1b6d da3e fbea 023e
000002a0: f542 1c3e 988d 723d 86dc f7bd 5722 35bd
000002b0: 2974 a3bd 9605 22be 06e6 34bf d104 c0bd
000002c0: 4e1a 393e a222 20bf fa00 eebe 344f e23c
000002d0: f2e3 1dbe 2886 16bf d58b 34bd 96c7 db3b
000002e0: 41d4 1cbf 4cc6 82bd 8604 3cbd 4d64 f93b
000002f0: 8bb3 a4bc 5e4e 54bc fcb1 0d3d 916f bcbd
00000300: 91fb febe 2d9d 713e 07b1 07be 1060 02be
00000310: de6f 4d3c 5c5f 2a3c a496 5abe d617 4abe
00000320: b790 1f3d 0578 b4bd 770b da3d 1525 b4be
00000330: b45b 28be 69cd 103e 9d8d 903e 1627 25bf
00000340: 627d b3bc eaff aabe e2d3 913d 1c95 553e
00000350: e549 cc3d 0c44 393c b278 66bd eeb6 b1bc
00000360: 17d5 3abf 1226 3c3d f207 bc3d e8bf 663e
00000370: 42a5 ab3a 1c77 303e f1df a0be c274 cd3b
00000380: 8065 cf3d 6bdf 62bd 55bd ab3e 5a17 5a3c
00000390: 9f61 c03e 9578 52bb 7091 583e 83f5 e13d
000003a0: 1207 883d 5c28 d6bc 2648 06bd 5cbb 20be
000003b0: 6808 873d e818 a3be 2273 93bd e94e bc3d
000003c0: 006b 463e de75 48bf bb0d d43d 00db 863e
000003d0: 1f47 403c b0c9 50bc 155f 153c ad69 433c
000003e0: b8ce c2be b7a6 3e3e f275 d1be d2c7 88be
000003f0: ad76 70be 0161 053d 4645 31bf 8074 853e
0.47341648 0.09591333 0.09123326 -0.22745316 0.032050624 -0.11024642 -1.2385057 -0.044983756
0.27538037 0.15200731 0.28710344 0.04359226 -0.3054773 0.041254178 0.46239296 -0.10427153
0.12786649 -0.0223106 0.040906504 -0.0017724633 -0.0787738 0.37815404 -0.25228438 0.2632481
6.425381e-05 0.1642328 -0.023594588 -0.5825577 -0.009267684 0.1223619 -0.04556613 -0.3593958
0.14852129 -0.0077644787 -0.21632136 -0.21789244 -0.003530376 -0.13821523 -0.01520418 -0.6988623
0.17897105 0.19630106 -0.14719178 0.08045236 -0.021182934 0.3467052 0.18740113 -0.40766886
-0.04730481 0.019776018 -0.0148210805 -0.052081008 -0.21379012 -0.024841648 -0.15085009 -0.03409059
-0.046551958 -0.041885257 -0.012776222 0.04573666 -0.10889256 -0.0558962 0.33488473 -0.025987718
-1.1119275 -0.03738189 0.010277657 -0.5114648 -0.15108763 0.2595348 -0.06683441 -0.1686417
-0.1430871 0.3162532 0.15798883 -0.14961295 -0.07572332 0.14897634 -0.23905064 -0.33149773
-0.13753633 -0.8332798 0.06534955 0.3697681 -0.44742897 0.11915651 -0.08768453 0.11526846
-0.26220024 0.09818259 0.04958985 0.22833093 -0.04982232 -0.56210446 -0.55921584 -0.034745414
-0.34500542 -0.2598912 -0.07692704 0.053413343 0.0037448078 -0.090636194 -0.5155623 -0.14224824
0.27846587 0.23416385 -0.009007521 0.015177259 0.04519364 -0.2641555 -0.13991219 0.15418318
-0.0668602 -0.31373262 -0.009205886 -0.28002274 0.12232903 0.29872853 -0.12271066 0.22596486
-0.03825132 -0.1408819 -0.13936771 -1.4754231 -0.5322804 -0.26544178 0.11110192 0.20841584
-0.42597073 0.14828742 -0.17739826 -1.0627495 0.07763294 0.05821333 0.1624681 0.073715575
-0.12842105 -0.10849555 0.16245477 -0.08831613 -0.016460177 0.23418242 -0.6534288 -0.031615406
0.17727621 0.033217527 -0.36628002 0.08040566 -0.004376452 -0.2572944 0.42602918 -0.11368208
-0.06527083 -0.0027687745 -0.009226754 -0.20697874 -0.023839906 0.047598332 -0.0058674915 0.3087379
0.024928398 0.3746555 0.03178603 -0.069355585 0.23904666 -0.45358607 0.42661366 0.1278495
0.15259917 0.059217066 -0.121026084 -0.044222202 -0.0798114 -0.15822443 -0.7066349 -0.09375919
0.1807644 -0.62552845 -0.4648512 0.027625658 -0.15418985 -0.58798456 -0.044078667 0.006707142
-0.61261374 -0.063854784 -0.04590275 0.0076108337 -0.020105144 -0.012958137 0.034593567 -0.09200967
-0.49801305 0.23595114 -0.13251124 -0.12731957 0.012538878 0.010398712 -0.21346527 -0.19735655
0.03895637 -0.088119544 0.10646718 -0.3518454 -0.16441232 0.14140858 0.28233042 -0.64512765
-0.021910373 -0.33398372 0.071204916 0.20857662 0.09975032 0.011307728 -0.056267448 -0.021693673
-0.729814 0.045934744 0.09181203 0.22534144 0.0013095515 0.17232937 -0.31420854 0.006270022
0.101267815 -0.05538885 0.33542886 0.0133112315 0.3757448 -0.003211533 0.2114923 0.11033156
0.066419736 -0.026142292 -0.03278365 -0.15696472 0.065934 -0.3185494 -0.07199694 0.091947384
0.19376755 -0.7830485 0.103541814 0.2633896 0.011735707 -0.012743399 0.009116908 0.011927051
-0.3804834 0.18618284 -0.40910298 -0.2671495 -0.23482771 0.032563213 -0.6924633 0.26065445

fc2.bias f4 [128]
00000000: 96dc 443e 623f 0b3e ea3a acbd 58da 83bd
00000010: d12d b9bd 98af c93e 36fc 823e e0ed eebd
00000020: dae6 113d 7b17 503d 1753 95bc 1a1f 56be
00000030: 90fd 453e 424a a6bc f4c0 fb3d f071 0f3c
00000040: 0e75 0abf 12ee 82be db4b c53c bf88 bbbd
00000050: 4875 9b3c 9bb3 0f3e 0df6 b33d ebc7 05bd
00000060: 730d 1abe 2797 28be 0da7 2f3e fb67 c8bc
00000070: d826 77bc 029d 71bd 21c5 e13c a1ff 44bc
00000080: 929c 50bd b1b0 68bc 3c01 783c 50e0 c7bd
00000090: 7006 943d de31 593e bfa2 cabd 8207 1a3d
000000a0: 33c7 e33d 118f d33c b675 21be 89fa e8bd
000000b0: f149 42bd 32c2 a5bc 1d27 bfbd 9c63 993d
000000c0: 62d3 853d 68c7 df3c d9dc cc3d 0ee0 363e
000000d0: 94be 4fbe a453 e0bd f7ad 743e 0270 53be
000000e0: 139e 6fbe 7b0c 3dbc 1384 ffba 8902 98bd
000000f0: db04 36be e6a9 6a3e 1aa0 8e3d 3796 95bc
00000100: 21d9 72be ca19 1e3e 2b82 7d3e bf64 9c3d
00000110: 1121 8abe 5e12 eb3d 9ddb acbd 9033 10be
00000120: ca64 ecbb 7558 96be 6fc4 4ebe 099d 1dbe
00000130: 244b 063b 9e12 cdbb 754b c0bc 6c5c 923c
00000140: 72c2 dcbe 781f 2fbe 051f 443d a20e 93bd
00000150: f017 88bb 3f4f 2a3c 26c2 1ebe cf4d 05be
00000160: 3818 d4bc 94f4 6c3d 9f6c 5f3d fee7 c23b
00000170: 2296 54bd 92b3 adbb e5ca 8abd d89d 553d
00000180: 0cb5 edbd 8d61 01bc b8ae 363d 36fe bcbc
00000190: 2553 ccbd 809f e6bc 41f5 853d c8e4 223e
000001a0: 80e7 913d 1f22 7a3d 04c2 cc3d 6d45 8e3d
000001b0: f0ff 02be ef1d 00bc 8197 cdbd 0b3d a4bd
000001c0: 5fb5 9abe f102 9cbd 5da2 dfbd 2a2b 5abd
000001d0: f56d 17be 66aa d1bd 098b ab3b d1b3 9c3d
000001e0: effb 80be 417f 923d ad47 783e e4a4 42bd
000001f0: 3af1 70bd f283 bdbd 85fc 73bd 6707 3b3b
0.19224772 0.13598397 -0.084096745 -0.0643813 -0.09041942 0.3939178 0.25583047 -0.11666465
0.035620548 0.050803643 -0.018228097 -0.20910302 0.19335008 -0.02029908 0.12292662 0.008755192
-0.5408486 -0.25572258 0.024084022 -0.091569416 0.018976822 0.14033358 0.08787165 -0.03266136
-0.15044193 -0.1646391 0.17153569 -0.024463644 -0.015084945 -0.058987625 0.027559819 -0.012023837
-0.050930567 -0.014202283 0.015137013 -0.09759581 0.0722779 0.21210429 -0.098943226 0.037604816
0.111219786 0.025825055 -0.1576756 -0.11375911 -0.047433797 -0.020234201 -0.09333632 0.07489702
0.06534459 0.027316764 0.10003061 0.17858908 -0.20287544 -0.10953453 0.23894487 -0.20648196
-0.23400144 -0.01153862 -0.0019494317 -0.074223585 -0.1777529 0.22916374 0.06964131 -0.018260105
-0.2371564 0.15439525 0.24756686 0.07636403 -0.26978353 0.11478113 -0.084403254 -0.1408217
-0.0072141634 -0.29364362 -0.20192121 -0.15391935 0.0020491565 -0.006258323 -0.02347348 0.017866336
-0.431171 -0.17101848 0.047881145 -0.07180525 -0.004153244 0.01039487 -0.15503749 -0.13017963
-0.025890455 0.057850435 0.05454695 0.005948066 -0.05190099 -0.0053009475 -0.0677698 0.052152485
-0.116067976 -0.007896793 0.04460022 -0.023070436 -0.09976796 -0.028152227 0.06540919 0.15907586
0.07124233 0.061067697 0.09997943 0.06946836 -0.12792945 -0.007819637 -0.10038663 -0.080194555
-0.302165 -0.076177485 -0.1091964 -0.05326382 -0.14788039 -0.10237579 0.00523508 0.07651485
-0.2519221 0.07153178 0.24246092 -0.047520533 -0.0588238 -0.09253682 -0.059566993 0.0028538348

fc3.weight f4 [4, 128]
00000000: 2531 963c 246d 093f 4307 b93e e64e 59be
00000010: 9859 083f c52e bc3e f654 8abe 263a 62be
00000020: 010d 343f 7f17 cbbe 7184 c1bd 5595 0abd
00000030: 426f 573e a563 893d a68a 0bbf 7ceb 7f3f
00000040: 75ed cabe 2f43 053f 60b0 573d 190b 90bd
00000050: 753c a5be a6c9 12bf 1563 823d b85f afbc
00000060: 91bf 173f 6cc4 17bd ea83 ed3d a4a2 173f
00000070: 3ba1 18bf 0c83 a33e 64fa 903e 4b33 803f
00000080: c2ad 9e3e b739 6ebe 123b 883e 49cb 933f
00000090: 9538 97be a925 723d ee83 e1ba f05a b3be
000000a0: 85d8 f83e cac3 29be 950c 933e 9ee2 3a3f
000000b0: 27b9 373f 768b 063e 0d84 96bd 1d7f 9abe
000000c0: 8f53 9bbe af6a 65bc 8999 a2be e0e5 9a3e
000000d0: 4441 073f f313 203e e1fe 86be 28be 4ebe
000000e0: 4723 9bbe cfa3 723e d458 4bbe a899 44be
000000f0: a48a 90be 8a4a b03e cbad 06bf 4198 78be
00000100: fd0f 3e3f 9daf 743e 386a a5bd a3f4 273d
00000110: 82b9 d0be 3118 b83e bc31 493d 1039 e7be
00000120: ac44 b73e c364 94bf 353e 1a3f ee9a 143f
00000130: 9f62 a13b a694 1bbf 9175 843e 3f69 153f
00000140: f277 6c3f c45d 553f 95eb 7d3e 4af8 3c3c
00000150: ffc9 f83d 6ffb 6ebe 4ce1 83bf 93fe 0bbf
00000160: 6d02 02bf 7d14 6f3d a363 18bd 3744 a13d
00000170: 9e91 863e 1dbf 9c3b a009 bf3e 338e 023e
00000180: 6e13 933f 5b26 88be e55b 523e 4616 abbe
00000190: 6d6c 7cbd ad27 4ebe 4310 1b3f 82c9 02be
000001a0: ab9c 5ebf ed4d 583f 26fe b6be 423f 8fbe
000001b0: cc1f 9ebd d79d 053f fd0f 563e 16ec f6be
000001c0: 7eb8 f4be 6f5d 0bbf 24e4 3cbc 649a f03b
000001d0: cc5b aabe bbf0 babe add8 3d3e af6b 14be
000001e0: b54d 73be fe15 313f 9a6f 91be f57f 0c3f
000001f0: f817 acbd 016b 023f 47ea 13be 2614 423c
00000200: b20f 9e3d f744 213e 1798 293f 3525 17be
00000210: 4238 c4be 287f b23d 795c 793d ebf3 e0bd
00000220: 7827 b53e f3e2 7dbe 4464 0b3f 846b 123e
00000230: 0e90 d03c b468 ca3e 272e 07be b635 203f
00000240: 9c34 b1be a954 f83e d647 d3be 8762 803e
00000250: bf5e 313e 1c2f 25bf e9cd b8bd 9953 b1be
00000260: 23e5 0cbf 9fbe 24bf a2e7 763e ee99 ccbd
00000270: 5fd3 8a3d 3a34 863e 5865 8bbe 50ea b53e
00000280: ba05 243e c595 f2bc 1b36 58be 715a e4be
00000290: e2b4 3c3e 065a f4be db30 2bbc 2fb3 08bf
000002a0: 06d2 5e3d efda 36bd a09b 12bf 3d89 c23e
000002b0: 088b 29bd 8a9b 9e3e 1a74 2cbd e491 343e
000002c0: 9c73 41bf 0f59 88bd 64c6 d23e 7108 e53e
000002d0: ea1d 2a3f 059a b7bf d9eb 62bd aa3b 143f
000002e0: 143a 853c e189 ebbd 67e1 f9be 176e 3abe
000002f0: 7669 0c3d ef8d 0c3f ef03 abbe 3c33 953c
00000300: 179a b8be bc28 3abe 4219 b23e c9b0 873f
00000310: 8dac 7bbe f02a 173d 087d 92be 5226 27bf
00000320: 41f3 b33d fc6d d23e e99e fabc 8c97 093f
00000330: 343f d3ba 1490 8f3d a5c1 9c3e 0889 db3b
00000340: 1d59 2b3f fe48 1e3f 8288 df3e fd52 06ba
00000350: 7a28 a0be a5d8 7fbe dbc7 023f cdd5 e4be
00000360: cfe8 35be 443c febe a501 f23d f067 9f3e
00000370: 77ae 8d3d f974 d5bb 160f 033e 7f0c 3f3d
00000380: aedd fabc 38cb 1cbe 1771 0c3f 35fc 73bf
00000390: 3038 f2bd af8b 8b3e 9ba1 d83e 92aa 0a3f
000003a0: 138e fdbd ac39 25be 23ff 1ebe 199e c03e
000003b0: d8be 08bf 3269 133e 72dc 12bf 3381 89be
000003c0: 4cee 54be c117 ba3d 3144 d5be d481 9f39
000003d0: f6cd 8b3d 2fc3 003e 7161 6e3e 9a33 adbe
000003e0: ba05 c73e 535a ea3d 9ed8 34bf 2c98 17bf
000003f0: a16d 113f e105 d6be 5f65 243e e692 f7bb
0.01833398 0.5368216 0.36138353 -0.21221504 0.5326171 0.36754432 -0.27017945 -0.22092494
0.7033234 -0.39666364 -0.09449089 -0.03383382 0.21038535 0.06708459 -0.54508436 0.99968696
-0.3963429 0.5205564 0.05265844 -0.07033367 -0.32272688 -0.5733894 0.06366555 -0.021407947
0.5927668 -0.037052557 0.11597426 0.59232545 -0.5962102 0.31935918 0.28316033 1.0015653
0.30991942 -0.23264204 0.26607567 1.1546413 -0.29535356 0.059117947 -0.0017205456 -0.35030317
0.4860269 -0.16578594 0.28720537 0.7300204 0.71766895 0.13139138 -0.073494054 -0.30175105
-0.30337188 -0.014002486 -0.31757763 0.30253506 0.5283396 0.1563261 -0.26366332 -0.20189726
-0.30300352 0.236953 -0.19858104 -0.1919924 -0.28230774 0.3443187 -0.5260894 -0.2427683
0.74243146 0.23895116 -0.080769 0.041004788 -0.4076653 0.35955957 0.049119696 -0.45160723
0.3579458 -1.159325 0.6025117 0.58048904 0.0049250866 -0.60773695 0.25870946 0.5836372
0.9237052 0.833462 0.24796899 0.011533806 0.12147903 -0.23338102 -1.030313 -0.54685324
-0.5078495 0.05836915 -0.037204396 0.07874339 0.26282972 0.0047835247 0.3731203 0.12749557
1.1490304 -0.26591763 0.20542867 -0.3341543 -0.06162684 -0.20132323 0.6057169 -0.12772182
-0.86957806 0.84493905 -0.35740775 -0.2797795 -0.077209085 0.5219397 0.20904537 -0.48226994
-0.47797006 -0.54439443 -0.011529002 0.0073426235 -0.3327316 -0.36511788 0.18539687 -0.14494203
-0.23760112 0.6917418 -0.28405458 0.54882747 -0.08403009 0.50944525 -0.14444838 0.011845624
0.077178374 0.15748964 0.66247696 -0.14760287 -0.3832417 0.087156594 0.060879204 -0.10984024
0.35381675 -0.24793606 0.5444987 0.14298826 0.025459316 0.39533007 -0.132012 0.62581956
-0.3461045 0.4850209 -0.41265744 0.2507517 0.17321299 -0.6452501 -0.09023649 -0.34634092
-0.55037135 -0.64353365 0.24111798 -0.09990297 0.06778597 0.2621172 -0.27225757 0.3553033
0.1601781 -0.029612431 -0.2111439 -0.4460025 0.18428376 -0.47724932 -0.01044866 -0.5339841
0.054399513 -0.044642385 -0.57268715 0.3799533 -0.041392356 0.30978042 -0.04210291 0.17633778
-0.7556703 -0.066576116 0.41166985 0.44733003 0.66451895 -1.4343878 -0.055400703 0.5790354
0.016263045 -0.11500908 -0.4880478 -0.18206058 0.034280263 0.54904073 -0.3340144 0.018212907
-0.3605506 -0.18179601 0.34784895 1.0600826 -0.24577542 0.036906183 -0.28611016 -0.6529285
0.087866314 0.41099536 -0.030593352 0.5374687 -0.0016116858 0.070099026 0.3061649 0.006699685
0.6693285 0.6183013 0.43658835 -0.00051240606 -0.3128088 -0.24984987 0.51086205 -0.44694367
-0.1776459 -0.49655354 0.1181672 0.31133986 0.06918042 -0.0065141884 0.12798724 0.046642777
-0.030623283 -0.15311897 0.5486006 -0.9530671 -0.11827123 0.27255008 0.42310795 0.5416652
-0.12380614 -0.16135281 -0.15527014 0.3762062 -0.53416204 0.14395598 -0.5736762 -0.26856384
-0.20794028 0.09086562 -0.41653588 0.00030423573 0.06826393 0.12574457 0.23279358 -0.3382843
0.38871557 0.11443009 -0.7064303 -0.5921657 0.56807905 -0.4180136 0.16054295 -0.0075553535

fc3.bias f4 [4]
00000000: d0b3 b73d 7a95 243e 7e99 0c3c 7a8d 883c
0.089698434 0.16072646 0.008581517 0.016669024

head.weight f4 [128, 23]
00000000: 9868 0cbf ef48 adbf 24d0 53bf a51e c93f
00000010: 6b31 53bd 9419 b5bd 0aaf f53c 0924 1d3f
00000020: 97eb d23e c1f6 ee3e 0042 58bc a412 193e
00000030: b1da b3bd 9f9f 803c 8691 2cbe 3fec a03d
00000040: 003c d3bd 5934 143d 6089 c8bd 0fe6 24bf
00000050: 9f48 18bf ff5d 70be 337c 0440 f7c2 37c0
00000060: 1e6e 4cbf f69b 44c0 7678 a040 0aa3 1b3d
00000070: caab fabd 6bc2 95be 0733 a5be 83e9 983d
00000080: 5317 25bd 3102 efba 76e4 a6bd 348c 913d
00000090: 7e00 b53d 7941 34be 9525 d1bb f06e 8abd
000000a0: 5e6f a43d dd24 babd 8937 0e3e 0342 5a3e
000000b0: b95c f1be 3dad b63e 1177 643e 6617 863e
000000c0: 18f5 93be cb5d 9a3e 0078 5e3e 4d56 94be
000000d0: 403d 41be 698f ee3e 31e9 b8bd 3825 17bf
000000e0: a85d 44bd afe0 543e 58db 133e be73 b9bc
000000f0: c3e3 353d 47ed 03bd 52c1 17bd cbd0 7dbc
00000100: 04c6 c4bd d92d f33b c300 a03b 7bbe e6bc
00000110: 2f34 b73c 689e d13d 7551 943f b9b4 7bbf
00000120: 9284 1cbf f3f2 433d 21a3 29bc 905f 073e
00000130: be18 0d3f 3854 233f 857f c63e ac7d 85bc
00000140: 7b12 94be b8dd 92be 4811 32be 809c 9fbc
00000150: 186d 793e 5807 1cbc 671a 17bd 7bdb a2be
00000160: 9b80 82be 7d99 2c3e e013 bdbe 9ed2 293f
00000170: 3995 de3b f67b 2cbe 1c9b 61bf 0bec 973c
00000180: f97e e3bd 9638 043e 03bd d83d 37af 14bf
00000190: 8ae5 7fbe 5cf0 893d 3cc5 ccbd 1fb8 29be
000001a0: 9db5 d0bd 3601 cabd f9f1 94bc 09a9 01bc
000001b0: 5ccc 63bd d922 75be 3c49 a0bc 819c a4be
000001c0: 1ac0 2abf 0fb5 48bf c9f9 0140 12ce 583e
000001d0: e5a0 ddbe 96e3 af3e 320c 05bf 80ff 6b3e
000001e0: dfcb 80bd 0abb 4ebe 9104 0cbf ee0d 43bf
000001f0: d34c 91bf 37b2 0abe d3d1 6c3d d0bb 213b
00000200: e142 a53d 5b93 33bd 8be1 603d 7117 cc3c
00000210: 14ad 423e 9df2 11be 0c99 a8bc c1e8 15bc
00000220: f572 e5bb 65da 533d 2b96 543f e954 013f
00000230: d25e df3e 1123 b3bf 8101 283e 7476 703d
00000240: 4587 1ebe 2bcb b5bd e570 afbe a8b2 46bf
00000250: 9934 023d 5381 d53d b843 42be 8a0b 583d
00000260: bc2e d7bd 84ec e13d 1aa7 63be d87b 0ebf
00000270: 756f 2a3d 4f35 3f3e 4db5 183e d5bd ae3e
00000280: 02bd 5fbf 96cd 5ebf 7d4f bbbf ddea 64bf
00000290: 9c75 0740 d409 10be 1ce8 2ebc 33e5 53be
000002a0: afa8 b23d 0d55 2b3d 5137 073e e9dc 723a
000002b0: 43f6 84be 3428 c2bc fb1e 713c 02d5 0c3d
000002c0: e4e8 5bbd 07e5 ca3e b89a a83e 8604 a4be
000002d0: df91 8dbe ea4e b8be 68f6 fbbe ace6 ae3f
000002e0: efa1 4ebd fa26 b3be 412b 81be c270 a63e
000002f0: 265b 6ebe 0736 13be 1fd4 203e 6e73 c53d
00000300: 46d3 f2bd 79c7 56be b5dd 02bd b204 9e3c
00000310: 4f91 cbbd cccf 4cbc 9cdb 63bd b51f dbb9
00000320: 9290 00be 851f 243e dd5e 39be 96ee 55be
00000330: 0254 eabd 192e 1bbd df3b 05bd ee9e 44bf
00000340: 2129 f03e 91e4 d43f 8641 2dc0 f043 86be
00000350: a390 173e d6ff a83d 60b0 ca3e cbfb 0e3f
00000360: 5cca 653f 2f46 0abc 3fe8 033d a50e f53d
00000370: 1c35 99bc a37f 10be a0fd 693d 4525 d1bd
00000380: 183d 0dbe 72b0 01be 7edd 4bbd c374 a63d
00000390: da41 f63c c9cf e0bd e86b 63bf 45ec 463f
000003a0: 51b5 5c3d 3b37 853e 9b3d 583e a697 563d
000003b0: ae1e 98bd 8571 c93e 4afb 4f3e 7453 883e
000003c0: 127b edbc b862 b23b 03ac 93be a4e5 203d
000003d0: 7ea9 92bd 5af0 663d 027c e13d 90ba 94bd
000003e0: 899b 1a38 3853 06bf 45b9 593e a7a4 d63d
000003f0: adf6 f2be 551d 4c3e 7375 c0bc 2f30 bfbe
-0.548471 -1.3537883 -0.8273947 1.5712477 -0.0515608 -0.08842769 0.029990692 0.6138311
0.41195366 0.46672633 -0.013199329 0.14948517 -0.087819465 0.015701113 -0.16852388 0.0785756
-0.103141785 0.036182735 -0.09791827 -0.6441354 -0.5948581 -0.23473357 2.0700805 -2.8712747
-0.79855525 -3.072019 5.0147047 0.037997283 -0.122397974 -0.29249892 -0.32265493 0.07466414
-0.040305447 -0.0018234906 -0.08149044 0.0710682 0.088379845 -0.17603101 -0.006382654 -0.06759441
0.08029054 -0.09089062 0.13888372 0.21314244 -0.47141054 0.35679045 0.22311045 0.26189727
-0.2889793 0.30149683 0.21725464 -0.28972092 -0.18871021 0.46593788 -0.09028853 -0.59041166
-0.04794088 0.20788835 0.14439142 -0.022638198 0.044406664 -0.032208707 -0.0370496 -0.015491675
-0.09608081 0.007421237 0.0048829033 -0.028167 0.02236375 0.10235292 1.1587359 -0.98322636
-0.61139786 0.047839116 -0.010353834 0.13220048 0.5511588 0.6380038 0.38769165 -0.016295277
-0.2892035 -0.28684783 -0.17389405 -0.019483805 0.24358022 -0.009523235 -0.036890414 -0.31808075
-0.25488743 0.16855426 -0.36929226 0.66337 0.006792691 -0.16844162 -0.88127303 0.018545171
-0.111082025 0.12912211 0.10582926 -0.58079857 -0.24989906 0.06735298 -0.09998557 -0.16574143
-0.1019089 -0.09863512 -0.018181788 -0.007913836 -0.055614814 -0.23939075 -0.01956617 -0.32150653
-0.66699374 -0.78401273 2.0308707 0.2117236 -0.43286815 0.34353322 -0.51971734 0.23046684
-0.06288885 -0.20188537 -0.5469447 -0.7619313 -1.135157 -0.13544546 0.05781729 0.0024678595
0.08069397 -0.0438417 0.054902595 0.024913521 0.19011337 -0.14252706 -0.020580791 -0.009149731
-0.0070022293 0.05172195 0.8304164 0.5052019 0.4362703 -1.3995076 0.16406824 0.058706716
-0.15481289 -0.08876642 -0.3426582 -0.7761636 0.031788442 0.10425057 -0.18971145 0.05274538
-0.10506961 0.1103144 -0.22231713 -0.5565772 0.0416102 0.1867268 0.14912911 0.34129205
-0.8739778 -0.8703245 -1.4633633 -0.8942087 2.1165533 -0.14066249 -0.010675456 -0.20692901
0.0872358 0.041829158 0.13204695 0.00092644856 -0.25969133 -0.023700811 0.014716859 0.034382828
-0.0536889 0.3962786 0.3293054 -0.320347 -0.27650353 -0.35997707 -0.4921143 1.3664145
-0.0504474 -0.34990674 -0.25228313 0.32507902 -0.23276958 -0.14376079 0.15705918 0.09641157
-0.118567035 -0.2097453 -0.031949718 0.019289348 -0.09939825 -0.0125007145 -0.055629358 -0.0004179456
-0.12555149 0.16027649 -0.18102594 -0.20891795 -0.114418045 -0.03788576 -0.0325278 -0.7680501
0.4690638 1.6632253 -2.7071242 -0.26223707 0.14801268 0.08251922 0.39587688 0.55852956
0.897619 -0.008439585 0.03220391 0.11965684 -0.018702082 -0.1411119 0.05712664 -0.10212187
-0.13792837 -0.12664965 -0.04977178 0.08127739 0.030060697 -0.10977132 -0.88836527 0.7770427
0.053883854 0.260187 0.2111725 0.052390717 -0.07427727 0.3934442 0.20310703 0.2662617
-0.028989349 0.005443897 -0.28842172 0.039281502 -0.07161234 0.05638156 0.11009981 -0.072621465
3.6861315e-05 -0.5247073 0.21262081 0.10480624 -0.47453824 0.19933064 -0.023493504 -0.3734145

head.bias f4 [128]
00000000: 22a6 2b3e 5352 663e 21f6 2b3e 8aa9 93be
00000010: eb4f 7abe 707d abbe 12f3 333e 437d acbc
00000020: ef75 cdbc 8eab 9bbe 8873 88be e95a 113e
00000030: f7b2 273d 8628 1abe bb48 d6be 3551 113e
00000040: 811e 95be 7374 9fbd 97e9 6e3e 8097 4abd
00000050: e05b ecbd 7778 1c3d 0e9e 003e b718 44be
00000060: d998 243e 29f6 e0bd e0cc 8fbd cf87 4c3d
00000070: c4c2 363e 1e44 4abe 3136 973d bf14 793e
00000080: 2202 c8bd 61d3 493e 001c efbd 252c 59bc
00000090: 6f1d 3dbe 9f0a cebd d08a 4abe c17b 283e
000000a0: d120 acbe abbb bfbc e304 283e 9c52 0abe
000000b0: b714 aa3d 687e d13d 3024 6fbe 4172 2dbe
000000c0: 536b d9bd 6982 3c3e c16d 8b3d 1d58 363e
000000d0: 045e eb3c 7f2a 46be 338f b4be 7cb1 94bd
000000e0: 6e70 48bd 3250 743d b2aa 293e 7f48 ecbd
000000f0: aea0 303e 6374 323e 58aa 83be ff7e 4abe
00000100: 9d12 233e 7f8a 853d b857 10be 0033 13be
00000110: 5a36 7b3d c14d f63d f6c9 d63d e374 bb3d
00000120: caaa ed3d 8393 cebd 9959 ff3d e58a 573d
00000130: e0e7 943c 734b 07be 293f 11bc 4538 46bc
00000140: ab76 8d3d 48b6 673b b76f 843d 95c7 c4bd
00000150: 0fe8 a0bd 6b5b 433d 5174 1e3e bf7c 4ab9
00000160: df6c 813e 6ee3 38be 20cb 423e 54b8 58be
00000170: 261c c5be 0c8d 81be c7d5 3dbe 9675 b23e
00000180: 92c8 443e 9262 b8bd bc67 44be f4e7 e7bd
00000190: 0fcb ac3b cc26 75be 03c3 f9bd bd72 80be
000001a0: 97e3 443e 4a0a 453e eb60 603d d547 babd
000001b0: ec4f 3dbb a145 203e cdc6 90be 5a48 bd3e
000001c0: d48e e9bd ac47 c13a af4c e93d a85e 073e
000001d0: c9fa a0be bab5 6abe 8224 67bd b4c5 d03d
000001e0: 00b4 5b3a be1d cebd fc13 c4be 43cf d23d
000001f0: 8898 723d 3511 7a3e 622e b2bd 6657 a3bc
0.16762593 0.22492342 0.1679311 -0.28840286 -0.24444549 -0.3349414 0.17573193 -0.021055823
-0.02508065 -0.30404323 -0.26650643 0.14194836 0.04094216 -0.15054521 -0.41852364 0.14191134
-0.29124835 -0.07785883 0.23331295 -0.049460888 -0.11540961 0.03820082 0.12560293 -0.19150053
0.16073932 -0.10984451 -0.07021499 0.049934205 0.17847735 -0.19752547 0.07383383 0.2432432
-0.09766032 0.19709541 -0.116752625 -0.013255154 -0.1846826 -0.100606196 -0.19779515 0.16453458
-0.33618787 -0.023404917 0.16408114 -0.13508075 0.08304732 0.10229188 -0.23353648 -0.16938116
-0.106161736 0.18409123 0.06808043 0.1780705 0.028731354 -0.19352148 -0.35265502 -0.07260415
-0.048935346 0.059646793 0.16569021 -0.11537265 0.17248794 0.1742721 -0.257159 -0.19775008
0.15925069 0.06520557 -0.14095962 -0.14374924 0.06133113 0.12026549 0.1048774 0.09153154
0.11604841 -0.100867294 0.12468261 0.052622695 0.018176973 -0.13212375 -0.008865156 -0.012098377
0.069074 0.003535645 0.064666204 -0.0960838 -0.07856762 0.047694605 0.15474059 -0.00019310693
0.25278375 -0.18055508 0.19022799 -0.21164066 -0.38498038 -0.25302923 -0.18538581 0.34855336
0.19217137 -0.09003176 -0.19180197 -0.113235384 0.00527323 -0.23940581 -0.12195399 -0.25087538
0.19227444 0.19242206 0.05477993 -0.09095732 -0.0028886748 0.15651561 -0.28276673 0.36969262
-0.114041954 0.0014746091 0.11391579 0.13219702 -0.31441334 -0.22920886 -0.0564313 0.10193959
0.0008381009 -0.100642666 -0.38296497 0.10293438 0.059227496 0.24420626 -0.08700253 -0.019939136

cos_embedding.weight f4 [128, 64]
00000000: 9307 7c3a 6619 29ba bd2e bbba 08ff 0ebb
00000010: 69a7 62ba a99c 84ba d793 01bb 5ede 14b9
00000020: 7354 30bb 25a1 90b9 c788 483a 9ec8 7f3a
00000030: a834 5e39 8704 063a 52f3 663a 24ea f6b9
00000040: f73e 07ba c07f 9db9 28f8 2abb 6a1c bfba
00000050: 6686 a03a b0fd 9bba 04a9 3dba dc59 87ba
00000060: 1339 d33a f311 b1ba ca54 2b3a 96ca 0ab7
00000070: 434e 61ba 2598 ed39 e918 14bb 3ba4 303a
00000080: d411 5bb9 433d 183b 2237 a1ba fc8c 4e3a
00000090: 30ab 673a 35b9 55ba fd82 8c3a add5 d83a
000000a0: d192 0c3a 89d1 1dba 3ce7 5939 3ae5 adba
000000b0: 3fc9 223b ee64 19bb 50a0 1fba 205a 823a
000000c0: 1758 21bb 2f2d ed3a 2a1d 903a a5ca 7b3a
000000d0: b691 8437 db78 4c3a 533f 94ba d55f f8ba
000000e0: 0f39 49ba 70d5 d5ba eced a3ba 0cd1 823a
000000f0: db73 29bb 9ea6 293a 92bf ddb8 3c34 d93a
00000100: 3265 2c3b 1bfa c0ba 32d0 713b 522a c53a
00000110: 0467 443a f186 6cba 8f7c c73a b89b 70ba
00000120: 06e8 e83a 8b6b 933a 1576 14ba e927 603a
00000130: 6834 ac3a 79a9 8e3a 085b 1a3a 1640 013b
00000140: c82e 513a b4bb 10bb d499 333a d1b4 e33a
00000150: d7fc c439 6d64 34ba 9840 20bb 1e2c 20ba
00000160: 0722 ccba e53e 5e3b 15e3 a63a 3218 7a3a
00000170: d516 cf3a 04cf 7b39 6dfa e93a 38e2 ee3a
00000180: 54a4 423a 31f5 eaba 493e d13a 76e8 7eba
00000190: 18dc 28b8 e731 803a d474 91b6 20ec a73a
000001a0: ba45 da3a 6e90 b339 da8c 993a 7586 db3a
000001b0: 5d0e adba becc d53a 0ce8 273b 236a acba
000001c0: 3372 a0ba 3809 73b9 62fc 0aba 1fe3 43b9
000001d0: eaf4 8d3a 0370 343a 3bf6 333a 52cf 013a
000001e0: be93 453b 266f 38ba 68bf 5f3a a1b9 9cba
000001f0: 1828 4939 e2a8 0e3a 42df 42ba 848d 88bb
00000200: ce0f a1bb 3202 c6b9 6792 6aba 973f aab9
00000210: 3119 55ba f9be d038 01fd 1bba 7e39 7ab9
00000220: f43d dfb9 fe31 4fba 3aa0 5eba 2dad 8db9
00000230: c6ee d738 ff25 2aba db51 e738 d70e 123a
00000240: f98c 27b9 560c f9b9 c9e1 92b9 1fb6 823a
00000250: e661 6db9 7a87 ed39 500e ebb8 2100 8e39
00000260: 6893 333a 3a85 c9b9 253e 7eb9 a55f 2c3a
00000270: 5899 d539 ca0a 99b8 5d4e 65ba d180 80b9
00000280: 4925 8c39 166c d6b9 f46f 66ba ce8c f1b8
00000290: 18c4 05ba b09c a139 1cc0 d939 7eda f239
000002a0: 06e4 3e3a 0e83 5738 9dbf 61ba 3233 2eb9
000002b0: b6c0 7d39 53d6 14ba e137 05ba 6fe8 a338
000002c0: f28d d138 dfd9 37ba 40ee 403a c754 2839
000002d0: b792 183a 10d6 d038 b585 d5b9 69ed e639
000002e0: c989 36ba 6655 8ab9 4aa4 0fb9 48b7 b737
000002f0: 20f6 85b9 2403 ac39 c5f7 e7b9 af4b 773a
00000300: 7cf3 473b 683f 0f3b ecd7 d239 cd81 393b
00000310: 30da 4837 8ad7 b7b9 bde2 af3a f3a0 853a
00000320: 57b0 c03a 60f3 a739 74fe c7b9 e1d6 b1ba
00000330: ec56 183a cce6 81b9 b727 c739 3938 b0ba
00000340: e2ca 7c3a 17b6 47bb 4893 5ebb ca21 5d3a
00000350: e7e3 e63a 59f1 083a 4620 f23a 599a deb9
00000360: 6ad8 84b9 46fc 3c3b acf0 713a 2c12 6c39
00000370: bc2c b337 856d db3a 7216 a0ba 79b3 39bb
00000380: d6c8 3739 e916 9fba c855 ab3a 74a5 fa3a
00000390: bf1e 20ba a68c 4a3a 3acb 3e3a 7b92 05bb
000003a0: b4fa ab3a 460e feb9 ece7 f9b9 8653 26bb
000003b0: dc4a ff39 2ae5 03ba f092 88b8 c03d 203b
000003c0: 4e2c c03a cc50 e03a 1a48 deba 41c7 493a
000003d0: a434 95ba 3eca eab8 33a6 caba 5bc7 bb39
000003e0: c909 ed3a b6c9 e2ba fd77 b8ba 0275 a73a
000003f0: 1d2a e7ba 2113 4fba a321 bcba 3bec 2f39
0.0009614166 -0.0006450623 -0.0014280897 -0.002181949 -0.0008646162 -0.0010117489 -0.0019771957 -0.00014197218
-0.0026905804 -0.00027585882 0.0007649776 0.00097573723 0.00021191186 0.0005112369 0.0008810061 -0.00047095225
-0.0005159224 -0.00030040555 -0.0026087854 -0.0014580612 0.0012247085 -0.0011901166 -0.0007234963 -0.0010326463
0.0016115032 -0.0013509378 0.0006535767 -8.272609e-06 -0.0008594731 0.0004531752 -0.0022597855 0.00067383394
-0.00020892109 0.0023229874 -0.0012299756 0.00078792847 0.00088374596 -0.0008152903 0.001072019 0.0016543173
0.00053624535 -0.0006020298 0.00020780874 -0.0013267167 0.002483919 -0.0023406106 -0.0006089257 0.0009945072
-0.0024619156 0.0018095131 0.001099502 0.00096050865 1.5803478e-05 0.0007799991 -0.0011310376 -0.0018949459
-0.0007676044 -0.001631422 -0.0012506819 0.0009980514 -0.0025856409 0.0006471666 -0.00010573784 0.0016571353
0.0026305434 -0.0014722975 0.0036897776 0.001504252 0.0007492157 -0.00090227934 0.0015219616 -0.00091784773
0.0017769344 0.001124726 -0.00056633475 0.0008550869 0.0013138177 0.0010884247 0.00058881985 0.0019722036
0.0007979688 -0.0022084536 0.000685123 0.0017372613 0.00037572414 -0.00068814197 -0.0024452563 -0.00061100896
-0.0015574106 0.0033912 0.0012732471 0.00095403485 0.0015799651 0.00024014345 0.0017851122 0.0018225377
0.00074249995 -0.0017925856 0.0015963997 -0.00097239704 -4.02593e-05 0.0009780497 -4.3349373e-06 0.001281146
0.001665286 0.0003424915 0.0011714951 0.0016748445 -0.0013203133 0.0016311628 0.0025620488 -0.001315419
-0.0012241065 -0.0002317772 -0.000530189 -0.00018681258 0.0010830436 0.0006883146 0.00068649993 0.00049518526
0.0030147876 -0.00070356054 0.00085352967 -0.0011957177 0.0001918379 0.00054420356 -0.00074337807 -0.0041672606
-0.004915214 -0.0003776714 -0.0008948207 -0.00032472305 -0.0008129059 9.953784e-05 -0.0005950481 -0.00023863275
-0.00042580033 -0.0007903873 -0.00084925035 -0.00027022642 0.00010296474 -0.0006490647 0.00011030185 0.00055716693
-0.00015978877 -0.00047502172 -0.00028015513 0.0009972489 -0.00022638551 0.000453051 -0.00011208339 0.00027084447
0.00068502733 -0.0003843697 -0.00024246478 0.00065755314 0.00040740776 -7.297618e-05 -0.0008747334 -0.00024510038
0.0002673066 -0.0004089779 -0.0008790486 -0.000115180024 -0.00051027676 0.00030825054 0.00041532598 0.00046320626
0.0007281903 5.138205e-05 -0.00086116215 -0.00016613005 0.0002419975 -0.0005677689 -0.0005081874 7.81574e-05
9.992336e-05 -0.00070133613 0.0007359721 0.0001605331 0.0005820202 9.958085e-05 -0.00040726145 0.00044045903
-0.00069632806 -0.00026385038 -0.00013698745 2.1900647e-05 -0.00025551114 0.00032808736 -0.00044244356 0.000943358
0.0030510118 0.0021857861 0.00040215196 0.0028306127 1.197173e-05 -0.0003506507 0.0013419014 0.0010195061
0.0014700991 0.0003203405 -0.0003814582 -0.0013568067 0.0005811292 -0.00024776754 0.00037985828 -0.001344449
0.0009643269 -0.0030473524 -0.0033962298 0.0008435516 0.0017615528 0.0005223952 0.0018472753 -0.00042458138
-0.00025338243 0.002883689 0.00092292833 0.00022513483 2.1359294e-05 0.0016741013 -0.001221372 -0.0028335734
0.00017527057 -0.0012137565 0.001307183 0.0019122795 -0.0006108097 0.0007726647 0.0007278208 -0.0020381499
0.001312098 -0.0004845729 -0.00047665776 -0.0025379374 0.00048693165 -0.00050314015 -6.5123546e-05 0.0024450868
0.0014661641 0.0017113923 -0.0016958744 0.00076972326 -0.0011383486 -0.0001119566 -0.0015460908 0.0003581595
0.0018084581 -0.0017302546 -0.0014073845 0.001277596 -0.0017636452 -0.0007899274 -0.0014353286 0.00016777303

cos_embedding.bias f4 [128]
00000000: b07b 153e a411 7b3e 7127 d83e 9fc7 8b3e
00000010: 8c48 00be 13dd c13e 5178 de3d 76c7 c33e
00000020: e3a6 30be 0e34 8e3e e8e8 dbbd 4e05 26be
00000030: 7cee f3bd 20d9 a13e 2abd 7d3e 6b38 953e
00000040: ea8a ab3e d8a3 183f 63a4 213f a642 2c3e
00000050: 000c 74be 7ba4 2d3e 787f b73e 81f5 41be
00000060: ba78 103f 9cfd 8a3e a33f 1c3e caac 723e
00000070: c636 e23e 748f cc3e 86e6 8b3e 5333 5d3e
00000080: 7e40 243e bf3c 493e 9425 ea3e c072 37be
00000090: d7e7 833e 00b4 103f c428 08bd 02b1 21be
000000a0: b5a5 8c3e eb63 41bb d7a9 08bd de51 04be
000000b0: c40b 963e aafe 8c3e 9a2c 2abe f142 8b3e
000000c0: d1e2 24be 75d1 0f3f 1cf2 d4bd a02e 1bbe
000000d0: ef01 03be e462 8d3e ea84 373e 540c f93e
000000e0: dcb1 463d 7f58 e5bb 2740 5abe f7e0 4dbe
000000f0: 5e3f a93d b703 5c3e 8cd2 d43c 8115 9d3e
00000100: 8e8e 0b3f c2ea 55be 757f 953e 36e8 373e
00000110: a047 bd3e b094 c33e b3b6 2cbd dbed b33e
00000120: 72a4 713e a897 2fbe b95b 863e ed97 283e
00000130: 8bc7 9b3e 11ea 28be 99b7 3c3e 1d43 d3bd
00000140: 1ec1 62be b8e5 a43e 798b c33e 07c6 9d3e
00000150: 98a1 28be 60de e6bc 496f 253e 799e 3dbe
00000160: 04c6 22be c4f0 2dbe ad3f cdbd 5c76 2c3e
00000170: d6c5 aa3e 0202 d63e 8d78 5e3e 8319 a43e
00000180: ff79 983e 1cbf 543e 4040 c33d 22a9 c6bd
00000190: d8c9 17be 84a5 55be bb82 903e 969f febd
000001a0: 1431 e93e c549 dd3e 6f57 8d3e f09c 62be
000001b0: caa9 5a3e bcb8 953e 4daf 47be 8b64 333e
000001c0: 6583 22be 6346 6fbe 1f65 833e f990 183e
000001d0: bb02 af3e ca6b e7bd 4d2f 1dbe dfe3 153f
000001e0: 4c77 753d dce0 263e 7f76 703e fb31 c53e
000001f0: e7b7 c53e eb1b 603e 3db8 c93d 7ee4 793e
0.14597964 0.24518448 0.4221759 0.27300736 -0.12527674 0.3786398 0.10862792 0.38238114
-0.17251162 0.2777409 -0.10737783 -0.16212961 -0.11910722 0.31610966 0.24779192 0.29144606
0.3350442 0.59625006 0.6314146 0.168223 -0.23832703 0.16957276 0.35839438 -0.18941309
0.56434214 0.27146614 0.1525865 0.23698726 0.44182414 0.39953196 0.27324313 0.2160161
0.16040227 0.19652079 0.45731795 -0.17914867 0.25762817 0.5652466 -0.033242002 -0.1579018
0.27470174 -0.0029509019 -0.033365097 -0.12921855 0.2930585 0.27538043 -0.16618577 0.2719951
-0.16102149 0.5617898 -0.10397741 -0.15154505 -0.12793706 0.2761451 0.17921796 0.48642218
0.048509464 -0.006999075 -0.21313535 -0.20105349 0.082640395 0.21485792 0.025979303 0.3068047
0.54514396 -0.20890334 0.29198804 0.17959675 0.36968708 0.38199377 -0.042166423 0.35142407
0.23597887 -0.17147696 0.26241854 0.16464205 0.30425677 -0.16495539 0.18429412 -0.10315535
-0.22143981 0.32206511 0.38192347 0.30815145 -0.16467893 -0.028182209 0.16155733 -0.18517484
-0.1589585 -0.16986376 -0.10021911 0.16842026 0.33354062 0.41798407 0.21725674 0.32050714
0.29780576 0.20776027 0.09533739 -0.09700228 -0.14823091 -0.2086392 0.2822474 -0.12432782
0.45545256 0.43220344 0.2760577 -0.2213018 0.21353832 0.29242504 -0.19500466 0.17518823
-0.15870436 -0.23366694 0.25663087 0.14899053 0.3418177 -0.11299856 -0.15350075 0.5855083
0.059928223 0.16296715 0.23482703 0.38514695 0.3861687 0.2188565 0.09849594 0.24403569
