runs/Experiment1/BestModels/modelDistributedAlgoOldState_0_5_Tau500000480.pt (torch, 586621 bytes, 39 tensors)

fc1.weight f4 [128, 19]
0	0x3d9090d8	0.07058877
1	0x3de96aa7	0.113972954
2	0x3dd633c4	0.10459092
3	0x3db34676	0.08753674
4	0xbed55ca9	-0.41672257
5	0x3d99499e	0.074847445
6	0xbd2aa1c5	-0.04165818
7	0xbe9a3791	-0.3012052
8	0xbeaf7664	-0.34270012
9	0xbe3142b2	-0.17310598
10	0x3e8da472	0.27664524
11	0x3e8e5d3b	0.27805504
12	0x3e57c9d3	0.21073084
13	0xbcc0fd6d	-0.023558343
14	0xbe940989	-0.28913525
15	0x3e463e61	0.19359733
16	0x3dcb745a	0.09934302
17	0x3d65affe	0.056076042
18	0x3d86bf7d	0.06579492
19	0x3d38bd42	0.045102365
20	0xbceab517	-0.028650803
21	0xbcb3c99f	-0.021946726
22	0x3d06b4bc	0.032887205
23	0xbd8994f4	-0.06717864
24	0xbd71a894	-0.05899866
25	0xbccff25e	-0.025384124
26	0x3cebad93	0.02876929
27	0x3d0a527a	0.033770062
28	0xbd547cdb	-0.051876884
29	0x3d72a17d	0.05923604
30	0x3d0cf4a0	0.03441298
31	0xbd30acde	-0.04313361
32	0xbbffd65e	-0.007807537
33	0xbd4b1976	-0.04958483
34	0x3d13da1b	0.036096673
35	0x3bab3f5c	0.005226059
36	0xbdacbd6c	-0.08434567
37	0xbd2cb202	-0.04216195
38	0xbe4b40b4	-0.19848901
39	0xbe4a6f08	-0.19768918
40	0xbe8032cc	-0.25038755
41	0xbea7f947	-0.3280737
42	0xbe91c0c5	-0.28467384
43	0xbe9efeff	-0.31053922
44	0xbd84cffe	-0.06484984
45	0x3f3a7c91	0.72846323
46	0x3f43f22b	0.76541394
47	0x3f3917c9	0.7230192
48	0xbd89d0d6	-0.067292854
49	0xbe022a34	-0.12711412
50	0xbe05829a	-0.13038102
51	0x3da57e01	0.08080674
52	0xbe024912	-0.12723187
53	0xbe1f1d6c	-0.15538567
54	0xbec3d470	-0.38248014
55	0xbe5b1bc8	-0.21397316
56	0xbee39483	-0.44449243
57	0xbd35eea7	-0.04441705
58	0xbc96b0e9	-0.018394904
59	0xbcb3c240	-0.021943212
60	0xbdc437ec	-0.09580979
61	0xbb244e76	-0.002507118
62	0xbe0d1049	-0.13775744
63	0xbd8e1201	-0.06937028
64	0x3db61eb1	0.08892573
65	0x3e4943f8	0.19654834
66	0x3c1714cd	0.009221268
67	0xbca1eba5	-0.019765684
68	0xbdb44ed9	-0.088041015
69	0xbe19a7ba	-0.15005389
70	0x3d61835f	0.055056926
71	0x3d107a7f	0.03527307
72	0xbd223f3c	-0.039611086
73	0xbcbd9fec	-0.023147546
74	0x3e1348a3	0.14383177
75	0xbdc27cc4	-0.094964534
76	0xbd7ee4bc	-0.062229857
77	0x3d226cb5	0.039654452
78	0x3e28d5db	0.1648783
79	0xbe125d55	-0.14293416
80	0xbe212769	-0.1573769
81	0xbdd6e90f	-0.10493671
82	0xbe146ffb	-0.14495842
83	0xbd8593a3	-0.065223
84	0xbe1aa3a3	-0.15101485
85	0xbe28b1da	-0.16474095
86	0x3e160553	0.14650469
87	0x3cdf19ec	0.02723404
88	0xbc7f39bf	-0.015577733
89	0xbd61663e	-0.055029146
90	0xbec8e944	-0.39240468
91	0xbe8138e5	-0.2523872
92	0xbf2b518d	-0.6692131
93	0xbf088cb9	-0.53339726
94	0xbe8ec9c0	-0.27888298
95	0xbe6847c6	-0.2268363
96	0xbd0781f5	-0.03308292
97	0x3c9d6fa9	0.019218283
98	0xbdbd97c5	-0.09257463
99	0x3cbeacbc	0.023275726
100	0xbee3ca5c	-0.44490325
101	0xbde3afa9	-0.11117489
102	0xbeb35d35	-0.3503205
103	0xbebed1f4	-0.37269557
104	0xbe5f56f7	-0.21810518
105	0xbe368721	-0.17824985
106	0xbe14aff3	-0.14520244
107	0xbe7ad41a	-0.24494973
108	0x3dcf8213	0.101322316
109	0xbe4e6245	-0.20154674
110	0xbe257b84	-0.16160399
111	0xbdb94419	-0.09046192
112	0xbc6ac05d	-0.01432809
113	0x3e2b9ba4	0.16758591
114	0xbde33865	-0.11094741
115	0xbea3dcdb	-0.32004437
116	0xbe7f92de	-0.24958369
117	0xbe1faa0d	-0.15592213
118	0xbb239f43	-0.0024966754
119	0xbe974359	-0.2954357
120	0x3ea91ce8	0.33029866
121	0x3ed33b24	0.41256058
122	0x3ed23381	0.4105492
123	0x3ee667c8	0.45001054
124	0xbcb20e13	-0.021735227
125	0xbe3adea6	-0.18248996
126	0xbe561a60	-0.20908499
127	0x3e818ab2	0.2530113
128	0xbcc28bc4	-0.023748286
129	0xbd94e193	-0.07269587
130	0xbdc8ca85	-0.098042525
131	0xbcad0569	-0.021120744
132	0x3dfd31fa	0.12363048
133	0xbca00509	-0.019533651
134	0xbc38c7b1	-0.011278079
135	0xbd63600d	-0.055511523
136	0x3b74ac4f	0.003733415
137	0xbd870110	-0.065919995
138	0xbd8d47fd	-0.06898496
139	0xbc8d0ea7	-0.0172189
140	0xbd3b6fa8	-0.04576078
141	0xbd75205e	-0.05984532
142	0x3cd8d21c	0.026467375
143	0xbb95669a	-0.00455935
144	0x3c42d81b	0.011892344
145	0xbc8dc989	-0.017308014
146	0x3d68fc9f	0.056881543
147	0xbd8f96e8	-0.07011205
148	0x3cf68d8c	0.030096792
149	0x3d866d66	0.06563835
150	0xbd516bfb	-0.05112837
151	0xbc907c3e	-0.017637368
152	0x3e8ff1a3	0.28114042
153	0xbd874126	-0.06604223
154	0x3d1aea0e	0.03782087
155	0xbe5588a3	-0.20852904
156	0xbe484cfb	-0.19560616
157	0x3eaf9f41	0.3430119
158	0xbe5e4f2a	-0.21709886
159	0x3ebbdff2	0.36694294
160	0x3e93ea44	0.28889668
161	0x3e49bf32	0.19701841
162	0x3e6f3243	0.23359017
163	0x3e464c5f	0.19365071
164	0x3d9d6133	0.07684555
165	0x3d610276	0.054933988
166	0xbe2ca3a4	-0.16859299
167	0xbd15e377	-0.03659388
168	0x3e6b0d65	0.22954328
169	0xbf0ba193	-0.5454342
170	0xbee74c8b	-0.45175585
171	0xbdd92913	-0.106035374
172	0x3d8551b6	0.06509726
173	0xbd36e7c6	-0.04465463
174	0x3ea4efdd	0.3221425
175	0xbc3cc3de	-0.011521308
176	0x3e672e77	0.22576319
177	0xbf52376b	-0.8211581
178	0xbf8a7929	-1.0818225
179	0xbf84c257	-1.0371808
180	0xbf303256	-0.68826807
181	0x3ceb66e5	0.028735587
182	0x3e0a9853	0.1353467
183	0x3e0d94a2	0.1382623
184	0x3ea4bf22	0.32177073
185	0x3b81580d	0.003947264
186	0xbe8d257f	-0.2756767
187	0x3e653348	0.22382843
188	0x3e33092f	0.17483972
189	0xbe4d8b8d	-0.20072766
190	0x3e70f3be	0.2353048
191	0x3dd7c053	0.1053473
192	0xbd1972f6	-0.03746315
193	0xbd239758	-0.039939255
194	0xbe42193f	-0.18954943
195	0xbc851777	-0.01624654
196	0x3ea0b0c7	0.3138487
197	0xbf98fa6c	-1.1951423
198	0xbf7c7211	-0.9861155
199	0xbf55930d	-0.83427507
200	0x3daed676	0.08536999
201	0x3e09cb0e	0.13456365
202	0x3cb249d5	0.021763721
203	0xbeba6fd9	-0.36413458
204	0x3e476693	0.19472723
205	0x3de333b9	0.1109385
206	0xbe9f22e6	-0.31081313
207	0x3dd83a81	0.10558034
208	0xbbcc55be	-0.006235807
209	0xbea564e4	-0.32303536
210	0xbe91845f	-0.28421304
211	0xbdb28254	-0.08716264
212	0xbe804132	-0.2504974
213	0xbdfa2c46	-0.12215476
214	0xbd816fbc	-0.0632014
215	0x3dd3d3c7	0.10343128
216	0xbea5c4fd	-0.32376853
217	0xbedc1aaa	-0.42989093
218	0xbf2ec5ea	-0.6827074
219	0xbe12a5ff	-0.14321135
220	0xbe4c69a6	-0.19962177
221	0xbe75e3f8	-0.24012744
222	0xbcb6723b	-0.022271266
223	0xbb702688	-0.003664406
224	0x3df97e8d	0.12182341
225	0x3ea53f68	0.32274938
226	0x3e7fcdd0	0.24980855
227	0x3ed660a5	0.4187061
228	0xbe3115e8	-0.17293513
229	0xbdc8cc32	-0.09804572
230	0xbccaf0c0	-0.024773002
231	0x3d5f6ffc	0.054550156
232	0x3db18f39	0.08669896
233	0xbf370088	-0.71485186
234	0xbe813294	-0.252339
235	0x3e514c6e	0.20439312
236	0x3d7a6cf3	0.06113906
237	0xbd29acc3	-0.041424524
238	0xbcaadb53	-0.020856535
239	0xbd80ade1	-0.06283165
240	0xbdcdfd1d	-0.10058043
241	0xbb9df148	-0.0048200227
242	0xbe8d53fe	-0.27603143
243	0x3d6ecba2	0.058299668
244	0x3e7eacea	0.24870649
245	0xbbc15792	-0.005900332
246	0x3e024e68	0.12725222
247	0xbb894181	-0.004188717
248	0x3d39d559	0.04536948
249	0xbea5b21a	-0.32362443
250	0xbdbc4ecd	-0.091947176
251	0x3e47cffd	0.19512935
252	0x3ea1535a	0.31508905
253	0xbce70365	-0.02819986
254	0xbe0175df	-0.1264262
255	0xbeb83e99	-0.35985258

fc1.bias f4 [128]
0	0xbbf80bcd	-0.007569766
1	0xbe4650f5	-0.1936682
2	0xbe960fc1	-0.29308894
3	0xbde2ccb3	-0.110741995
4	0xbdf8fb34	-0.12157288
5	0xbd564bd5	-0.052318413
6	0xbe3a14cd	-0.18171997
7	0xbe01bd0c	-0.12669772
8	0xbd45f9da	-0.04833398
9	0x3e838d1f	0.25693604
10	0xbdbbb5f0	-0.09165561
11	0xbe162642	-0.14663032
12	0xbe3c81f1	-0.18408944
13	0x3d9c651d	0.07636473
14	0xbe48f67c	-0.19625276
15	0xbe9760ed	-0.29566136
16	0xbe70c170	-0.2351129
17	0xbdb9e53a	-0.090769246
18	0x3e4abb9d	0.19798131
19	0xbdd59a8f	-0.1042987
20	0xbe6939ae	-0.2277591
21	0x3e4f5ddb	0.20250647
22	0xbe201166	-0.15631637
23	0xbe93f67a	-0.28898984
24	0x3e436ef6	0.19085297
25	0xbe89d581	-0.26920703
26	0xbe60d4c9	-0.21956171
27	0xbe9b91b2	-0.30384594
28	0x3d9cd46d	0.076577045
29	0x3db02a7f	0.086018555
30	0x3ca01e39	0.019545661
31	0x3d0e3b95	0.03472479
32	0x3d94711c	0.072481364
33	0x3da1ecc8	0.079064906
34	0x3e1e3f9d	0.15453954
35	0x3e831be7	0.25607225
36	0xbeaec656	-0.34135693
37	0xbe1674be	-0.14692971
38	0xbd3ba4bf	-0.04581141
39	0x3df6cc99	0.12050743
40	0xbd9826bd	-0.07429264
41	0xbe7d6550	-0.24745679
42	0xbe6d03d8	-0.23145998
43	0xbeb818bf	-0.3595638
44	0xbd111d2c	-0.03542821
45	0x3e877619	0.2645729
46	0xbe69c8a9	-0.22830452
47	0xbebcdfe6	-0.3688957
48	0x3d08eb96	0.033427797
49	0xbc987814	-0.018611945
50	0x3ab78b79	0.0014003358
51	0xbc97ecbd	-0.018545503
52	0xbdfc3b5a	-0.12316008
53	0xbe541efe	-0.20714948
54	0x3e6bc64c	0.23024863
55	0xbe505af9	-0.20347203
56	0xbe93116d	-0.28724232
57	0xbdbaf316	-0.09128396
58	0xbe708d22	-0.23491338
59	0x3ca07bef	0.019590346
60	0xbe6edeba	-0.23327151
61	0x3d703aa0	0.05864966
62	0xbce8c6d3	-0.02841512
63	0xbe002407	-0.12513743
64	0x3e02344c	0.12715262
65	0xbd5ef037	-0.054428305
66	0x3d3e6d1d	0.046490777
67	0xbe0763f0	-0.13221717
68	0xbdde160f	-0.10844051
69	0xbda04ce1	-0.078271635
70	0x3dd971e0	0.10617423
71	0xbe60eaf6	-0.2196463
72	0xbe096510	-0.13417459
73	0x3e943e58	0.28953815
74	0x3e9b8bbd	0.3038005
75	0xbe3b18d2	-0.18271187
76	0xbe8870b9	-0.266485
77	0xbbee4195	-0.0072710016
78	0xbccde06b	-0.025131425
79	0xbd4f5cda	-0.05062566
80	0x3e0efa22	0.13962606
81	0xbe818014	-0.25293028
82	0x3e18bab6	0.14914975
83	0xbe9a82e9	-0.30178002
84	0x3e0f9302	0.14020923
85	0xbe6cc2f1	-0.23121239
86	0x3d9da58a	0.0769759
87	0x3cee0e9b	0.029059699
88	0xbe258533	-0.16164093
89	0xbe3e1a4f	-0.18564723
90	0x3e70688c	0.23477381
91	0x3da926e6	0.082593724
92	0xbd919ef1	-0.07110394
93	0x3e750b29	0.23930039
94	0x3e045304	0.12922293
95	0xbe384036	-0.17993245
96	0xbe9c0a93	-0.30476817
97	0xbe281d58	-0.16417444
98	0x3cd715e4	0.026255555
99	0xbd51a88e	-0.051186137
100	0x3e750501	0.2392769
101	0xbdb3dd78	-0.08782476
102	0x3e1f2c47	0.15544234
103	0x3d52ad42	0.051434763
104	0x3e2fdc4f	0.17173885
105	0xbde44b21	-0.11147142
106	0x3e29edf6	0.16594681
107	0xbdddc2fa	-0.108282045
108	0x3eacf2e8	0.33779073
109	0xbea7a9eb	-0.32746825
110	0xbe216595	-0.15761407
111	0x3e223962	0.15842202
112	0xbe1555b4	-0.14583474
113	0xbbb8a9a7	-0.0056354585
114	0xbd944acd	-0.072408296
115	0xbd2d021c	-0.04223834
116	0x3dc34823	0.09535243
117	0xbd0e4f70	-0.034743726
118	0xbe731ce1	-0.23741485
119	0xbe8af24e	-0.2713799
120	0xbeb81dd7	-0.35960266
121	0xbc91156e	-0.017710414
122	0xbd9ea581	-0.07746411
123	0x3dadc54d	0.08484898
124	0x3edd5cb0	0.43234777
125	0xbdc05823	-0.09391811
126	0x3e04329a	0.12909928
127	0xbe04714d	-0.12933846

fc2.weight f4 [128, 128]
0	0xbc072cdf	-0.008250444
1	0x3c151ffe	0.009101866
2	0xb9f50f4a	-0.00046741433
3	0xbd5c641a	-0.0538064
4	0x3bd63e87	0.0065382156
5	0xbd6f1f7d	-0.05837964
6	0xbcc3c074	-0.02389548
7	0xbd39015c	-0.045167312
8	0x3b36b924	0.0027881349
9	0xbd9a1894	-0.07524219
10	0x3d163e97	0.036680784
11	0x3c30e650	0.010797098
12	0x3c240bfd	0.010012624
13	0xbd9f43f0	-0.0777663
14	0xbd486ea9	-0.04893366
15	0x3cf639ed	0.030056918
16	0xbe18f8c4	-0.14938647
17	0xbbb6f772	-0.005583697
18	0xbd024e98	-0.031813234
19	0xbae8520b	-0.0017724646
20	0xbdc06cbb	-0.09395739
21	0xbda11b85	-0.07866577
22	0x3d168e4a	0.03675679
23	0x3dddca16	0.108295605
24	0x3886bf7f	6.425287e-05
25	0xbcb93f82	-0.02261329
26	0xbcc1496e	-0.023594584
27	0xbd612bfd	-0.05497359
28	0xbabe3d7c	-0.0014514173
29	0xbd0cf413	-0.034412455
30	0x3cb80a0a	0.022465724
31	0xbca2bc7b	-0.019865265
32	0xbc9aa698	-0.018878266
33	0xbd210753	-0.039313626
34	0xbd2f2852	-0.04276306
35	0xbd3a07a1	-0.04541743
36	0x3d06c0ba	0.032898642
37	0xba4f79ce	-0.00079145737
38	0x3d127eeb	0.03576557
39	0xbbbc0ea0	-0.005739048
40	0xbcefc274	-0.029267527
41	0xbbe07247	-0.0068495604
42	0xbb7662a1	-0.0037595409
43	0xbc99db3d	-0.018781299
44	0xbdbc45c6	-0.09192996
45	0x3c9078a9	0.01763566
46	0x3b868136	0.0041047586
47	0xbd2942e3	-0.041323554
48	0xbb90af99	-0.004415464
49	0xbd5e6c73	-0.054302644
50	0xbd572091	-0.052521292
51	0xbdb20db4	-0.0869402
52	0xbdc5a908	-0.09651381
53	0x3d23658a	0.039891757
54	0xbd7bdbab	-0.06148879
55	0xbdd757a5	-0.10514764
56	0x3c0de5b8	0.008660726
57	0xbd6775f0	-0.05650896
58	0x3d1ab7fd	0.03777312
59	0x3d4adb1c	0.049525365
60	0xbdf46cff	-0.11934852
61	0xb991b0f1	-0.00027788387
62	0x3c8ca30d	0.017167592
63	0x3d17cb7a	0.037059285
64	0xbd3258df	-0.043541785
65	0x3b0eac92	0.002177034
66	0xbde398da	-0.111131385
67	0x3d8b88cd	0.06813202
68	0xbdec4142	-0.115358844
69	0x3d1c631a	0.038180448
70	0xbdac4b3b	-0.084127866
71	0xbceac6fa	-0.028659333
72	0xbdf70316	-0.120611355
73	0x3cdfee30	0.027335256
74	0xbc794c43	-0.015215936
75	0xbd768ee9	-0.060194883
76	0xbcaab063	-0.02083606
77	0xbc39b834	-0.011335421
78	0xbdc4818a	-0.0959502
79	0x3ce69e10	0.028151542
80	0x3a71fcc4	0.00092310854
81	0xbdc3a66c	-0.09553227
82	0x3cfdc128	0.030975893
83	0x3d8e3d47	0.069452815
84	0xbd16fa67	-0.036859896
85	0xbd5a71d6	-0.05333122
86	0xbde12a73	-0.10994425
87	0xbdc956c1	-0.09831
88	0xbd62b9f3	-0.055353116
89	0xbd8148cd	-0.06312714
90	0x3c84ed72	0.016226504
91	0xbc97aa51	-0.01851383
92	0x3b97860a	0.004624133
93	0x3d2684b6	0.040653907
94	0xbcd51a78	-0.026013598
95	0xbca59d9b	-0.020216754
96	0xbd54e564	-0.051976576
97	0xbdb18faf	-0.086699836
98	0xbdc7978e	-0.09745704
99	0xbd20e951	-0.039285008
100	0x3c521ace	0.012823774
101	0xbd9096c1	-0.07060004
102	0xbc9c8752	-0.019107495
103	0xbc9863f2	-0.018602345
104	0x3d6cbaed	0.057795454
105	0xbd3e932b	-0.04652707
106	0xbcb8136a	-0.022470195
107	0x3d01ed5d	0.031720508
108	0x3d877026	0.066131875
109	0xbc89294f	-0.01674333
110	0x3d3f6f9d	0.046737302
111	0x3d4e44c3	0.050358545
112	0xbd697799	-0.056998823
113	0xbd544dff	-0.051832195
114	0x3d099ba2	0.03359569
115	0xbc1e9dda	-0.009681189
116	0x3c36ef03	0.011165383
117	0xbb5a2519	-0.0033286272
118	0x3d037615	0.032095034
119	0x3d47b9f3	0.04876132
120	0xbc56eeab	-0.013118426
121	0xbddbb1d7	-0.1072728
122	0xbd19ff51	-0.037597004
123	0xbd169556	-0.03676351
124	0xbd0dbac4	-0.03460194
125	0xbdbd92a2	-0.092564836
126	0xbd2b832e	-0.04187315
127	0x3d1c2df5	0.038129766
128	0x3df8b053	0.12143006
129	0x3d269952	0.04067356
130	0xbdd6be17	-0.104854755
131	0x3ddbb017	0.10726946
132	0x3d85f66a	0.065411404
133	0xbe180638	-0.14846122
134	0xbe39eb13	-0.1815608
135	0x3d96f831	0.073715575
136	0xbea01f22	-0.31273752
137	0xbedc9ff4	-0.43090785
138	0xbce04eeb	-0.027381381
139	0xbeef3f70	-0.46728086
140	0x3d7b25e4	0.061315432
141	0xbca2233e	-0.019792195
142	0xbdef80ec	-0.11694512
143	0xbd56e78f	-0.052466925
144	0x3d848092	0.06469835
145	0xbe28e73c	-0.16494459
146	0x3e29f7bb	0.16598408
147	0x3da4abb9	0.08040566
148	0x3d898116	0.06714074
149	0xbeb6ae3a	-0.356798
150	0xbee71ef8	-0.45140815
151	0x3d9ec4ca	0.07752378
152	0xbd85acb7	-0.06527083
153	0xbdab2745	-0.083570994
154	0xbc172bd2	-0.009226756
155	0xbdb7509b	-0.08950921
156	0xbe2db714	-0.1696437
157	0xbe7d42cd	-0.24732514
158	0xbc85c7c1	-0.016330602
159	0x3eb8856f	0.36039302
160	0xbdbd4f9e	-0.092437014
161	0xbe3754bd	-0.17903419
162	0x3ce3e361	0.027818384
163	0x3cf3e1af	0.0297707
164	0xbeb62d78	-0.35581565
165	0xbdbd040f	-0.0922929
166	0xbddaab43	-0.10677197
167	0xbe87a51e	-0.26493162
168	0xbee5145c	-0.44742095
169	0x3defca78	0.1170854
170	0x3dc38ce3	0.095483564
171	0xbeb94948	-0.36188722
172	0xbe4108bd	-0.1885099
173	0xbc004233	-0.007828283
174	0xbdd65b2a	-0.10466607
175	0xba22a309	-0.00062041037
176	0xbeb08d01	-0.34482577
177	0xbdb2bb42	-0.08727123
178	0xbe926324	-0.28591263
179	0x3d59acc4	0.053143278
180	0xbe0b22c5	-0.13587482
181	0xbe4eaa21	-0.20182087
182	0xbe8fdf92	-0.28100258
183	0xbf2bf92f	-0.671771
184	0xbe454ea2	-0.19268277
185	0xbecd5d02	-0.40110022
186	0xbe8e5a8d	-0.2780346
187	0x3da0e4f5	0.0785617
188	0xbe57bdb9	-0.21068467
189	0x3dabc277	0.083867006
190	0xbe2b60d5	-0.16736157
191	0x3d804acf	0.062642686
192	0xbdc5c70c	-0.09657106
193	0xbc0b11de	-0.008488147
194	0xbea9f777	-0.33196613
195	0xbe147585	-0.14497955
196	0x3ecb5804	0.39715588
197	0xbe580d0d	-0.21098728
198	0xbda5a383	-0.08087828
199	0xbe63d8ea	-0.22250715
200	0x3e38c045	0.18042095
201	0xbc3fed5d	-0.011714307
202	0x3dd2a39a	0.10285111
203	0xbd149bfd	-0.036281575
204	0xbd1a73dc	-0.03770815
205	0x3e58abaa	0.21159235
206	0x3e7741ef	0.24146245
207	0x3cb65b2e	0.022260275
208	0xbdf251d7	-0.11832016
209	0x3cdddeb1	0.027083727
210	0x3d567927	0.052361634
211	0xbc6fbfc8	-0.014633127
212	0x3c1b2aff	0.0094707
213	0xbea2b943	-0.31781968
214	0xbd7bfc09	-0.061519656
215	0xbec0aa62	-0.37629992
216	0x3d95f950	0.07322943
217	0x3e3a288e	0.18179533
218	0xbe9a471d	-0.3013238
219	0xbe7a7972	-0.2446039
220	0xbf169074	-0.5881417
221	0x3ea909ad	0.33015195
222	0xbd54dd19	-0.051968668
223	0xbbfd306a	-0.0077267187
224	0xbea6a89a	-0.32550508
225	0xbdaf8f4c	-0.085722536
226	0xbda4e6f8	-0.08051866
227	0xbe12a438	-0.14320457
228	0xbe72773c	-0.23678297
229	0xbb5dc814	-0.003384118
230	0xbe39928d	-0.18122311
231	0x3de8635a	0.11347075
232	0xbe9dda17	-0.30830452
233	0xbddd6d0f	-0.10811817
234	0xbcb1a399	-0.021684455
235	0xbd915f09	-0.07098205
236	0x3da16b47	0.0788179
237	0x3e0d4192	0.13794544
238	0x3dbcff9b	0.092284404
239	0xbedc45b2	-0.43021923
240	0xbebbbe12	-0.3666845
241	0x3dc4d32f	0.096105926
242	0x3da4c892	0.08046068
243	0xbe18d412	-0.14924648
244	0xbe5030a5	-0.20331056
245	0xbe7fc3ed	-0.24977084
246	0xbe1213d0	-0.1426537
247	0xbe8cef94	-0.27526534
248	0xbdda9c79	-0.10674376
249	0xbe2374c5	-0.15962513
250	0xbe9723f2	-0.29519612
251	0xbdb716f9	-0.089399286
252	0xbf299f11	-0.6625834
253	0xbe16010c	-0.14648837
254	0x3e8ce11b	0.27515492
255	0xbdb92a37	-0.09041255

fc2.bias f4 [128]
0	0xbc815005	-0.015785227
1	0xbe457426	-0.19282588
2	0xbdd7fbc2	-0.10546066
3	0xbe6e03fc	-0.23243707
4	0x3e13aa3d	0.1442041
5	0xbd865e84	-0.06560996
6	0xbd93f0fa	-0.07223697
7	0xbd39df56	-0.045379005
8	0xbeb7b228	-0.3587811
9	0xbe726caf	-0.23674272
10	0xbe1b8507	-0.15187465
11	0xbddbac23	-0.10726192
12	0xbe32e259	-0.17469157
13	0xbdf28001	-0.11840821
14	0x3defc2c1	0.11707068
15	0xba88cb9a	-0.0010436655
16	0xbe9bee46	-0.30455226
17	0xbd3cb5bb	-0.04607175
18	0xbbe181bc	-0.0068819206
19	0x3d9076a3	0.07053878
20	0x3de29955	0.11064402
21	0xbd7ae6b9	-0.06125519
22	0xbdd41a16	-0.10356538
23	0xbdf107be	-0.11769055
24	0x3e0465e6	0.12929496
25	0xbd829ad2	-0.06377186
26	0xbe0645bf	-0.13112544
27	0x3e709cb1	0.23497273
28	0x3c34baaf	0.011030837
29	0x3d91557e	0.070963845
30	0x3d941488	0.072304785
31	0xbb035b2c	-0.0020043356
32	0xbe22f47e	-0.15913579
33	0xbde3d7db	-0.111251555
34	0x3d4e65c0	0.050390005
35	0x3ccbc1a3	0.024872607
36	0x3d7e6e9a	0.062117197
37	0xbe6a17ad	-0.22860594
38	0xbe1c74a7	-0.15278874
39	0xbe329373	-0.1743906
40	0xbdc5c096	-0.096558735
41	0xbdf4d7af	-0.11955201
42	0xbe8c311c	-0.27381217
43	0x3d25e7ce	0.04050427
44	0xbb0502fe	-0.0020295973
45	0x3e7a89c9	0.24466623
46	0xbb8da2e0	-0.0043223947
47	0xbc3b1f8d	-0.0114210965
48	0xbcd6d38f	-0.026223926
49	0xbe18ff30	-0.14941096
50	0xbdeaca68	-0.11464387
51	0x3e0d8b9e	0.13822791
52	0x3e40cd5c	0.18828338
53	0xbe00ce6d	-0.12578745
54	0xbe320214	-0.17383605
55	0xbe969f32	-0.2941833
56	0x3d1bb776	0.03801676
57	0xbe19ec6b	-0.15031593
58	0xbe2ce109	-0.16882719
59	0xbe0e415a	-0.13892117
60	0x3ddbaafb	0.10725971
61	0x3e090c03	0.13383488
62	0xbe2e0dbc	-0.16997427
63	0x3c8b7da7	0.01702769
64	0x3da57559	0.08079023
65	0x3e78f80f	0.24313377
66	0xbe0552d8	-0.13019884
67	0x3cc96f19	0.024589108
68	0x3bdfa0db	0.0068245954
69	0xbd2cd213	-0.04219253
70	0x3e42f26e	0.19037792
71	0xbe0eb3f2	-0.13935831
72	0xbe5cc425	-0.21559198
73	0xbdc20510	-0.09473622
74	0xbe227b92	-0.15867451
75	0xbbfbd38a	-0.0076851295
76	0x3e18594e	0.14877817
77	0xbd09f852	-0.033684082
78	0xbe38c9e5	-0.18045767
79	0x3cc0e773	0.023547864
80	0xbdb75011	-0.08950818
81	0xbe588aea	-0.21146742
82	0xbe8b3538	-0.2718904
83	0xbdb816e5	-0.08988742
84	0xbd70ef27	-0.058821823
85	0xbd3b659d	-0.045751203
86	0x3de30e39	0.11086697
87	0x3e62389e	0.2209191
88	0xbd121d6c	-0.03567259
89	0x3d5dfc41	0.054195646
90	0x3d3062d2	0.043062992
91	0xbdfd5d00	-0.12371254
92	0x3d899e19	0.06719608
93	0x3e134c3e	0.14384553
94	0x3dda64b2	0.10663737
95	0xbd0e7475	-0.03477903
96	0xbd184bba	-0.037181593
97	0xbbdbdb36	-0.0067094816
98	0x3de41ee1	0.11138702
99	0xbe62da6c	-0.22153634
100	0xbb219889	-0.0024657568
101	0x3dc7ab39	0.09749455
102	0xbd0612e6	-0.032732867
103	0xbe39fd09	-0.18162932
104	0x3e1e3b5e	0.15452334
105	0xba5d83c0	-0.0008450113
106	0xbe571a61	-0.21006157
107	0xbd88a004	-0.066711456
108	0xbceb0ea7	-0.02869351
109	0xbe16e225	-0.14734705
110	0xbdfe059e	-0.12403415
111	0xbcaa57ce	-0.020793822
112	0xbdfe6ff7	-0.12423699
113	0xbe241c2c	-0.16026372
114	0x3d86e72d	0.06587062
115	0xbd551abc	-0.05202745
116	0xbe196f14	-0.14983779
117	0x3e4f05cc	0.20217055
118	0x3e270372	0.16309908
119	0xbd865d45	-0.065607585
120	0xbd62747c	-0.05528687
121	0xbcf02425	-0.02931411
122	0x3dd2153d	0.10257957
123	0x3dc70a78	0.09718794
124	0xbe5fc1a3	-0.2185121
125	0x3e61c894	0.2204917
126	0x3d8be90a	0.06831558
127	0x3d2fedd8	0.042951435

fc3.weight f4 [4, 128]
0	0x3c351e48	0.011054583
1	0xbe14faf4	-0.14548856
2	0xbd00838a	-0.031375445
3	0xbe87bf9a	-0.26513368
4	0xbea26f22	-0.31725413
5	0x3f1d32f8	0.614059
6	0xbe9a9ea5	-0.3019916
7	0xbf0f8392	-0.56060135
8	0xbe800589	-0.25004223
9	0xbfa5f020	-1.2963905
10	0x3f310d7c	0.691612
11	0xbf2e1ab0	-0.6800947
12	0xbef21dee	-0.4728846
13	0x3d7b2073	0.061310243
14	0x3f82ab83	1.0208591
15	0xbf3a5467	-0.7278504
16	0xbe9c50f8	-0.30530524
17	0xbed76752	-0.42071015
18	0xbbdc7349	-0.0067276102
19	0xbb3d2a98	-0.00288645
20	0x3ee37bf8	0.44430518
21	0x3ec0fd82	0.3769341
22	0xbd8cd8d3	-0.068772934
23	0x3e976d22	0.2957545
24	0xbee71fee	-0.45141548
25	0xbef53014	-0.47888243
26	0x3e156d92	0.14592579
27	0xbe068d59	-0.13139857
28	0x3f2e6607	0.6812443
29	0xbe5a7586	-0.21333894
30	0xbe1accdd	-0.15117212
31	0x3c81209e	0.015762623
32	0x3e33046b	0.17482154
33	0x3bd8914a	0.0066091167
34	0xbe702157	-0.23450218
35	0x3e797b42	0.24363425
36	0xbf1028df	-0.56312364
37	0x3f149844	0.5804484
38	0x3e061302	0.13093188
39	0x3f0cffab	0.5507762
40	0xbed84c47	-0.42245695
41	0xbe665221	-0.22492267
42	0xbf5563cf	-0.8335542
43	0xbeb5c300	-0.35500336
44	0x3ed27154	0.41102087
45	0x3ec9921b	0.39369282
46	0xbf21152d	-0.62922937
47	0xbed31619	-0.41227797
48	0x3e317a31	0.17331769
49	0x3ec1e2c4	0.3786832
50	0x3eb9e7d4	0.36309683
51	0xbe3321d9	-0.1749338
52	0xbdecbf73	-0.115599535
53	0xbf153415	-0.58282596
54	0xbeda7d76	-0.42673844
55	0x3ca874b6	0.020563465
56	0x3e289489	0.16462912
57	0x3ec84a96	0.39119405
58	0xbea6c6fe	-0.32573694
59	0x3b17a193	0.0023137077
60	0x3df01bea	0.11724074
61	0x3e86fb90	0.26363802
62	0x3e1170b4	0.14203149
63	0x3ef29c0a	0.47384673
64	0x3ec1fea4	0.37889588
65	0xbd827629	-0.063701935
66	0xbefeecee	-0.49790138
67	0x3f198a57	0.59976715
68	0x3e335a38	0.17514884
69	0xbe123cb7	-0.14280973
70	0x3d37ec2b	0.04490296
71	0x3d9bc79d	0.076064326
72	0x3e781cf0	0.24229789
73	0x3e11a26b	0.14222114
74	0xbd53983c	-0.051658854
75	0xbea518e8	-0.32245564
76	0x3f237a26	0.6385826
77	0xbe7425ad	-0.23842497
78	0xbe6e2628	-0.23256743
79	0x3ec0771d	0.37590876
80	0x3e56c138	0.20972145
81	0xbeb50a7c	-0.3535956
82	0x3ea268ce	0.31720585
83	0x3ec7f856	0.39056653
84	0x3e4ce832	0.2001045
85	0x3f1ae3fe	0.6050414
86	0xbe6665d2	-0.22499779
87	0xbef11861	-0.47088912
88	0xbf2fe820	-0.6871357
89	0x3e8a7620	0.27043247
90	0xbe8eb9ed	-0.27876225
91	0x3f16fa01	0.58975226
92	0xbf932bf6	-1.1497791
93	0x3eafe47c	0.34354007
94	0xbf8dd1e6	-1.1079681
95	0xbf1f99c1	-0.62343985
96	0x3f174ebc	0.59104514
97	0x3ee22824	0.4417125
98	0xbeaaae2b	-0.33336005
99	0xbe4933a5	-0.19648607
100	0x3e97a4f5	0.2961804
101	0x3f1730b3	0.59058684
102	0x3f4e0362	0.8047391
103	0xbec8e7fc	-0.3923949
104	0xbf1dc5c0	-0.6162987
105	0x3bfe90a2	0.0077687064
106	0x3e2b82d7	0.1674913
107	0xbefedc80	-0.49777603
108	0xbec81371	-0.39077333
109	0x3e9cfad6	0.30660123
110	0xbda3ace9	-0.07991964
111	0x3eae74d1	0.340735
112	0x3e3b671a	0.18301049
113	0xbf205d5a	-0.62642443
114	0x3f09251b	0.53572243
115	0x3aa7f619	0.0012814432
116	0xbeff5964	-0.49872887
117	0xbc2a23bd	-0.010384497
118	0x3f685845	0.9075969
119	0x3f02c1ea	0.5107714
120	0x3ed122c1	0.40846828
121	0xbf99a79d	-1.2004277
122	0x3eda4113	0.42627773
123	0xbe789c89	-0.24278463
124	0xbdee0dc1	-0.11623717
125	0x3f345318	0.7043929
126	0x3d90109c	0.07034418
127	0xbed60caa	-0.41806537
128	0xbbec61b1	-0.007213794
129	0xbeb944df	-0.36185357
130	0x3c8b6f75	0.01702092
131	0xbf77a560	-0.9673672
132	0x3f3ec6eb	0.74522275
133	0x3f3e7b07	0.74406475
134	0xbf7bbf52	-0.98338807
135	0xbe45b451	-0.19307067
136	0x3da76579	0.08173651
137	0x3eda9b09	0.42696407
138	0xbe9b70e6	-0.30359572
139	0xbe8eb3bf	-0.2787151
140	0xbf4a2a26	-0.78970563
141	0x3dc3825a	0.09546347
142	0x3e9a4e52	0.3013788
143	0xbe9ea6d7	-0.30986664
144	0x3ef118a1	0.47089103
145	0xbef53fdd	-0.47900286
146	0x3bf58b18	0.007493388
147	0xbb9c07aa	-0.004761656
148	0x3ddd30a2	0.108002916
149	0x3cc221be	0.02369773
150	0xbe46ee65	-0.19426878
151	0xbe9149b1	-0.28376535
152	0xbda17f6d	-0.07885633
153	0x3d72044e	0.059086137
154	0xbeeb238b	-0.45925555
155	0xbddda1b0	-0.10821855
156	0xbf2c0558	-0.67195654
157	0x3d07373b	0.033011656
158	0xbd3315f6	-0.043722115
159	0x3bff8d91	0.0077988585
160	0x3e9f846b	0.31155714
161	0xbbee2d2c	-0.0072685685
162	0x3e08185d	0.13290544
163	0x3e844173	0.25831184
164	0xbe8e725d	-0.27821627
165	0x3db7ea32	0.08980216
166	0x3e0d94bc	0.13826269
167	0x3ea75f3b	0.32689843
168	0x3eaa4158	0.33252978
169	0xbf32e0e5	-0.6987441
170	0xbe5a9e63	-0.21349482
171	0x3e743903	0.23849873
172	0xbe51d480	-0.20491219
173	0x3e49a1f3	0.19690685
174	0x3ed0d1b7	0.40785
175	0x3dc654c8	0.096841395
176	0xbec0c86e	-0.37652916
177	0xbdf2d5b2	-0.118571654
178	0xbf1cde34	-0.61276555
179	0x3dc91599	0.098185726
180	0xbf320d6d	-0.69551736
181	0xbe62bd07	-0.2214242
182	0xbdcb29d1	-0.09920085
183	0xbf29465b	-0.6612298
184	0xbec0ac6d	-0.3763155
185	0x3f3e8e1e	0.74435604
186	0xbe86fe04	-0.26365674
187	0x3d7140ce	0.058899693
188	0xbf624da8	-0.88399744
189	0xbe5d45a6	-0.216086
190	0x3eed0de6	0.46299666
191	0x3ea3c6e5	0.31987682
192	0xbcfded99	-0.030997084
193	0xbd8cde7b	-0.06878372
194	0xbe630087	-0.2216817
195	0xbdbb0ef5	-0.09133712
196	0xbe86aadc	-0.2630223
197	0xbe8f041f	-0.27932832
198	0x3e183290	0.14863038
199	0xbf1704a8	-0.5899148
200	0x3e1d2a24	0.15348107
201	0x3e2a7cef	0.16649221
202	0x3e694746	0.22781095
203	0xbe40c451	-0.18824889
204	0x3f0f95fb	0.5608823
205	0xbdb61970	-0.088915706
206	0xbeb8566b	-0.36003432
207	0xbe605770	-0.21908355
208	0x3e0db209	0.13837446
209	0xbf1bb6ee	-0.60826004
210	0x3d4e4594	0.050359324
211	0xbe5cc817	-0.21560703
212	0xbeaed6d1	-0.34148267
213	0x3ee4cdbd	0.44688216
214	0xbf58b9b8	-0.84658384
215	0xbf4f758b	-0.8103873
216	0xbe1bbaaa	-0.15207925
217	0x3f1286f9	0.572372
218	0xbf4d5425	-0.8020652
219	0xbd0e3da6	-0.03472676
220	0xbef6965f	-0.481616
221	0x3f20eb82	0.62859356
222	0xbf21ee94	-0.63254666
223	0x3e5fadaa	0.21843591
224	0x3e47fa75	0.19529136
225	0x3f8771d4	1.0581613
226	0xbf287088	-0.6579671
227	0xbeca75fe	-0.39543146
228	0x3daf108c	0.08548078
229	0x3cf9f4b2	0.030512188
230	0x3f2b62d4	0.66947675
231	0x3e958ba6	0.29208106
232	0x3ee4b5b0	0.44669867
233	0xbd03e3db	-0.03219972
234	0x3eda2036	0.426027
235	0x3ea58f03	0.32335672
236	0xbd8c3744	-0.068464786
237	0xbcdea2de	-0.02717727
238	0x3f099e7d	0.5375746
239	0x3ef94663	0.48686513
240	0x3e98a2de	0.29811758
241	0xbe6651de	-0.22492167
242	0xbed1561d	-0.40886012
243	0xbc484ce1	-0.012225361
244	0xbe8d817a	-0.27637845
245	0x3e328ad9	0.17435779
246	0xbf9818e6	-1.1882598
247	0xbe604afb	-0.21903603
248	0xbe81d1b4	-0.25355303
249	0xbf34264d	-0.7037094
250	0xbe049c02	-0.12950137
251	0x3e84d2ae	0.25941986
252	0x3f37ca89	0.7179342
253	0x3e478f80	0.19488335
254	0x3f3a1b15	0.72697574
255	0x3ea59b5a	0.32345086

fc3.bias f4 [4]
0	0x3da7f40d	0.08200846
1	0x3dd156a9	0.10221607
2	0xbe71e728	-0.23623335
3	0x3e036d13	0.12834577

head.weight f4 [128, 23]
0	0xc01ec5f7	-2.4808328
1	0xbf7db8b2	-0.9910995
2	0xbf88d324	-1.0689435
3	0x40481627	3.126352
4	0xbe219cb9	-0.15782441
5	0xbe02f84f	-0.12790035
6	0x3dacbe1e	0.084346995
7	0x3f1b3c5e	0.6063899
8	0x3f0c2d62	0.5475675
9	0x3f22d1d3	0.63601416
10	0x3c4e57ef	0.012594207
11	0x3e3d7b85	0.1850415
12	0xbdda25f6	-0.10651772
13	0xbc5e8012	-0.013580339
14	0xbe0a43cc	-0.13502425
15	0x3ccde06e	0.02513143
16	0xbee5ac07	-0.4485781
17	0x3e5d2bfb	0.21598808
18	0x3e67992c	0.22617024
19	0xbc03ead2	-0.008051591
20	0xbd18c76b	-0.037299555
21	0xbcb69a26	-0.0222903
22	0x3d0a966f	0.03383487
23	0x3d1c8013	0.03820808
24	0x3ba3b6e0	0.0049961656
25	0x3e30e249	0.17273821
26	0xbef7808d	-0.48340264
27	0x3e479b3e	0.19492814
28	0x3cef6bb0	0.029226154
29	0xbedfa126	-0.43677634
30	0xbf762a2e	-0.9615811
31	0xbed9af69	-0.4251664
32	0xbf002e93	-0.50071067
33	0xbdeb8ad4	-0.11501089
34	0xbde8c913	-0.11366477
35	0xbd7abd88	-0.061215907
36	0xbbd3ce03	-0.0064637675
37	0xbe095d81	-0.13414575
38	0xbdad4974	-0.08461276
39	0xbe99200d	-0.29907265
40	0xbe713c7c	-0.23558229
41	0xbf0d3beb	-0.5516955
42	0x3d780b78	0.060557812
43	0xbb38e88c	-0.002821478
44	0xbcccae22	-0.024985377
45	0xbd2242be	-0.03961443
46	0x3eb9a892	0.3626142
47	0x3e5ed92e	0.21762535
48	0xbdb74640	-0.08948946
49	0x3ef1b20b	0.47206149
50	0x3e5205e5	0.20510061
51	0xbe662fc1	-0.22479154
52	0xbeda8215	-0.4267737
53	0x3f46b87d	0.77625257
54	0x3e60cbe8	0.21952784
55	0xbe63ea43	-0.22257333
56	0xbda2ef63	-0.07955816
57	0x3e03e8a6	0.12881717
58	0x3de26937	0.110552244
59	0x3b949a76	0.0045350147
60	0x3c6c487c	0.0144215785
61	0x3cc28a9f	0.02374774
62	0xbdf25483	-0.118325256
63	0xbaaf20b5	-0.0013361188
64	0xbd4cf575	-0.050038774
65	0xbbfce197	-0.007717322
66	0xbc9c7cf5	-0.019102553
67	0xbd176bc4	-0.036968008
68	0x3db065de	0.086131796
69	0xbf4bd369	-0.7961946
70	0xbe5951e2	-0.21222642
71	0xbea70191	-0.32618383
72	0x3f852a3b	1.0403513
73	0x3cbc9d9c	0.023024373
74	0x3e3c909d	0.1841454
75	0x3bdbcfd0	0.006708123
76	0xbd55e4c3	-0.052220117
77	0x3a803c9b	0.0009783687
78	0xbeac11cc	-0.33607328
79	0x3de7505a	0.11294623
80	0xbe5b9370	-0.21442962
81	0xbe57389a	-0.21017686
82	0xbe2ceb10	-0.16886544
83	0xbe11ef05	-0.14251335
84	0x3e75ef7e	0.2401714
85	0x3e4f693c	0.20254987
86	0xbefb31b1	-0.4906135
87	0xbeb2de51	-0.3493524
88	0x3cc961d0	0.024582773
89	0x3dab368d	0.08360014
90	0x3cd2537c	0.025674574
91	0xbdfb3a28	-0.12266952
92	0xbeb371b3	-0.35047683
93	0xbce2f9b4	-0.027706958
94	0xbe12ab30	-0.14323115
95	0xbf0ecd0a	-0.55781615
96	0xbd9bd12d	-0.076082565
97	0xbd38f1b6	-0.04515239
98	0x3e1a6522	0.15077642
99	0xbf4936cd	-0.78599244
100	0xbed8c307	-0.42336294
101	0xbe01a599	-0.12660827
102	0xbd98ae92	-0.07455172
103	0xbe3ecb0f	-0.18632148
104	0xbdedbde2	-0.11608483
105	0xbce9152b	-0.028452476
106	0xbbae63ef	-0.0053219716
107	0x399694f2	0.00028721202
108	0xbe062716	-0.13100848
109	0xbdc7a91a	-0.097490504
110	0x3d362e8c	0.044477984
111	0xbd0a4ae8	-0.033762842
112	0xbc56a7a1	-0.013101489
113	0xbd2292f7	-0.039690938
114	0x3dcb2771	0.09919632
115	0xbab67e44	-0.0013923128
116	0xbd8bcfa1	-0.068267114
117	0xbf3a9ea5	-0.7289832
118	0x3f6c160b	0.92221135
119	0x3e7bc784	0.24587828
120	0xbc8aa3ef	-0.016923873
121	0xbe602214	-0.21888
122	0xbe960213	-0.29298458
123	0xbf0d71dd	-0.55251867
124	0xbf8a62b5	-1.0811373
125	0xbe1e5607	-0.15462504
126	0x3cdacb88	0.02670838
127	0xbd460bb7	-0.048351016
128	0xbdb17287	-0.086644225
129	0x3da776af	0.08176934
130	0x3de0d88c	0.10978803
131	0xbca97504	-0.02068568
132	0x3daa2a8b	0.08308896
133	0xbe5888c0	-0.21145916
134	0x3e0164e0	0.12636137
135	0x3d4ef8f9	0.050530408
136	0x3dd4bff3	0.10388174
137	0xbeabbd28	-0.33542752
138	0xbd994128	-0.07483131
139	0xbcec9d42	-0.02888358
140	0xbe5d3e46	-0.21605787
141	0x3e6e0c96	0.23246989
142	0x3de29a05	0.11064533
143	0x3c86d45e	0.016458686
144	0xbe24f0b5	-0.16107447
145	0x3e901bff	0.2814636
146	0x3d289727	0.041159775
147	0xbee1ed5a	-0.44126397
148	0xbce515cd	-0.027964497
149	0x3dbc123f	0.09183168
150	0xbe80b5b9	-0.25138643
151	0xbcc7f9ae	-0.024411049
152	0xbd8a8512	-0.067636624
153	0x3c95a55e	0.01826733
154	0xbd6fb7cb	-0.058524888
155	0xbe9bf06d	-0.30456868
156	0xbe69c018	-0.22827184
157	0x3d042470	0.032261312
158	0x3d12e63b	0.035864096
159	0xbdd28bb2	-0.10280551
160	0x3c9aee9c	0.018912606
161	0xbe87ad2b	-0.26499304
162	0x3cc3aa51	0.023884924
163	0x3df88d16	0.12136285
164	0x3d4951b0	0.04915017
165	0xbecb3f38	-0.3969667
166	0x3e59887b	0.2124347
167	0xbe80b6c8	-0.2513945
168	0x3e3a5284	0.1819554
169	0x3af76331	0.0018874166
170	0xbbfa9b92	-0.00764794
171	0x3ca20426	0.019777369
172	0xbe559f10	-0.20861459
173	0x3dca4063	0.09875562
174	0x392ac316	0.00016285139
175	0xbd883260	-0.06650233
176	0xbe207c98	-0.15672529
177	0x3e2e588c	0.17025965
178	0x3d3943a8	0.045230538
179	0xbec7b136	-0.3900239
180	0x3c25db0e	0.0101230275
181	0x3b923948	0.004462395
182	0xbc8de270	-0.017319888
183	0x3b3631c0	0.002780065
184	0x3dda2319	0.106512256
185	0x3ccef62e	0.025263872
186	0x3ed0712c	0.40711343
187	0xbee45c21	-0.4460154
188	0xbe7101a8	-0.23535788
189	0x3d80edee	0.062953815
190	0x3c17672e	0.009240909
191	0xbf7ed517	-0.995439
192	0xbf97b727	-1.1852769
193	0xbfa45045	-1.2836996
194	0x3de70b40	0.11281443
195	0x3d8cfef2	0.068845645
196	0xbc763884	-0.015028123
197	0xbcf8b932	-0.030361746
198	0xbd918397	-0.07105177
199	0x3d8410f4	0.06448546
200	0xbdcf245f	-0.10114359
201	0xbe38193b	-0.17978375
202	0xbca92dac	-0.02065166
203	0x3d087605	0.033315677
204	0xbce13424	-0.027490683
205	0x3d0b7865	0.034050364
206	0xbd937ce6	-0.07201557
207	0xbe9b8241	-0.30372813
208	0xbf9df66e	-1.2340829
209	0xbec651f6	-0.38734406
210	0x3eea2499	0.45731047
211	0xbdebf568	-0.11521417
212	0x3e402e7b	0.18767731
213	0x3df91134	0.12161484
214	0xbf3f47d1	-0.7471896
215	0xbecf8a1a	-0.4053505
216	0x3cd6407d	0.026153797
217	0xbdcd2aa9	-0.100179024
218	0xbc2c5422	-0.010518106
219	0x3cdf3e27	0.027251316
220	0xbc53e034	-0.012931872
221	0xbd151627	-0.03639808
222	0x3c119570	0.008885726
223	0xbaa991d9	-0.0012937143
224	0xbe3f202a	-0.18664613
225	0xbd080449	-0.03320721
226	0x3d425c15	0.047451098
227	0xbd98377e	-0.07432459
228	0x3d76372e	0.060111217
229	0xbd9ee082	-0.07757665
230	0xbf5b8cab	-0.8576152
231	0x3f5b3bb5	0.8563798
232	0xbeae2d26	-0.3401882
233	0x3fb67092	1.4253104
234	0x3e33a498	0.17543256
235	0x3e48565c	0.19564193
236	0xbda03721	-0.07823015
237	0xbf61ad18	-0.88154745
238	0xbf5d0787	-0.8633961
239	0xbf361a6d	-0.7113407
240	0xbd54015f	-0.05175912
241	0xbd506db6	-0.05088588
242	0xbe9b8e4e	-0.30382007
243	0x3c43c91b	0.011949803
244	0x3d734cf9	0.05939958
245	0x3c5bda00	0.0134186745
246	0x3c7c9dfb	0.015418525
247	0xbdbef269	-0.0932358
248	0xbe95e83e	-0.2927875
249	0xbe2631d9	-0.16229953
250	0xbcac96d3	-0.021068012
251	0xbbb1f32f	-0.005430601
252	0x3e442610	0.19155145
253	0x3e7a60a3	0.24450926
254	0x3e31a4dc	0.17348045
255	0x3ddf9ca7	0.10918551

head.bias f4 [128]
0	0x3c4ef753	0.012632209
1	0x3e0da05b	0.13830702
2	0x3ea1a704	0.31572735
3	0xbe37aa20	-0.17935991
4	0xbe86dd35	-0.26340643
5	0xbe1d0f0b	-0.1533777
6	0x3e037c17	0.12840305
7	0xbce24ec8	-0.027625456
8	0x3df82c08	0.12117773
9	0xbe4c13a2	-0.19929364
10	0xbd1dd7ab	-0.038535755
11	0x3eac7e5b	0.33690152
12	0xbd037051	-0.032089535
13	0x3c7a4705	0.015275721
14	0xbec7c093	-0.3901411
15	0x3dac9a1b	0.08427831
16	0xbd9a77c5	-0.075423755
17	0xbdae4948	-0.08510071
18	0xbcf1d620	-0.029521048
19	0xbde106a6	-0.10987596
20	0xbe975503	-0.29557046
21	0xbbbcfa0c	-0.0057671126
22	0x3cab64d6	0.020922106
23	0x3e1bd401	0.15217592
24	0x3d86f56f	0.065897815
25	0x3d458a29	0.048227463
26	0xbd382653	-0.044958424
27	0xbe213ba3	-0.15745406
28	0x3cbd181e	0.023082789
29	0xbd90cf7b	-0.07070824
30	0xbe3225e9	-0.17397274
31	0x3d6f92ce	0.058489613
32	0xbcc5fac5	-0.024167428
33	0x3df56e83	0.11983969
34	0xbe1243cf	-0.1428368
35	0x3c3efdef	0.011657222
36	0xbe35a654	-0.1773923
37	0xbcf6b32a	-0.030114729
38	0xbed595cb	-0.41715845
39	0x3e6a87a7	0.2290331
40	0xbe98a8f9	-0.29816416
41	0x3dbfdbdf	0.09368109
42	0x3dc83f77	0.0977773
43	0xbda559e5	-0.08073787
44	0x3d948200	0.07251358
45	0x3e290aae	0.1650798
46	0xbd5b49ed	-0.053537298
47	0xbe91110d	-0.2833332
48	0x3e0d5269	0.13800968
49	0x3eca39cf	0.3949723
50	0x3d4b100d	0.049575854
51	0x3df28924	0.11842564
52	0x3d68d373	0.05684228
53	0xbe84f100	-0.25965118
54	0xbef5d8a7	-0.48016855
55	0x3dff60f4	0.12469664
56	0x3e39e307	0.1815301
57	0x3d5ec026	0.054382466
58	0xbd6c17f8	-0.057640046
59	0x3c0fc190	0.008774176
60	0x3d985b15	0.074392475
61	0x3d02130e	0.031756453
62	0xbe28fba5	-0.16502245
63	0xbe38f1ab	-0.18060939
64	0xbe9bb74e	-0.30413288
65	0x3e9da1b9	0.30787447
66	0x3d7f14a3	0.06227554
67	0x3d061269	0.0327324
68	0x3c43d729	0.011953154
69	0x3de70c00	0.11281586
70	0x3e3100c6	0.17285451
71	0x3e482fa5	0.19549425
72	0x3d933eb1	0.07189692
73	0xbe209d5c	-0.15685028
74	0xbd1c52b0	-0.038164794
75	0x3d6ddeab	0.05807368
76	0x3e07598c	0.13217753
77	0xbe50625a	-0.20350018
78	0x3c947f53	0.01812712
79	0x3defc368	0.11707193
80	0x3e6d7328	0.2318846
81	0x3d3bc6c2	0.045843847
82	0xbdc5e456	-0.09662692
83	0x3da32669	0.079663105
84	0xbe004aeb	-0.12528579
85	0x3ea50702	0.3223191
86	0x3e20f539	0.15718545
87	0x3e3a7777	0.18209635
88	0x3dd5bc48	0.104363024
89	0xbe255a48	-0.16147721
90	0x3e1c2394	0.15247947
91	0xbeb2fd0d	-0.34958687
92	0xbd6a75f3	-0.05724139
93	0xbe8cd05e	-0.27502722
94	0xbe30e007	-0.1727296
95	0x3eb4c6af	0.35307834
96	0x3dd6bbdc	0.1048505
97	0x3d07bde4	0.03314008
98	0xbd83ba5d	-0.0643203
99	0xbd19b787	-0.03752854
100	0x3dd7ce4a	0.105373934
101	0xbe38e033	-0.18054275
102	0x3d524ff6	0.051345788
103	0xbe7c22ea	-0.24622694
104	0x3e1e32dd	0.1544909
105	0x3e7d6727	0.24746381
106	0x3eae4444	0.34036458
107	0x3d474a5d	0.048654903
108	0x3c4849a7	0.012224591
109	0x3e40f805	0.18844612
110	0xbe01d993	-0.12680654
111	0x3e3a643b	0.18202297
112	0xbda63578	-0.08115667
113	0x3df86b8f	0.1212989
114	0xbbfc13f7	-0.0076928097
115	0x3ec51c02	0.3849793
116	0xbeed7a20	-0.46382236
117	0xbda4996f	-0.08037078
118	0xbe18800f	-0.148926
119	0x3daf0050	0.085449815
120	0x3a5bb3d8	0.0008380986
121	0x3e4beb41	0.19913961
122	0xbe1ee1d1	-0.1551583
123	0x3c5b6648	0.013391085
124	0xbc73fb83	-0.014891508
125	0x3ccc15f0	0.024912804
126	0xbe403a05	-0.18772133
127	0x3e9c26bb	0.304983

cos_embedding.weight f4 [128, 64]
0	0xbb3f1cdf	-0.0029161496
1	0xba9fc462	-0.0012189264
2	0xb9c4030a	-0.00037386297
3	0xba482eb4	-0.0007636354
4	0xba0bd167	-0.00053336326
5	0x3987f0a2	0.00025928492
6	0xba133ae3	-0.000561638
7	0xbaac6c03	-0.0013154749
8	0xba33c2b3	-0.00068573205
9	0xba11cc13	-0.00055617205
10	0x38f99ee3	0.0001190284
11	0xba8a0105	-0.0010528868
12	0xba948fc0	-0.0011334345
13	0xba2b3e8e	-0.00065324537
14	0xba37162d	-0.00069842004
15	0xba172a94	-0.00057665375
16	0x37d67160	2.5563582e-05
17	0x3a4f37ff	0.00079047674
18	0xbaa9d6de	-0.0012957712
19	0xba0d7499	-0.00053960975
20	0x3ae7348e	0.0017639564
21	0x3ae3bd68	0.0017375173
22	0xb94cecc9	-0.00019543165
23	0xba22febe	-0.0006217769
24	0xba12c6f2	-0.0005599103
25	0xba75ce51	-0.0009376752
26	0x3a91674d	0.0011093408
27	0x3a1599ce	0.00057068176
28	0x39647fc8	0.00021791377
29	0x3a8b994b	0.0010650543
30	0xba47bace	-0.00076190836
31	0x3b0f5d88	0.0021875817
32	0x3a15025f	0.0005684252
33	0x3a125a29	0.0005582893
34	0xb99ca742	-0.00029879255
35	0xba3b247a	-0.00071389193
36	0xb87d3d01	-6.0376715e-05
37	0xbb0a4b37	-0.002110196
38	0x3a8efaed	0.0010908522
39	0x3a3e2690	0.0007253671
40	0x3ad093ce	0.001591319
41	0x39fd8267	0.00048353078
42	0xb9acbe10	-0.00032948004
43	0xb9e2198e	-0.0004312512
44	0x385968de	5.1834497e-05
45	0xb9a88860	-0.00032145064
46	0xba291603	-0.00064501184
47	0x37599cdc	1.297073e-05
48	0x3ae4a87d	0.0017445233
49	0x3b068791	0.0020527581
50	0xba3007d6	-0.0006715035
51	0x3a215624	0.00061544986
52	0xb9e63986	-0.00043911877
53	0xba2ce9ea	-0.0006596135
54	0xba12be88	-0.00055978494
55	0x3a29c450	0.0006476091
56	0xba596dc9	-0.00082942523
57	0xba4ce057	-0.00078154117
58	0xb9b08103	-0.00033665457
59	0x3a608c79	0.0008565854
60	0xb9a62468	-0.00031689112
61	0x3a0514f0	0.00050766673
62	0xba54541c	-0.00080996915
63	0xb95a008d	-0.00020790305
64	0x3a433692	0.0007446791
65	0xbaa911ab	-0.0012898942
66	0x3a0e28f0	0.000542297
67	0x3b6bce09	0.003598096
68	0x3a7df217	0.0009687258
69	0x3af5164f	0.0018698665
70	0x3b254287	0.0025216655
71	0x39393d42	0.00017665795
72	0x3aad3695	0.0013215119
73	0x3a827f4e	0.0009956153
74	0x3a5cd12a	0.0008423502
75	0x3aef7576	0.0018269259
76	0x39480e3a	0.00019078786
77	0x3af9adc1	0.0019048975
78	0x3b208803	0.0024495132
79	0x3aac1f0a	0.0013131809
80	0x3b70ed38	0.0036762487
81	0xb8910f72	-6.917016e-05
82	0x39a1b886	0.00030845794
83	0x3ad77efc	0.0016441043
84	0x39cdb5a8	0.0003923599
85	0x39f763e4	0.00047185936
86	0x39feae92	0.0004857672
87	0x3b2279e3	0.0024791888
88	0x3a0d1f99	0.00053834316
89	0x3b286415	0.002569442
90	0xba8a3cc0	-0.0010546669
91	0x39fabeba	0.00047825818
92	0xbaf4ecfc	-0.001868635
93	0xb93cad4a	-0.00017993632
94	0x3a5bcba1	0.000838453
95	0x3ae3f7f3	0.001739262
96	0x39be3230	0.00036277017
97	0x3aaa4b2e	0.0012992376
98	0xb8c9e12e	-9.62637e-05
99	0xbb4691c1	-0.0030299278
100	0x383dc016	4.5240005e-05
101	0x39304a30	0.00016812305
102	0xba40e80c	-0.00073587964
103	0x39c28426	0.00037101022
104	0x39090d90	0.0001307039
105	0xba3d6804	-0.00072252774
106	0xbac4b75e	-0.0015008261
107	0xb9c71df1	-0.00037978546
108	0x38e96018	0.00011128205
109	0xbab190d4	-0.001354719
110	0x3ad72bec	0.0016416288
111	0x392f29c7	0.00016704864
112	0xba799a66	-0.00095216034
113	0xba90a95d	-0.0011036802
114	0x38f68271	0.00011754491
115	0x3a76fec5	0.0009422119
116	0xbb2f1a95	-0.0026718725
117	0xbaa8ac01	-0.0012868644
118	0xbaae97c2	-0.0013320374
119	0xbb006ba1	-0.0019595402
120	0xbb212841	-0.0024590644
121	0xbab360db	-0.0013685481
122	0x3b12ac82	0.0022380655
123	0xba9ee4bf	-0.0012122615
124	0x3a083774	0.00051962514
125	0x3b3f57bb	0.0029196579
126	0xba25781c	-0.0006312148
127	0xbabbb13c	-0.0014319788
128	0xbe5cf285	-0.21576889
129	0xbe3f6726	-0.18691692
130	0xbe1f59e7	-0.15561639
131	0xbde11fa5	-0.10992364
132	0xbd821c63	-0.063530706
133	0xbc74ac3a	-0.01493364
134	0x3d0a39a0	0.03374636
135	0x3d9fd078	0.07803434
136	0x3de8a987	0.1136046
137	0x3e0fa97b	0.14029495
138	0x3e1e1cde	0.154407
139	0x3e1d2ad1	0.15348364
140	0x3e1a7da4	0.1508699
141	0x3e07f6bd	0.13277717
142	0x3de631c7	0.11239963
143	0x3dad6e01	0.08468247
144	0x3d56bc89	0.052425895
145	0x3cc6929d	0.024239833
146	0xbb1d3503	-0.0023987896
147	0xbcca1bdc	-0.024671488
148	0xbd2dce62	-0.04243315
149	0xbd6f38f2	-0.058403917
150	0xbd6fd6aa	-0.05855433
151	0xbd850b35	-0.06496278
152	0xbd81df08	-0.06341368
153	0xbd66384e	-0.05620604
154	0xbd379d45	-0.04482772
155	0xbd0f2b83	-0.034953605
156	0xbccaadc1	-0.024741055
157	0xbc42bf80	-0.0118864775
158	0xbb264b8f	-0.0025374626
159	0x3bce35b3	0.0062930225
160	0x3c77342b	0.015088121
161	0x3cad9052	0.021186981
162	0x3cdbe443	0.026842242
163	0x3cfd7428	0.030939177
164	0x3d0155f5	0.031576116
165	0x3ce79fff	0.028274534
166	0x3cd74618	0.02627854
167	0x3cba2b94	0.022725858
168	0x3c9717f0	0.018444031
169	0x3c5f40e2	0.013626309
170	0x3c11b902	0.008894207
171	0x3a057933	0.00050916075
172	0xbb5d0fab	-0.0033731263
173	0xbbb04362	-0.0053791264
174	0xbc43a25c	-0.011940565
175	0xbc6dfc1b	-0.014525439
176	0xbc66cafb	-0.01408648
177	0xbc7f378b	-0.015577207
178	0xbc878a58	-0.01654546
179	0xbc74a0e8	-0.014930941
180	0xbc471f3c	-0.012153443
181	0xbc37c018	-0.011215232
182	0xbc09524c	-0.0083814375
183	0xbbeea9f1	-0.007283442
184	0xbb4b75c4	-0.0031045536
185	0xbbb417d9	-0.005496007
186	0x3a597f78	0.00082968874
187	0x3adfe12f	0.001708066
188	0x3ab01a34	0.0013435544
189	0x3a8bc4e9	0.0010663542
190	0x3b3ca7c9	0.0028786531
191	0x3a2b5697	0.0006536035
192	0x39e2132a	0.00043120357
193	0xba38c5a9	-0.00070484966
194	0xba0c162e	-0.0005343881
195	0xbad0b7db	-0.0015923934
196	0x3a3827f3	0.0007024996
197	0x3a203bae	0.00061124086
198	0xba9a2e81	-0.0011763127
199	0x3af1f860	0.0018460862
200	0x3a015bbd	0.00049346295
201	0xbb135c4c	-0.0022485433
202	0x399d058e	0.00029949512
203	0xbb451416	-0.0030071787
204	0xb9912067	-0.00027680697
205	0x3b0e5ba7	0.002172211
206	0xbaa9f548	-0.0012966776
207	0x395ed1c4	0.00021249714
208	0x3a84e677	0.0010139485
209	0xba792afd	-0.0009505002
210	0x3a83f885	0.0010068571
211	0x381872ae	3.6346428e-05
212	0x39cab3e0	0.0003866246
213	0x3a471c62	0.0007595477
214	0xb9d6e5b2	-0.00040988397
215	0xba1c1013	-0.0005953323
216	0xba9831e2	-0.0011611546
217	0x38094f66	3.273729e-05
218	0x3a1c3ad7	0.00059596956
219	0x39880e1e	0.0002595046
220	0x3ab07a10	0.0013464112
221	0xba4523f1	-0.00075203093
222	0x3a60bb2d	0.0008572813
223	0xb8ee944d	-0.000113763475
224	0x397dca3d	0.000242033
225	0x398891ba	0.00026048516
226	0xba2b74bb	-0.00065405265
227	0x3ad8f61b	0.0016552837
228	0xba9626b6	-0.0011455629
229	0x39828324	0.0002489324
230	0xba4a5b3a	-0.00077192823
231	0xba21d2a9	-0.00061730534
232	0x3b24ec65	0.0025165316
233	0xbaae7710	-0.001331063
234	0x39dc548b	0.0004202466
235	0x3a9f0b9a	0.0012134195
236	0xba627b8e	-0.0008639627
237	0xb8abc2a4	-8.19017e-05
238	0x3a5c3129	0.00083996594
239	0xba8dbefc	-0.0010814364
240	0x3a195e9c	0.0005850585
241	0x395ff910	0.0002135972
242	0xb9eb6fd0	-0.00044906
243	0x3a2c4f69	0.00065731123
244	0xb9b73a5a	-0.00034947955
245	0xba40393c	-0.00073327473
246	0xba72203c	-0.00092363707
247	0xb9eee947	-0.00045568703
248	0xb9ad1358	-0.00033011544
249	0x39892b6e	0.00026163034
250	0xba9778bd	-0.0011556369
251	0x3aa6946e	0.001270903
252	0x391f6066	0.00015199333
253	0x39b79b83	0.00035020345
254	0x3b04f2bb	0.002028628
255	0x3a04c2a8	0.00050644064

cos_embedding.bias f4 [128]
0	0x3e9a0667	0.3008301
1	0x3f0e31c1	0.5554467
2	0x3f04a7ca	0.51818526
3	0x3e93e0b9	0.28882387
4	0xbe3dbd49	-0.18529238
5	0x3e367373	0.17817478
6	0x3e3152db	0.17316763
7	0x3ed14e61	0.4088011
8	0xbdfb3dc8	-0.12267643
9	0xbc8344ca	-0.016024012
10	0xbd3404db	-0.043949943
11	0xbd8d5db7	-0.0690264
12	0x3e3757ae	0.17904541
13	0x3e5a8462	0.21339563
14	0x3ea2a956	0.31769818
15	0x3ee90695	0.45512834
16	0x3ee41ec2	0.44554716
17	0x3f26fbfb	0.6522824
18	0x3e6fb241	0.23407842
19	0x3e8c7b46	0.274378
20	0xbe8bc32f	-0.2729735
21	0xbe49bc79	-0.19700803
22	0x3eba8779	0.36431482
23	0xbdb63664	-0.08897093
24	0x3eeb965c	0.46013153
25	0x3ed5963d	0.41716185
26	0xbdfdecfb	-0.12398716
27	0x3d83af9a	0.06429978
28	0x3da5be3b	0.08092924
29	0x3ea6db4c	0.32589185
30	0xbccc3818	-0.024929091
31	0x3ec740b2	0.38916546
32	0xbe3b350f	-0.18281959
33	0x3c88e7fe	0.016712185
34	0x3ef584e3	0.47952947
35	0x3de809e4	0.113300115
36	0xbe077356	-0.13227591
37	0x3ddbab12	0.107259884
38	0xbe0e3b91	-0.1388991
39	0xbe41b54e	-0.18916818
40	0x3e53bb4c	0.20676917
41	0x3e5d175e	0.21590945
42	0xbe1d5577	-0.15364634
43	0xbe1c6a03	-0.15274815
44	0x3ea46fec	0.3211664
45	0x3eb5c064	0.35498345
46	0x3d4eba8f	0.050470885
47	0x3f156b2b	0.5836665
48	0xbe14d2b0	-0.14533496
49	0x3f1118dd	0.56678563
50	0xbd618b03	-0.055064213
51	0x3e8c365d	0.27385226
52	0x3e90fd8c	0.2831844
53	0x3e0231f5	0.1271437
54	0x3ea1f715	0.3163382
55	0xbe22437e	-0.15846059
56	0xbe069d59	-0.13145961
57	0xbe00fd79	-0.12596692
58	0xbe0c7b64	-0.13718945
59	0xbe3f7ee5	-0.1870075
60	0x3dbe0581	0.092783935
61	0x3ded1cf0	0.11577785
62	0x3d8b7d61	0.068110235
63	0x3ec6058a	0.386761
64	0x3e3aede3	0.18254809
65	0xbe5f20e7	-0.21789895
66	0x3ed1d8ee	0.40985817
67	0x3ddfe45c	0.10932228
68	0x3e7c2fad	0.24627562
69	0xbe09ecc8	-0.13469231
70	0xbde6c8d0	-0.11268771
71	0x3e77a2a9	0.24183144
72	0x3d077f26	0.033080243
73	0x3e8811c3	0.2657605
74	0x3e6ff1ee	0.23432133
75	0x3d69922e	0.057024173
76	0x3e5f4c8d	0.21806546
77	0x3eb66abe	0.35628313
78	0xbd9da95b	-0.076983176
79	0xbe59e33e	-0.21278092
80	0xbdbeb2f1	-0.09311474
81	0x3e8fc168	0.28077245
82	0x3f1b80d9	0.6074348
83	0x3e61b07d	0.22039981
84	0x3c34f635	0.011045028
85	0xbdba7ef8	-0.091062486
86	0x3ed05b32	0.40694577
87	0xbdd93d11	-0.106073506
88	0xbe294d88	-0.16533482
89	0xbd91a48b	-0.07111462
90	0xbe238cde	-0.15971705
91	0x3ebe1e00	0.37132263
92	0xbdaafdb0	-0.08349168
93	0x3ee48c41	0.44638255
94	0x3f073876	0.5282053
95	0x3e9b5bc4	0.3034345
96	0xb941effd	-0.00018495317
97	0x3e9de3aa	0.30837756
98	0x3df0afd7	0.11752289
99	0x3dc32ab8	0.09529632
100	0xbce8b49e	-0.028406437
101	0xbe3c9f98	-0.18420255
102	0x3ede0332	0.43361813
103	0xbcf37533	-0.02971897
104	0x3f294b35	0.6613038
105	0x3e9a4ac6	0.30135173
106	0x3e601906	0.21884546
107	0xbe30307b	-0.17205994
108	0x3e902d9a	0.2815979
109	0x3e76ebe2	0.2411342
110	0xbe868178	-0.26270652
111	0x3ec47e9c	0.38377845
112	0x3eb879d6	0.36030453
113	0xbe53ab5a	-0.20670834
114	0xbd3dbe04	-0.04632379
115	0xbb1e849d	-0.002418793
116	0x3e917522	0.28409678
117	0x3ef61dae	0.4806952
118	0x3f052882	0.52014935
119	0x3edd98e5	0.43280712
120	0x3d75774c	0.059928223
121	0x3e7d18fe	0.24716565
122	0x3e1ca823	0.15298514
123	0x3e732387	0.23744021
124	0x3b616855	0.0034394462
125	0x3e69284c	0.22769278
126	0xbe63a9e8	-0.22232783
127	0x3ed3a82b	0.4133924
