runs/Experiment1/BestModels/modelDistributedAlgoOldState_1_Tau500000480.pt (torch, 586621 bytes, 39 tensors)

fc1.weight f4 [128, 19]
00000000: 07cc fa3d 6e95 d33d cf92 23be 9059 543e
00000010: c418 c5be 7176 153e 4928 253d 4008 47bf
00000020: 266c 6abf 254d 52bf d6c4 1a3e 6218 103e
00000030: fd26 fd3d fedc 203e 2b8a a7be 7537 393e
00000040: 2922 51be 582d 0bbe 2458 26bc d7d0 383d
00000050: 128e eabc cda2 b3bc a396 063d b77d 86bd
00000060: 7126 6cbd 9238 cdbc 7502 ec3c 8b9a 0a3d
00000070: b859 53bd d5f6 753d 9440 103d 543b 2cbd
00000080: 1c60 6e3a 68a6 48bd 0299 1f3d 916e b53b
00000090: 3964 a9bd c8f7 16bd a176 6fbe 4fae a9be
000000a0: 08b1 75be a9a7 67be df58 f9bd 12a2 08be
000000b0: 7469 af3d 681c 193f d851 1a3f 4ab3 f33e
000000c0: 24ff 50be a3ce 86be 3837 acbe 7050 2abd
000000d0: 82b4 46bd ae58 b1be 66d6 893d 0302 fd3d
000000e0: 7aa3 6f3e ddd2 88bd fdee 32bd 5f16 d2be
000000f0: 03f0 623e 41a1 c43d 9208 c8be 7a0f 12be
00000100: 7850 a0be 95aa 89be 4d0b 05bf 3f5e 223e
00000110: a7b0 8c3d 0e26 c63c 1f09 a63e 4939 3f3d
00000120: 0afe 65be ddc0 86bd bc5d 333e 085f d73a
00000130: 3ce8 2bbd b2b4 cfbc 8077 193d 6b88 95bc
00000140: 5db6 bcbd 8ac9 d0bd 6e8d 1bbc 04b2 c33c
00000150: 1f28 08bd fd39 11bd 0fd7 823d eba4 133b
00000160: ded5 51bd f4f6 353d aefa 86bd 83e3 ec3b
00000170: 1ec3 c4bb a9e1 bebd a782 373d 48c6 efbd
00000180: 2b6b 243e 489d 1dbe bb82 c53d d529 aa3d
00000190: 891b f4be 99ed 63bc 3ed1 dfbc 28dc 7c3d
000001a0: 4322 893e e90f 5dba 07a5 703d 5c4a 5ebd
000001b0: 2730 363d b3aa 5abe 3056 d0bb 4a7e cd3e
000001c0: db9a a23e dd53 9a3e 9310 89be 62ff 3ebe
000001d0: 4a78 f53e 13e9 173d 0692 883e 0d0a 86bd
000001e0: b1c7 353d bcfa 82be 33cb 72be a331 88be
000001f0: 2155 093d a665 17be f062 2cbe 4278 aa3e
00000200: 9243 983d f922 c0bd a11c 20bf 13ba 25bf
00000210: 4e5b dbbe ca24 98bc a23e 29bc a58f 5fbd
00000220: f65e 993b b703 84bd 1d4a 8abd 9922 81bc
00000230: 6955 36bd abfb 70bd d1e5 df3c bc1b 4bbb
00000240: 9ec2 5a3c ebd3 81bc 2a43 633d 7195 92bd
00000250: e793 ea3c 9664 893d de78 4bbd 0496 84bc
00000260: 91f9 77bd 0dd6 92be 5840 f43d f2fb e5bd
00000270: f822 32bd 89a1 6bbd 174e e1bc 5d41 043f
00000280: 1140 fe3e 1364 083f 8099 af3d 13f2 b03d
00000290: 77a0 173a 2072 9c3e 1f5b aebd cddf 223e
000002a0: 03d8 6fbe f758 0fbf d0ab 5ebe db4b abbd
000002b0: 1a52 5ebc 2a0a 37be b9b2 213d 1f29 b2be
000002c0: bcdc 6d3e 5502 c5bd 3a15 f93e 2080 953e
000002d0: 20f7 ac3e 7933 8a3c d211 363e b5f9 3c3e
000002e0: 6ffd 623e 224f 8d3d 55e1 7ebd 974f a7be
000002f0: 3400 d7be ef03 f8be 77e9 91be ec60 6cbe
00000300: 7a9d 173e 4701 5dbe cf82 9cbe 9096 99be
00000310: 4f62 ca3d ba6e 813e 4f0a c33e a8a8 df3e
00000320: af2c 8dbd b55b 64bc c7af fabd e9fa cdbe
00000330: 17a6 823e 7d60 793e 3360 91bd fc3c ca3e
00000340: 477d af3e 8969 f7bd e64e 3b3e e468 73be
00000350: 4752 63be 73e7 ecbd 09dc a53c db57 5fbe
00000360: 4b42 3abf d3ec 49bf 0b33 70bf a0c6 e4bd
00000370: 2947 89bd 8b6e 18be 2f0b a1be 6096 343e
00000380: b0f4 b33d 8e41 bd3e 55c1 d83d 7491 653e
00000390: f395 d7bb a496 47be 070d 19be eca6 713e
000003a0: 1e82 cb3d cd86 00bf 5306 21be f408 f8be
000003b0: a2a1 fdbe d6de 24bf d98c f63d b353 0e3e
000003c0: 569a ec3c 17c5 8dbd d1e0 da3c b169 103d
000003d0: 9e36 8e3e e306 f6bb 98d5 8e3e f98c f13c
000003e0: c56d 043e e355 60be 4558 973d 7c42 a93e
000003f0: 5b25 60be e056 18be b4ad 95bf 1c86 a3bf
0.122459464 0.10331236 -0.15973972 0.2073729 -0.38495457 0.14595963 0.040321622 -0.77746964
-0.9157127 -0.82148963 0.1511415 0.14071801 0.12360952 0.15709302 -0.327226 0.18087561
-0.20423187 -0.13591516 -0.01015285 0.04512104 -0.028632198 -0.021928215 0.032858502 -0.06566947
-0.057653848 -0.025051389 0.028809765 0.03383879 -0.051599234 0.06004985 0.035217836 -0.042048767
0.0009093301 -0.048986822 0.03896428 0.005536862 -0.08271069 -0.036857396 -0.23385097 -0.331408
-0.23993313 -0.22622551 -0.12175154 -0.13343075 0.085650355 0.5980897 0.60281134 0.47597724
-0.20409828 -0.26329526 -0.3363588 -0.041580617 -0.04851199 -0.3463797 0.067303464 0.12353899
0.23402205 -0.06680844 -0.04368495 -0.41032693 0.2216187 0.09601069 -0.3906904 -0.14263716
-0.31311393 -0.26887956 -0.5197037 0.15856265 0.06869631 0.024188068 0.32428834 0.04668549
-0.2246019 -0.065797545 0.17516226 0.001643152 -0.041969523 -0.025354717 0.03746748 -0.018253526
-0.092144705 -0.101946905 -0.009494169 0.023888595 -0.033241387 -0.035455693 0.063886754 0.0022528719
-0.05122935 0.044424966 -0.06590782 0.00722927 -0.006004705 -0.09320385 0.044802334 -0.11707741
0.16056506 -0.1539203 0.096440755 0.0830876 -0.47677258 -0.013911628 -0.027321454 0.061733395
0.26783952 -0.0008432852 0.058751132 -0.054270133 0.044479515 -0.21354179 -0.0063579306 0.40135413
0.3175877 0.30142108 -0.26770458 -0.18652108 0.47943336 0.03708751 0.26673907 -0.06544886
0.044379894 -0.2558192 -0.23710327 -0.2660037 0.03352845 -0.1478487 -0.16834617 0.33294874
0.07434763 -0.093816705 -0.62543684 -0.6473705 -0.42843097 -0.01857223 -0.010329874 -0.05458035
0.0046805097 -0.06446021 -0.06752417 -0.015763568 -0.044515047 -0.05883376 0.027331265 -0.0030991873
0.013352064 -0.01584812 0.055483975 -0.0715741 0.028634978 0.06708638 -0.049675815 -0.016184814
-0.06054074 -0.28678933 0.11926335 -0.112296954 -0.04349038 -0.0575271 -0.027503056 0.51662236
0.49658254 0.532777 0.085742 0.08639922 0.0005784104 0.3055582 -0.08513474 0.15905686
-0.23422246 -0.55995125 -0.21745229 -0.08364078 -0.013569379 -0.17874971 0.039477084 -0.34796998
0.23228735 -0.096195854 0.48649007 0.29199314 0.3378229 0.016870247 0.17780235 0.1845463
0.2216699 0.06899859 -0.062226612 -0.3267791 -0.41992342 -0.484405 -0.28498432 -0.23083848
0.14806166 -0.21582519 -0.3056855 -0.29997683 0.09882032 0.2527979 0.38093802 0.43683362
-0.06893288 -0.01393788 -0.12240558 -0.40230492 0.25517341 0.24353214 -0.07098427 0.39499652
0.34275267 -0.12080676 0.18291816 -0.23770481 -0.22199355 -0.11567583 0.020246523 -0.21810858
-0.72757405 -0.7887699 -0.93827885 -0.11170697 -0.06703026 -0.14885919 -0.31453845 0.17635489
0.08786905 0.36964077 0.1058375 0.22418767 -0.0065791546 -0.19491059 -0.14946376 0.23598832
0.09936927 -0.5020569 -0.15725069 -0.4844433 -0.4953738 -0.6440252 0.12038583 0.13899116
0.028882187 -0.069223575 0.026718529 0.035257045 0.27776045 -0.007508145 0.27897334 0.029486166
0.12932499 -0.21907763 0.07389883 0.33058536 -0.2188925 -0.1487689 -1.1693635 -1.2775302

fc1.bias f4 [128]
00000000: e4cb 6bbc 134a 46be f41a a0be f15a debd
00000010: 14e8 15be d042 4f3d bedd 823d c565 00be
00000020: 411f 34be 0690 093e 7c16 a8be 62cf 273a
00000030: 3996 36be e6a8 3e3e 7aa4 15be d759 42be
00000040: 81e1 d0bd 4cfc 95be 3c1e eb3d 8f9a d5bd
00000050: 1ceb 11be c914 0f3e 494e 9c39 eef0 04be
00000060: f66e 433e 19b7 33bd c9d4 60be 46f0 1fbe
00000070: c276 c63d 6813 b6bc eab9 efbe 51dd d8bd
00000080: 1589 183e 7662 683d 3638 773d 1b04 433e
00000090: c952 36be ce4d 5abe 839a 4b3d ebab 403d
000000a0: 22a4 9c3d 5ba0 85be 9705 84be cc55 8cbe
000000b0: 3fa5 ba3b ece8 5f3e d90e 12be 3c1d 5abe
000000c0: 0c71 2ebd bbc8 0fbd 412c a1bd c2b8 e63d
000000d0: 9c0f 7aba 80b6 46be 913e 803e 92b3 66bd
000000e0: c520 a7be 92ec 1bbe ec54 253e a288 a23e
000000f0: 415d 2f3c 5754 5fbd 7df4 55be 1535 4cbe
00000100: 8f98 5b3d de45 7b3e 11b8 3bbd 9562 1ebe
00000110: a801 58bd 3fd1 183e d067 5f3c bd8a c9be
00000120: 35e8 06be 3329 e03e bd86 1c3e 871a 43be
00000130: dc7c 2dbe 1421 8cbe 03a5 6f3d aab0 0fbe
00000140: 4d92 14bc 6122 04be 89b5 2c3e 9bc7 94be
00000150: cda2 d1bd f842 19be 8ce4 0bbe 141e 26bd
00000160: 557a 0dbe 46db 62be f8bc 7f3e b13b 893d
00000170: 68bc 2b3d a9c9 4e3c 119f e9bd 5679 5dbe
00000180: 41ee 50be 6455 90be da41 c7bc fbc2 1cbd
00000190: 1662 a53d 72df c8bc aa27 1abe 475a 54be
000001a0: af46 713e a39b 2a3c 2e22 523e 74fb d03c
000001b0: 7c95 2a3e 34b3 3dbe c69e b4bd bb4e 763d
000001c0: 2a37 213e e9c1 a9be ff93 a53b 9c33 dbbd
000001d0: 73dc 3e3d 8fbb 72be 0ceb febc 0dcf babe
000001e0: fe1b dbbe 6930 2bbd 0d92 a3bd 8bef e73c
000001f0: f84f 193e 8ebc 6dbe 4f4b b4bc 8e7a a83e
-0.014391873 -0.19364195 -0.31270564 -0.108571894 -0.14639312 0.050600827 0.0638995 -0.12538822
-0.17590047 0.13433847 -0.32829654 0.0006401447 -0.17830743 0.18619117 -0.14613524 -0.18979584
-0.101992615 -0.2929405 0.11480376 -0.1042987 -0.14249843 0.13972773 0.00029812966 -0.12982532
0.19085297 -0.043875787 -0.21956171 -0.15619001 0.0969062 -0.02222605 -0.4682153 -0.10589088
0.14896043 0.056734525 0.06035634 0.19044535 -0.17805018 -0.21318743 0.0497079 0.047038954
0.07648493 -0.26098904 -0.25785515 -0.27409208 0.0056959684 0.21866196 -0.14263476 -0.21300215
-0.04258828 -0.03510354 -0.07869769 0.112657085 -0.0009539069 -0.19405556 0.25047734 -0.056323595
-0.3264219 -0.15226963 0.16145676 0.31744868 0.010703386 -0.054523792 -0.20894046 -0.19942124
0.053612288 0.24538371 -0.045829836 -0.15467294 -0.052735955 0.14923571 0.013635591 -0.3936366
-0.13174517 0.43781433 0.15285774 -0.19053088 -0.16942161 -0.27368987 0.058506977 -0.14032236
-0.009068084 -0.1290374 0.16866125 -0.29058537 -0.1023613 -0.14966953 -0.13661402 -0.04055603
-0.13816197 -0.22153959 0.2497443 0.06700838 0.041927725 0.012621322 -0.11407293 -0.21628317
-0.20403387 -0.28190148 -0.024323393 -0.038271885 0.08075349 -0.02452061 -0.15054193 -0.20737563
0.2356212 0.010413083 0.20520851 0.025510527 0.16658586 -0.18525392 -0.08819346 0.060133677
0.157437 -0.33155754 0.005053043 -0.10703203 0.046596956 -0.2370436 -0.031117938 -0.36486092
-0.42794794 -0.041794214 -0.07986841 0.028312465 0.14971912 -0.23216459 -0.022008566 0.32906002

fc2.weight f4 [128, 128]
00000000: 9218 b03e aac2 263c 0c45 68bf 55e3 4bbe
00000010: ce50 f53c efd7 b0be 1ae4 bcbe d249 3dbd
00000020: 1cdc 9ebe 4db1 8fbe 7461 c63e 3b78 1f3e
00000030: bbfa a93e 33fe 603e b268 89be 95ce efbd
00000040: c917 07bf 4245 6c3e 48b3 16bf 0b52 e8ba
00000050: 5c69 fc3e c8ae 14bd de48 863d 628b b63e
00000060: 7fbf 8638 af0b fabd 6e49 c1bc bfa1 f23c
00000070: e979 b3be dd8c 4ebe 8f35 63be 7327 05bf
00000080: fd1a 653d c08a 773b d604 efbd 2a9c 87bd
00000090: aab0 dcbe 844d 09be 65fd cf3e a798 d83d
000000a0: 6d47 19bb 357f afbe 66bf d03d 1bc6 053e
000000b0: 44ca 6bbd fe38 3ebe 6b6b 24be 5fa1 403f
000000c0: b8eb 20be 515c 8dbd c570 adbc 165d 2b3d
000000d0: 540b cdbe 6542 953e ccfe 883c 1ecd 53bd
000000e0: 7c79 973c 355c f23e 12b5 67be 5e74 343e
000000f0: 511c 72be a035 75bd 6d5e 91be 34bd 063d
00000100: 54ef 1bbf 55ae 8c3e 3092 023e 86e9 f4bd
00000110: c408 0ebf 72e3 a23e c657 22bd 7d3a 043f
00000120: 40a5 9fbd 230e 523e 83b4 2d3e 7d6a 91bc
00000130: 0800 233f 27d9 643e 71c4 99be 1a9a 343f
00000140: 7cca 003e 2cf5 683e a55d 483d d30f 0a3d
00000150: 1df1 f9bc 73ed 4bbd 2211 11be 2032 273d
00000160: a9ee 60be d08c c93e dd30 a33c 7284 52bf
00000170: 0616 d13c 683a a33d 9b63 75bf 88df a43d
00000180: 89b1 da3e ba67 48be df92 07bf 88a5 be3d
00000190: afcb 583c 8d85 333e 02b5 d93a e6db 7d3e
000001a0: 2457 803e 09ea 1abe c77c 73bc f707 5dbe
000001b0: 1006 453d bbc1 573c 0705 c6be c568 193e
000001c0: b1c5 203e 5a64 c33d 2303 663e ebfb 71bd
000001d0: 4bb6 8e3e 4820 d7be efb8 483e c6e4 75bd
000001e0: 327c 65bf d2cf 143d 68f6 77be 6909 f73e
000001f0: 7be1 58bd 935f 773d 59ff ac3e 59b5 943e
00000200: db6e 503e 1f36 283d dc52 b2be b071 183f
00000210: 05fe 9e3d 2f45 88be 8e81 833e 31f8 963d
00000220: 3c47 8f3e 4bea bd3e df98 dc3d 9078 dd3d
00000230: 5740 c0bd 5d04 86be 5dd5 2e3e ed5f 14be
00000240: 9030 5f3e 6fb3 69be 3c4c 30bf b9ab a43d
00000250: ed6e 69be 8e4c 183e 1d93 a1bd 7260 f2bd
00000260: b7ac 85bd 601e 0c3e d22b 17bc 7c27 3d3e
00000270: 1828 433e 17e0 803d 832b 92be 0a87 a8bd
00000280: 4dd4 9b3b e2bc 593d 2f69 9fbc 5976 843f
00000290: e687 a9be 567e 48be ece7 63be 7d33 583d
000002a0: fd8b 65bd f52f 7abf 38d1 4fbc cfb7 703e
000002b0: f046 febe e3e3 92be a8e0 dd3e 0301 993e
000002c0: 3a7d 9c3d d47d bebd a93a d3be b8a2 3bbf
000002d0: d036 a8be 40c9 d63c 341c 32bf 0aab 3dbd
000002e0: 300e a6be 1e66 f9be 031f 6fbe 545e 13be
000002f0: 3e17 4cbd 5fa0 c73e 3809 6ebf 76b2 10be
00000300: 3456 463e a664 4dbe ff89 ffbe 5e99 c73d
00000310: 5370 1f3e dfd3 b0bf 960c 16bf 6324 75bf
00000320: e924 db3c 0044 3bbe 9051 563e 0ea2 82bc
00000330: 97e5 35be f5a4 ae3e dbd6 46bf 395a fbbd
00000340: 1cdd b9be c799 c0be b78e 7e3d 066e 3dbf
00000350: 0631 6dbe b2c1 b8bd 4174 ebbe 8738 bcbe
00000360: 0dbb c43b 8a34 883d bf69 1c3e 26ba 063f
00000370: 3926 89be d852 56bc ff6d 9c3d 021e a83d
00000380: ec6b 36be da06 733e 1997 28be 74fd 16be
00000390: aea8 063d 3e0b c1be aaf6 b73d c3f6 a0bf
000003a0: 1e87 1c3c df41 843e 2d17 19bd 518c 883e
000003b0: b421 873d 2fb2 0dbe 784e 883c bfd3 89be
000003c0: d95e c63d ba13 37be 666c b43d 3629 19bf
000003d0: 67fc d33e ebfe e1be be89 093d 4d68 d2be
000003e0: bb80 96bf 10d6 ff3e 4a0b abbd 8a4e 87bd
000003f0: cb5b 6b3d 5ae0 45be 365d f7bc e0b3 8d3e
0.34393746 0.0101782475 -0.9073036 -0.19910939 0.029945757 -0.34539744 -0.36892778 -0.04621298
-0.31027305 -0.28064957 0.38746226 0.15573208 0.33199105 0.2197197 -0.2683769 -0.11709324
-0.5277067 0.23073295 -0.5886731 -0.0017724646 0.49299133 -0.036299497 0.06556867 0.35653216
6.425287e-05 -0.1220926 -0.023594584 0.029618142 -0.35053948 -0.20170923 -0.221884 -0.5201332
0.05593394 0.003777191 -0.11670844 -0.06621583 -0.43103534 -0.13408476 0.40623012 0.10575991
-0.002338852 -0.3427674 0.10192756 0.13063852 -0.057565942 -0.18576428 -0.16056602 0.7524623
-0.1571492 -0.069023736 -0.021171937 0.04183682 -0.40047705 0.29152218 0.01672306 -0.051709287
0.018490545 0.47335973 -0.22627667 0.17622516 -0.23643614 -0.059865594 -0.28392354 0.032895282
-0.6091206 0.27476755 0.12751079 -0.119586036 -0.55482125 0.31814152 -0.03963449 0.51651746
-0.07795191 0.20513205 0.16963391 -0.017750973 0.6367192 0.22348462 -0.30032685 0.7054764
0.12577242 0.22749776 0.04891743 0.033706497 -0.03051048 -0.049786996 -0.14166692 0.040819287
-0.21966042 0.39365244 0.01992076 -0.82233346 0.025523197 0.079701245 -0.9585511 0.08050448
0.42713574 -0.19570819 -0.5295848 0.09308916 0.013232156 0.17531414 0.0016609731 0.24790916
0.25066483 -0.1512834 -0.014861292 -0.2158507 0.048101485 0.013168748 -0.3867571 0.14981373
0.15700413 0.09540625 0.22462134 -0.05907814 0.27873453 -0.42016816 0.19601797 -0.06003263
-0.8964263 0.036331005 -0.2421509 0.48249367 -0.05294941 0.06039388 0.33788565 0.29044607
0.20354788 0.04106724 -0.34828842 0.59548473 0.07763294 -0.26615283 0.2568478 0.073715575
0.27984035 0.37092814 0.10771345 0.10814011 -0.09387272 -0.26175204 0.17073579 -0.14489718
0.21795869 -0.22822355 -0.68866324 0.08040566 -0.22796221 0.14872953 -0.07889388 -0.11834802
-0.06527083 0.13683462 -0.009226756 0.18472093 0.19058263 0.06292742 -0.28548822 -0.08228882
0.004755533 0.05315865 -0.019459335 1.0348617 -0.33111495 -0.19579443 -0.2225644 0.052783478
-0.056041706 -0.97729427 -0.012684159 0.23507617 -0.49663496 -0.2868949 0.43335462 0.29883584
0.076410726 -0.093013436 -0.41255692 -0.73295164 -0.3285432 0.02621901 -0.69574285 -0.046305694
-0.324327 -0.48710722 -0.23351674 -0.14391452 -0.049826853 0.3898954 -0.92982817 -0.14130577
0.19368821 -0.20057926 -0.4990997 0.09746049 0.15570192 -1.3814658 -0.58612955 -0.95758647
0.026750999 -0.18287659 0.20929551 -0.015946414 -0.17763363 0.34110227 -0.77671593 -0.12273068
-0.36301506 -0.37617323 0.062147822 -0.7399601 -0.23163232 -0.090213194 -0.45987132 -0.36761877
0.0060037435 0.06650646 0.15274714 0.5262779 -0.26786974 -0.013081275 0.076381676 0.082088485
-0.17814606 0.23733082 -0.16463889 -0.14745122 0.03287571 -0.3770389 0.08982594 -1.2575306
0.009553699 0.25831506 -0.037375618 0.26669553 0.06598225 -0.13837503 0.01663898 -0.26919362
0.096860595 -0.17878619 0.08809738 -0.5982851 0.41403505 -0.441398 0.033578627 -0.410952
-1.1758035 0.49968004 -0.083517626 -0.06606777 0.057460587 -0.19323865 -0.030195814 0.27676296

fc2.bias f4 [128]
00000000: 9820 aa3d e65f b3bc 2e82 3ebd 8462 6fbd
00000010: 7221 e83d fefc ed3d a9a3 8e3c e6e3 c4bd
00000020: 518d 59be f9ef 623d 33a4 5fbd 7af0 debd
00000030: 131e f1bd 08fb c8bd 77e4 0e3e b2fb 313d
00000040: e566 89bd ba00 b0bd c6c3 ef3c 0616 773e
00000050: 1ab3 513e e630 53be 078c adbc 7647 59bd
00000060: 6d43 46be 6f2d 60bc f0f6 4abc a0d4 553d
00000070: 44ff 883e 541f 623d 94fa c33c 3991 82bd
00000080: 47c3 3abd 4dd5 d03d 6bad e2bd 56ec 56be
00000090: d573 b4bc 2b4b 013d 698d 3fbe 4758 aabc
000000a0: 3129 43be e5f8 99be bdf9 ecbc b14f 0c3e
000000b0: 424b 433d afd1 c2bd 6d24 89bb f03f e83c
000000c0: 63e6 debc 542c 853e ac2c c73d af75 8cbd
000000d0: 49f9 04bc 2bf4 2cbe fd34 52bd fd8b b2bd
000000e0: 5c8d 923d c4e5 f2bd 35e3 b53d 4f21 e53c
000000f0: cccc 213b dcfe 003e cdd3 a3bd 2a77 9cbd
00000100: 5714 81bc b8ee 31bd 09bf 0a3d 49b2 efbd
00000110: fdfc 1cbe afa2 b3bc ee5a b4bd c5e3 0b3d
00000120: 8435 87bd a954 b8bd 711a d9bd 3d7a f8bc
00000130: 874e 24ba 50e3 7d3d 282b 673b 3e66 4ebd
00000140: 677d dd3e 3210 79be 8b58 91bc c734 2cbe
00000150: 4b39 aa3b 74c9 aebd 85bd ba3d 2e10 c43a
00000160: e378 b63a 1240 64bd c5ce 77bd 1cb3 b43b
00000170: 3ffb 03bd 78a1 93b9 e3a3 b2bd ab05 eebc
00000180: 38f9 21be c7f6 743d b450 4dbe 0809 713e
00000190: 2122 8fbd 1788 883e 7c47 e1bd 4b25 34bc
000001a0: d6a6 d83e 33f3 53bd 3d94 5e3d 23e4 d53d
000001b0: 667b 51bc 0141 97be 38ab 85bd 3b0c f9bc
000001c0: 05d6 63be 2526 9bbe 98eb 083e b1a2 a0bd
000001d0: b9a8 c23d a501 97bd 0a47 d5bd 5fb6 0fbd
000001e0: 4b80 023d f5b6 b1bd d3a2 bc3d 1e80 69be
000001f0: d1f7 e93c 0f1e be3c e7e5 a2bd cef7 b8bc
0.08306998 -0.021896314 -0.046510868 -0.05844356 0.11334504 0.1162052 0.017412024 -0.09613781
-0.21245314 0.055404637 -0.054599952 -0.10885711 -0.11773314 -0.098135054 0.1395434 0.043452926
-0.06709079 -0.085938886 0.029268157 0.24129495 0.20478478 -0.20624122 -0.021184934 -0.053046666
-0.19361658 -0.013682707 -0.012387976 0.052204728 0.26757252 0.055205658 0.023923196 -0.06375355
-0.045596387 0.10196934 -0.11068233 -0.20988593 -0.02202789 0.031565826 -0.18706287 -0.020794047
-0.19058682 -0.30072704 -0.028927678 0.13702275 0.047679193 -0.0951265 -0.0041852505 0.0283508
-0.027209466 0.26010382 0.09725317 -0.06858384 -0.008116075 -0.16890018 -0.051320065 -0.08718107
0.071558684 -0.118602306 0.08881227 0.027969984 0.002468872 0.12597221 -0.07999382 -0.07639916
-0.01575677 -0.04344055 0.03387359 -0.11703927 -0.15330882 -0.02192816 -0.08806406 0.034152765
-0.06602004 -0.09000523 -0.106007464 -0.030331725 -0.0006267805 0.06198436 0.0035273526 -0.050390474
0.43259737 -0.24322584 -0.017742416 -0.16817008 0.005194818 -0.08534518 0.09118179 0.0014958435
0.0013921525 -0.055725165 -0.060499925 0.0055145156 -0.03222203 -0.00028158328 -0.08722665 -0.029055437
-0.15817726 0.059805658 -0.20050317 0.23538601 -0.069889314 0.26666328 -0.10999963 -0.010995219
0.42314786 -0.051745605 0.05434059 0.10443904 -0.012785768 -0.29541782 -0.06526798 -0.03040134
-0.2224961 -0.3030254 0.13371122 -0.07843531 0.095048375 -0.073733605 -0.1041394 -0.035086032
0.03186063 -0.086774744 0.09210744 -0.22802779 0.02856055 0.023207692 -0.07954007 -0.0225791

fc3.weight f4 [4, 128]
00000000: 458a d7be 197b 18bf 2e01 aa3d 0529 cfbe
00000010: c06d 1a3f fe78 973e 6bf5 67bf 3321 ec3b
00000020: 40d7 b1be 98fd 7b3e a01e 47bf 73c2 c7be
00000030: 6ea3 a2be d572 813e 1968 05bf 2d7d 953e
00000040: 2762 a2be 2b50 0bbe 47e7 5fbf 3d36 19be
00000050: 7231 66bd abba a73d cf96 e83d 2a67 50b8
00000060: 2c20 7f3e dbf9 203e 6f74 ab3e 1843 abbb
00000070: 1927 dc3d ebaa 233f b17c c8be 387c 60bd
00000080: 55fe 15bc a489 163e 16ca f83e 51ec 5bbf
00000090: 9fb4 9cbe 7b11 55be 6f86 a3be fe73 ab3d
000000a0: 282e 753e 44ed 08bf 15c2 42bd 65da 0ebf
000000b0: 98e7 8a3e 4211 50be 28bd 19be 4d32 bbbe
000000c0: 6fb7 aebc aad9 e3be 4e7d 0c3f ec4d dc3e
000000d0: 5512 983e dc08 993b c59a f2bc 9077 de3e
000000e0: bafb a0bd 6570 11bf 9b46 833e 9604 d13d
000000f0: bc77 793e b8d5 6f3e 6e3d 3ebf bcc4 4cbf
00000100: 725a 943f ff20 1abf 6c46 c93e 235b 21be
00000110: 3155 343e 44c8 cabe ad82 05bf 7f6b 2d3f
00000120: c058 e5bc 357f 24bc fbca 0d3c b683 37be
00000130: 9a18 e53a 0b7d 43bd 95a1 04bf be9d 12bf
00000140: b7b6 db3e 0944 b83e 5985 653c a884 c63e
00000150: 4970 663f 385a a03d e287 dcbd de59 a03e
00000160: 55d8 f0be d982 cf3d cbed 37bf 02da bf3e
00000170: f400 fd3d d8c7 3ebf e0df 0a3f 773e 9d3e
00000180: f5c3 603c 77ec 2cbd 367a 683e 63fb 91bd
00000190: c6fb f1bd b38a 843d 3502 5cbf f414 89bf
000001a0: 06a8 443f e59d 26bf 76f6 e3bb ffb1 463c
000001b0: 36a6 80bd 4764 0dbf f175 37bd a134 89bb
000001c0: 0a8f abbe 1ab5 23bf 81ef bd3e 335d 18bc
000001d0: cbbf eb3e b2de 96be 1a94 53be f377 df3c
000001e0: 549b 173f b90c 3bbe 0293 42bd bf77 e73e
000001f0: b155 8fbe 429b 9d3e c281 e93d 27ea 94bc
00000200: 2a24 143e c88e 06bf 2af6 1a3e cd1c 923d
00000210: 04a2 8bbe ed56 f03e 6896 bcbe 0187 42bc
00000220: 1e8e 8ebe 8a8f 3e3f 965b 2ebd 9775 24bf
00000230: ef77 6b3d e03f ab3e cbb4 33bf d978 c3be
00000240: f561 3dbf d7bc 0a3e 2dec b5be 5411 133f
00000250: 604e c1be e6a3 353e 1299 7d3e a7cd 993e
00000260: bc70 993e 9783 1e3e 8b3b 04bf 0973 48bd
00000270: a9a4 03bf 2c85 50bf 146a 2e3f a2c4 cd3e
00000280: 224e e4bb 3d76 b23d a7f7 9b3d ef80 fb3d
00000290: af85 a0be 3060 71bf e935 03bf 26dd 85be
000002a0: 32d0 073f c99e 8ebe ba67 3abe f36e 78be
000002b0: d93a 0f3f 37f8 dc3d 83a1 86be 9be1 45bf
000002c0: 3645 ee3b 1e88 49be 62a2 d8bd 993b e43d
000002d0: 28b5 053e 76ba 053e 4e83 bbbe 50d8 45be
000002e0: fa3c 5b3e e13e f0be 613c 9c3e e651 a2bf
000002f0: 0de5 cd3e b30c 563f 0da0 91be 1cb9 513e
00000300: f09f 043f a1e7 33bf 6263 05bf 3bb4 89bf
00000310: 41c2 cebe 17fb 8ebe 0998 9ebe 9e84 febe
00000320: 3c1b 7d3d d82b b93b 28ff 4fbc 88bf b6be
00000330: 18d1 853b 5622 36bf cccb 9cbe 5195 20be
00000340: ad1a 6c3f a50b 45be 25de 73bc e8ee d8bd
00000350: ebd7 153f fc3b e6be a16f 37bf bb6e 1a3f
00000360: 5721 02be 3db1 d5bd 63a7 9bbd 7c11 8a3e
00000370: 3171 93bd 0108 e03e ca41 283f 2b27 ae3e
00000380: 599c 1bbe 90d7 a4be d3f0 3b3f b21d 9fbd
00000390: 5d7b ac3c 6bea 273f c2e7 83be 60ec a23e
000003a0: 4f2a 153f 4dd3 e0be 902d 1b3e f7ed 4f3e
000003b0: c8f3 6c3d 6c4f 0d3f 8a1a 62be 6697 ffbb
000003c0: 392b c9be 85d2 0bbf d09b 393f 8efd c0bc
000003d0: e150 ed3d 1277 04bf 6345 453e 518f a5be
000003e0: 09db 393b a030 21bf b714 4fbf 8169 4cbd
000003f0: 5aee 2bbe d176 a53e 738c a73e 2efb 753c
-0.4209768 -0.5956283 0.08301006 -0.40460983 0.60323715 0.29584497 -0.90608853 0.007206106
-0.34734535 0.24608457 -0.77781105 -0.3901554 -0.31765312 0.25282922 -0.52111965 0.29197064
-0.3171551 -0.136048 -0.87462276 -0.14962097 -0.0561995 0.08189901 0.113568895 -4.9687143e-05
0.24914616 0.15720312 0.3348727 -0.005226504 0.10749645 0.63932675 -0.39157632 -0.054805964
-0.009154876 0.14700943 0.4859168 -0.85907465 -0.30606553 -0.2080745 -0.31938502 0.08371733
0.23943388 -0.5348704 -0.047548372 -0.55801994 0.27129817 -0.20319083 -0.15013564 -0.36561814
-0.021327702 -0.44502002 0.548787 0.430282 0.29701486 0.0046702456 -0.029614815 0.43450594
-0.07860513 -0.56812125 0.25639805 0.10205953 0.24362081 0.23421371 -0.74312484 -0.7998769
1.1590102 -0.602066 0.3931154 -0.15757422 0.17610623 -0.39605916 -0.5215252 0.6774215
-0.02799642 -0.010040094 0.008654351 -0.17921337 0.0017478645 -0.047726672 -0.51809055 -0.57271945
0.42912838 0.35989407 0.014008843 0.38773084 0.90015084 0.07829708 -0.10768105 0.31318563
-0.47040048 0.10132379 -0.7184722 0.37471014 0.123536974 -0.7452369 0.54247856 0.3071172
0.013718595 -0.042217698 0.2270287 -0.07128026 -0.118156 0.06471767 -0.8594087 -1.0709519
0.76818883 -0.6508468 -0.0069568707 0.0121273985 -0.06281702 -0.55231136 -0.044790212 -0.004187182
-0.33507568 -0.63948214 0.3709679 -0.009299564 0.46044764 -0.29466778 -0.20661965 0.027278876
0.59221387 -0.18266572 -0.04750348 0.45208547 -0.27995065 0.30782515 0.114017025 -0.018178059
0.1446692 -0.52561617 0.15132967 0.071343996 -0.27272046 0.4694132 -0.368335 -0.011873008
-0.27842802 0.74437773 -0.042567812 -0.6424193 0.057487424 0.3344717 -0.70197743 -0.38178137
-0.73977596 0.13548599 -0.3553175 0.57448316 -0.37755108 0.17738304 0.24765423 0.30039713
0.29968822 0.15479885 -0.51653355 -0.04893783 -0.51423126 -0.81453204 0.6813061 0.4018908
-0.006967322 0.087139584 0.07615595 0.122804515 -0.31351992 -0.94287395 -0.51254135 -0.26145285
0.53052056 -0.27855518 -0.18203631 -0.24261074 0.5594917 0.10789531 -0.262951 -0.7729737
0.007271434 -0.19680831 -0.10577847 0.1114418 0.13057387 0.1305941 -0.36623615 -0.19320798
0.2140998 -0.46922973 0.30514815 -1.2681243 0.40213814 0.8361313 -0.28442422 0.2048077
0.51806545 -0.7027531 -0.5210477 -1.0758127 -0.4038258 -0.2792594 -0.3097537 -0.49710554
0.06179355 0.0056509785 -0.012695111 -0.35693002 0.004083764 -0.7114614 -0.30624235 -0.1568196
0.92228204 -0.19242723 -0.014884506 -0.10592443 0.5853259 -0.4496764 -0.7165471 0.6032521
-0.1270803 -0.10434196 -0.07600286 0.26966465 -0.07199324 0.43756106 0.65725386 0.34014258
-0.1519636 -0.3219571 0.73414344 -0.07769336 0.021054918 0.6559207 -0.25762755 0.31820965
0.5826768 -0.4391121 0.151541 0.2030562 0.057849675 0.55199313 -0.22080436 -0.0078000305
-0.3929079 -0.546181 0.72503376 -0.023558404 0.11587692 -0.51744187 0.1926475 -0.32335904
0.0028359315 -0.6296482 -0.80890983 -0.049905304 -0.16790143 0.32317212 0.32724342 0.015013499

fc3.bias f4 [4]
00000000: 20b8 183e ac52 0b3e 69c3 dcbd 6315 a63d
0.14913988 0.13605756 -0.10779459 0.08109548

head.weight f4 [128, 23]
00000000: a9b1 0cc0 1625 04c0 ff50 6b40 03b3 cabe
00000010: 20b1 d6bd 1848 11be d013 8e3d bdec 93bd
00000020: c443 f3bd eeef 3c3d 5b1e 5fbc 2a85 b23d
00000030: 06d8 49be f712 783d 2958 c6bd e5d1 8a3d
00000040: 3a9e 74be 63a4 e93d d1e6 a33d b3b4 2dbf
00000050: 2016 5f3e 6e84 473f f2fa 42be 045c 33c0
00000060: 0e3a a4bf 96c5 a43f dc6f c73f a219 213e
00000070: 01a6 a4be d195 b6be b5ee 873e 1806 103f
00000080: b8c1 c63e 0df3 79bd e488 e2bd ec73 8cbc
00000090: 47d7 b33d f71a 14be a8b3 cabc 7a02 8cbd
000000a0: 77aa 063e 7de4 bd3d 0352 c3be 7db8 39be
000000b0: 56ec 87bf f525 cb3f b2f1 d9be ac40 48bf
000000c0: 5041 733f ca9b d93e 27fd 013e 1b5d 55bb
000000d0: 8cd7 7abd 0eed ad3f 3caf 933f f653 5b3f
000000e0: ee5d 22be f279 873d eb02 623c 287c afbd
000000f0: 3002 d73d 8749 08bd 648c f7be 05b5 1e3e
00000100: 63c7 78be 7f15 bc3c 8f46 973d 975c dabd
00000110: 0625 a33b 8015 afbf 423d 9cbf 56be 2540
00000120: ab68 ec3e f941 353d 047a 2c3e 4fd9 163d
00000130: ea60 463e e44d 913e 5d99 603e c495 993d
00000140: 5b09 62be 8ca6 60be 9dd1 2fbe a6e0 a1bd
00000150: a24d 283e 3c66 87be 9157 17bf 5ea6 87bf
00000160: f223 283e 8619 78be 0ced 333e c3ec 243c
00000170: 7242 9cbf 9cd4 f0be a874 1a40 9f1b 27bf
00000180: 3165 65bd cb64 b7bd 81af b13b 8da2 013e
00000190: 6ef0 913e 51f5 c73e 50b6 833d 75ce 7fbd
000001a0: 3e05 363d fc92 953b 9bde c2bc ac94 e8bc
000001b0: 17f1 c53e 77cc c4be 1316 933c b504 0b3f
000001c0: 50ca d43e f56b 7c3d 50fd 84bf b622 7abe
000001d0: 609a debc bb51 edbe 2266 babd 204e 833d
000001e0: 5cdb 3fbe 6fd9 01be 057a 9cbe abc4 05bf
000001f0: b1a1 56bf 4bab 1bbd 99a6 063e 7ac7 643d
00000200: 76e9 f0bc a732 a63c bbed ff3c c6cf bebb
00000210: df0f 143e d1f5 22be 4ad0 cbbd 3744 c0bb
00000220: a73f 863d bcfd 8ebd 500e 653f 3e39 713e
00000230: fde4 f03f 7af8 18c0 0d26 bd3c 5997 0d3d
00000240: 04f6 0bbd 8323 5cbf e06a 60bf 35b1 a1bf
00000250: 1b98 1bbc ea66 c03d 2383 87be 7453 503d
00000260: 0307 0b3c 2224 893d f335 09be 2e74 1bbe
00000270: e106 06be 7f58 2e3f 788b 163f e373 943e
00000280: 6819 92bf a64d 93be f7ae 99be e845 58be
00000290: a990 613d 0942 3ebe e7c7 de3e 6eee 84bc
000002a0: 66e5 1b3f b746 d23e cbba f23e a6ea b1bd
000002b0: 4132 a5be f7f8 1bbc 6b12 8b3c 7fe4 b63d
000002c0: 0044 eabc 8841 373d 6aeb af3d 9135 0abe
000002d0: 7103 403c 81d3 1dbb 826e 5dbc f213 7a3b
000002e0: 137a 493f 615c 503e 39c6 9abf e967 8dbe
000002f0: a5dd 87be 739b 5ebd 3b34 ed3d 3b84 ddbe
00000300: 4734 febe 550b d6be a95d fc3d 7a7c 093e
00000310: fc91 653d 665f 713d 4753 03bd 185a 5cbc
00000320: 54ed 35be a548 e83d 55f2 693d 9300 343e
00000330: b28e b7bc aefb b23e 7dc3 f5be 6c69 59be
00000340: 8318 86bd 7a4c 7a3d 326c c9bd 5fc0 8dbe
00000350: e479 d93d 6b8a 20be 6de1 0a3f 0c74 593e
00000360: 5c9e cf3d 533a 8fbd 132e f33d 68f6 543e
00000370: 5c7e 10bd d18a 9fbd be88 8f3d 9596 773d
00000380: 33d3 593d ca5d 3cbe c1ca 28bc edf1 0e3c
00000390: e12a b2bc 6687 a53b ef4c cb3e 3975 a33e
000003a0: 4074 aa3f 9ff6 95bf effa 813d 16d7 143e
000003b0: d309 f9bd e688 36bf 635c 81bf 7526 93bf
000003c0: 4206 443d 10ac 103d 307c 73be d74c e53c
000003d0: a36a 0fbd 1bd9 de3d 059b 36bd 1b06 cbbc
000003e0: 26b9 60bd 380b 9c3d c9d9 203d 04ff 30bd
000003f0: 6091 c0bd 562c 493e 6027 b53d ed55 813f
-2.1983435 -2.0647635 3.6768186 -0.395897 -0.10483003 -0.14187658 0.06937373 -0.072228886
-0.1187816 0.046127252 -0.013618077 0.08716805 -0.19711313 0.06056496 -0.09684784 0.067783155
-0.23888484 0.114083074 0.08003009 -0.6785385 0.21785784 0.77936447 -0.1904104 -2.8024912
-1.2830217 1.2872798 1.5581012 0.15732434 -0.321579 -0.35661176 0.26549307 0.562593
0.3881967 -0.061022807 -0.11061266 -0.01714512 0.08781295 -0.14463411 -0.02474387 -0.0683641
0.13150965 0.09272096 -0.38148507 -0.18136783 -1.0618999 1.5870959 -0.4256721 -0.7822368
0.95021534 0.4250167 0.12694226 -0.0032556716 -0.061240718 1.3587968 1.1537852 0.8567499
-0.15856144 0.06615056 0.013794641 -0.08568603 0.10498464 -0.033273246 -0.48349297 0.15498741
-0.2429481 0.022959469 0.07386505 -0.10662191 0.004978779 -1.3678436 -1.2206194 2.5897422
0.46173605 0.04425237 0.1684342 0.036828335 0.19372907 0.28379738 0.21933503 0.07499269
-0.22073881 -0.21938533 -0.17169805 -0.079041764 0.16435865 -0.26445186 -0.5911799 -1.0597646
0.16419962 -0.24228486 0.17570895 0.010066214 -1.2207778 -0.47037208 2.4133701 -0.6527652
-0.056004707 -0.089547716 0.005422533 0.12659664 0.28503746 0.3905435 0.06431258 -0.062452752
0.044438593 0.004564641 -0.023787787 -0.028391205 0.386605 -0.38437244 0.017954862 0.5430406
0.41560602 0.061626393 -1.0389805 -0.24427304 -0.027173221 -0.46351418 -0.091015115 0.064113855
-0.18736023 -0.126806 -0.30561844 -0.52253217 -0.8384047 -0.038005155 0.1314949 0.0558543
-0.029408198 0.020287825 0.031241288 -0.0058231084 0.1445918 -0.15914084 -0.09951837 -0.005867507
0.065551095 -0.0698199 0.89474964 0.23556992 1.8819882 -2.3901658 0.023089433 0.034568164
-0.034170166 -0.85991687 -0.8766308 -1.2632204 -0.009496714 0.09394629 -0.26467237 0.050860837
0.008485558 0.06696345 -0.13399486 -0.15181038 -0.13088562 0.68103784 0.5880656 0.28994665
-1.1414003 -0.2877018 -0.300163 -0.21120417 0.0550696 -0.18579878 0.43511888 -0.016226973
0.6089691 0.41069576 0.47408137 -0.08687334 -0.32264903 -0.009519807 0.016976556 0.08930301
-0.028596878 0.04474023 0.085898235 -0.13496996 0.0117195705 -0.0024082365 -0.013515117 0.003815886
0.78701895 0.2034774 -1.2091743 -0.2761834 -0.2653629 -0.054347467 0.11582228 -0.43264946
-0.4964926 -0.4180552 0.12322552 0.1342639 0.056047425 0.05892887 -0.03206184 -0.013449214
-0.17766315 0.11341981 0.05711587 0.17578344 -0.02240691 0.3495764 -0.48000708 -0.21231622
-0.06547644 0.06110809 -0.0983509 -0.2768583 0.10618952 -0.15677802 0.5425022 0.21235675
0.101376265 -0.06993546 0.11874022 0.20797122 -0.035276756 -0.07790149 0.070085034 0.06044634
0.05317993 -0.18395153 -0.010302247 0.008724672 -0.021748962 0.005051541 0.39707133 0.3192537
1.3316727 -1.1715888 0.0634669 0.14535174 -0.12160077 -0.7130264 -1.0106319 -1.1496111
0.04785753 0.03532034 -0.23777843 0.027990742 -0.035013806 0.10881253 -0.044581432 -0.024783185
-0.05486407 0.07619327 0.039270196 -0.04321195 -0.09402728 0.19645819 0.08845401 1.0104347

head.bias f4 [128]
00000000: 10a4 d73d 4a5c a23e d501 103e 0290 11be
00000010: 1480 88bd f7c7 bdbe 8700 2b3e ac51 83bd
00000020: e5c6 afbd 2abc c43d a962 5ebe dccc 0f3e
00000030: 5beb 5bbe 46bb 113e 4aa6 3cbe a6a0 dc3a
00000040: e569 65be 2c6c a8be bc12 243d 4dbf 81be
00000050: ff92 77bd 6ec4 2d3e 5d32 b6bd 7d5a 2fbe
00000060: fa2c 9b3d 7de9 9b3d f63a 37be ed11 a0bd
00000070: ac87 073e 5047 02be 3390 3fbe 3b97 7a3e
00000080: 1f22 aebd 66d3 603e 2fc9 5abd 8a2f 14be
00000090: 208b febd c019 373e edd8 2abd d476 22be
000000a0: 0b63 d9bd a7ae 69be 17c0 553d 4718 0f3d
000000b0: 59ac efbc 8261 4f3e 7e9b 2cbe 7b84 0c3d
000000c0: 5f56 2abd 45ff f2bc 9d48 913b bbed 873c
000000d0: f465 103e 2af4 19be 37e5 d9be bd33 f53d
000000e0: ca87 ba3c 7450 843d 9490 033d 76be 56bc
000000f0: 76d8 0dbe 6b0d 0f3e e5cd 8dbe 819c a3be
00000100: bd1c 6abe 4172 57bb 0bdd 963e bbae 96be
00000110: 9f54 1cbd ec22 183d 1b97 f43d 799a bf3d
00000120: 44b1 50be de6d 9dbd a52b 603d 49c8 853d
00000130: be89 eb3b f29e 04be da1d fa3c e550 bdbd
00000140: 72d5 603e 6808 e5bb 43d5 d9bd 610c c5be
00000150: df76 4fbe 3b2e 583e dcab ef3d 693d d3bc
00000160: 276a 663e cf3c 8abe 4e83 0ebe a1eb 31be
00000170: 9d5f 8dbe bcf9 4bbe ab2b af3e 4cd7 153f
00000180: 8c1f 163e bb64 e73c 7baf 90be 25d5 323e
00000190: b685 a13e 674c 18be 44ae d63d f5b2 8fbe
000001a0: b5a6 ddbd bc41 753e 03c5 c93d 90c4 94be
000001b0: dba3 47be 63d9 d43d 5e0c a0be ea5a 7d3e
000001c0: e5dd ddbd 23ca f93e 3a3c 0b3e e9e7 d13d
000001d0: 2cf5 77be 8382 cabd dcc1 ce3b f678 8dbd
000001e0: d8b3 5b3a 005a 193e 26be 6ebe 0ef1 29be
000001f0: f714 ac3d 5bfb 8e3e d4d6 62bd 46f9 623e
0.10529339 0.31711036 0.14063199 -0.14215091 -0.06665054 -0.37066624 0.1669942 -0.06412062
-0.08582858 0.09606202 -0.21717323 0.14042991 -0.214765 0.14231595 -0.18422809 0.0016832545
-0.22403677 -0.3289503 0.04005693 -0.25341263 -0.06044292 0.16969463 -0.08896325 -0.17124362
0.07576938 0.07612894 -0.17893586 -0.07815919 0.13235348 -0.12722516 -0.18707351 0.24471752
-0.08502602 0.21955642 -0.05341452 -0.1447126 -0.1242888 0.17880917 -0.041710783 -0.15865642
-0.10614594 -0.22820531 0.052185144 0.034935262 -0.029256986 0.2025204 -0.1685619 0.03430603
-0.041586276 -0.029662738 0.004433705 0.01659285 0.14101392 -0.15034547 -0.4255769 0.11972759
0.022769827 0.06460658 0.032120302 -0.013106933 -0.13852105 0.13969962 -0.27696148 -0.3195534
-0.22862525 -0.0032874497 0.29465517 -0.29430184 -0.03816664 0.03714268 0.119428836 0.09355635
-0.20380121 -0.07686971 0.054729123 0.06532342 0.007188051 -0.12951258 0.030531812 -0.09243945
0.21956423 -0.0069895275 -0.106363796 -0.38486007 -0.2026019 0.21111386 0.117027014 -0.025786119
0.22501431 -0.26999518 -0.13917276 -0.17375042 -0.2761201 -0.19919485 0.34213004 0.5853164
0.14660472 0.028246274 -0.2825888 0.1746412 0.31547326 -0.14872895 0.10482457 -0.2806622
-0.108228125 0.23950857 0.0985203 -0.29056215 -0.194961 0.10393026 -0.31259435 0.24741712
-0.10833339 0.4878703 0.13597193 0.102493115 -0.2421462 -0.098881744 0.006309731 -0.06907837
0.0008380986 0.14975739 -0.23314723 -0.16595861 0.08402436 0.27926144 -0.055380657 0.22165403

cos_embedding.weight f4 [128, 64]
00000000: f3ec 2ebd ddd8 a83b 1623 cdbc 1f13 293c
00000010: 2fb0 7dbc 886a 053c 354a 50bc 0b6a b53b
00000020: ed6c b9bc d0e5 153a e3f3 37bc 6e14 3bbb
00000030: 6765 90bb 6b55 943a 424a 03bc fe10 e7bb
00000040: ce5e 6fbc 4bf8 c8bb 90dc 003c d211 293c
00000050: 0b8d b63b 3e77 5b3b 105c 80bc f905 003b
00000060: f21b f6bb 303e 6e3c 2fe3 bebb d397 91bb
00000070: 73fc 71bb 2dbb b3bb e8ad 863a b816 ebb8
00000080: 819d 0c3b f7fb ba3b fc35 4cbb 3595 72bc
00000090: bb49 56bc c096 6fbc ecf3 24bb 4894 0cbc
000000a0: 6bc1 c73b c228 2abb fa40 15bc 1510 05bb
000000b0: a20b 18bc 3e5e 223b 5a76 2b3c a133 41bc
000000c0: 3a24 843b c177 52bb 897f 6bbb e381 b5bc
000000d0: c2a5 3bbc 21d6 09bc 9f08 1cbb 07fa 2cbc
000000e0: d884 92bc c8ce 45bc 0eb4 c7bc 8127 87bc
000000f0: dc99 eabb 4724 e03b 5f29 8b3c 6813 a93c
00000100: 8356 d8bb 4560 0dba a0b6 f6ba 7236 04bb
00000110: 943f 42ba fa5a 98ba 10b5 d036 5155 fa39
00000120: c891 d7ba 871b a5ba 058c 13bb 320a 8c39
00000130: a534 aeb9 98aa 9bb8 4928 7dba dcab ee39
00000140: 3dfe a4ba 0353 75b9 5ae9 b93a 5c3c 8438
00000150: 6a26 1fba 0144 b8ba bace 7339 5b6e 043b
00000160: cd1d 90ba 77ff 30bb abee 363a cb1e f9ba
00000170: 9ffa 503a 804a 863a 6060 27ba d47a 2339
00000180: e13e b9b7 84ed 523a 53ef 2bb9 e715 c13a
00000190: d996 05ba aadb 8c39 99c4 01bb 1a49 dc3a
000001a0: a624 c037 a263 59ba 382b c6b9 2660 4dba
000001b0: 3a2b 8a38 695e baba c4a1 33ba e24c c43a
000001c0: a17d 1e3b 5a8a 1e38 d939 b83a 911f 46b9
000001d0: c4eb acba 3c64 59ba 858d 62b8 9067 9639
000001e0: ff77 b539 7fb2 3139 1d2a bdba 0cf1 30bb
000001f0: 48b8 c538 3444 cd3a d7a3 cdba b328 c5ba
00000200: 43d6 19bb 406f c6b9 6552 bcba 06d3 b9b9
00000210: e416 103a e0cb 97b9 eacf 1e3a d3f2 02ba
00000220: 3423 6c3a 930d abba 9cb6 4139 7b75 a83a
00000230: 2aaa 603a f478 0dba 9830 053a bc5d c9ba
00000240: c028 0139 c748 04ba 1d58 b039 3147 d839
00000250: 2fc2 583a aa62 96b8 e552 36ba 8b67 8dba
00000260: 6d75 9a3a 1f17 e7ba 613f 343a 659e 01ba
00000270: a7de bab8 be12 6fb9 1525 453a 0dbf c6ba
00000280: 15c8 45b9 88d4 873a e6c2 0d3a e1ad 40ba
00000290: 1065 37b7 5a30 41b9 ec11 8f3a 99cf 99ba
000002a0: ec64 54ba c0d1 203a 3e54 35b9 8fb1 05ba
000002b0: 3665 71b9 049a d637 05dc c1ba 23c0 ac39
000002c0: 440c deb8 76f7 78b9 cd1b e139 03e8 78ba
000002d0: 6cfb a239 cf8a 8339 81fe 4a3a 7ebf 26ba
000002e0: 81b1 1eba ecd5 5d3a 9d52 833a 2d51 2a39
000002f0: 3cf0 3dba ff81 063a 049c 683a 6fce 033a
00000300: dbe4 01bc 8b50 acbb 5b01 f3ba d787 19ba
00000310: ce67 25bb 259e 603a 89dc 103b 6ac1 8db9
00000320: 1f08 193b 40ca 63b6 3eb0 083b 74df 8fba
00000330: 9f1d daba 52e8 5cbb a1bf 3cba 0230 0a3b
00000340: ecb3 4aba 0d14 8cba 2889 20ba ba43 d339
00000350: 26a0 2939 648c 41bb 1217 963b a54c 563b
00000360: ea5d 373b 75b4 d539 b84d c3ba 80c4 5dba
00000370: 6b63 a33b d782 f5ba bf3e 3cba b8d6 8ebb
00000380: 4515 1f3a e19b b7bb b3c4 103a 1007 9a3a
00000390: 4abe c439 a586 083a 588c 47b9 e682 4dbb
000003a0: b9c2 2b3a 90d1 bdb9 30a2 b439 b609 453b
000003b0: 784c 333b 5e59 d1ba 4b38 ffba 2a2c 7239
000003c0: 4cf9 04bb 2722 8fba 8839 aab8 f3db 78ba
000003d0: 6b4d a7ba 64b6 77bb 4bcc 8fba 9cf1 203a
000003e0: 896d 0e3b b74b 433a 8ed0 4d3b bd4a ac3a
000003f0: bad0 e33a 3929 bcba 66db f0ba a922 d03a
-0.04270644 0.0051528052 -0.025041144 0.0103195 -0.0154839 0.008143075 -0.012713005 0.005536323
-0.022634948 0.00057181437 -0.011227581 -0.0028546113 -0.0044066194 0.001131696 -0.00801331 -0.007051586
-0.014610006 -0.0061331145 0.007865086 0.01031919 0.005571013 0.0033487822 -0.015668899 0.001953481
-0.0075106556 0.014541194 -0.0058254222 -0.0044431477 -0.0036924153 -0.0054849596 0.0010275217 -0.00011209905
0.0021456184 0.005706306 -0.0031160107 -0.014806082 -0.013079102 -0.014623344 -0.0025169803 -0.008580275
0.0060960553 -0.0025964235 -0.00910973 -0.0020303775 -0.009280117 0.002477541 0.010465229 -0.011792094
0.004032639 -0.0032114836 -0.0035934171 -0.022156661 -0.011453094 -0.008412869 -0.002380885 -0.010557658
-0.01788561 -0.012073226 -0.024377849 -0.01649833 -0.0071594547 0.006840262 0.0169875 0.020639136
-0.00660211 -0.00053930684 -0.0018822737 -0.0020174053 -0.00074099866 -0.0011623793 6.2199615e-06 0.00047747281
-0.0016446644 -0.0012596705 -0.0022513878 0.00026710477 -0.0003322709 -7.4227515e-05 -0.0009657187 0.00045522943
-0.0012587976 -0.00023395945 0.0014183924 6.305493e-05 -0.0006071093 -0.0014058353 0.00023251298 0.0020207379
-0.001099521 -0.0027007738 0.00069783133 -0.0019006369 0.0007971916 0.0010245591 -0.00063849054 0.00015590648
-2.2082999e-05 0.0008046257 -0.00016396986 0.0014731259 -0.00050960254 0.00026866543 -0.001980102 0.0016806454
2.290525e-05 -0.00082927395 -0.00037797703 -0.00078344566 6.588404e-05 -0.001421881 -0.0006852413 0.0014976526
0.0024183767 3.7798985e-05 0.0014055326 -0.00018894511 -0.0013192822 -0.0008292829 -5.40144e-05 0.0002868739
0.00034612414 0.0001694653 -0.0014432106 -0.0026999144 9.428017e-05 0.0015660585 -0.0015689087 -0.0015042037
-0.0023473657 -0.0003784839 -0.0014367817 -0.00035443174 0.0005496575 -0.00028952863 0.0006058203 -0.000499529
0.0009007931 -0.001305031 0.00018473942 0.0012852395 0.00085702783 -0.00053967466 0.00050807884 -0.0015363018
0.00012317579 -0.0005046245 0.00033634985 0.00041251772 0.00082686817 -7.170935e-05 -0.0006955101 -0.0010788304
0.0011784263 -0.0017630792 0.0006875899 -0.0004944562 -8.9106434e-05 -0.00022799798 0.0007520479 -0.0015163139
-0.0001886192 0.0010363022 0.0005407765 -0.0007350129 -1.093118e-05 -0.00018423927 0.0010915375 -0.0011734843
-0.0008102197 0.0006134771 -0.00017292888 -0.00051000057 -0.00023021255 2.5582507e-05 -0.0014790302 0.0003294955
-0.000105880696 -0.0002374331 0.00042936057 -0.00094950217 0.00031086372 0.00025089688 0.00077436125 -0.0006360932
-0.0006053672 0.0008462358 0.0010019128 0.00016242704 -0.00072455755 0.0005131065 0.0008873346 0.00050280144
-0.007928099 -0.005258625 -0.0018539833 -0.00058567285 -0.0025238874 0.0008568487 0.0022104105 -0.0002703772
0.0023350788 -3.394336e-06 0.0020857002 -0.0010976628 -0.0016640908 -0.003370781 -0.0007200186 0.0021085744
-0.0007732499 -0.0010687128 -0.00061239535 0.00040295516 0.00016176756 -0.0029533142 0.004580387 0.0032699492
0.002797956 0.00040760977 -0.0014900481 -0.0008459762 0.004986217 -0.001873101 -0.0007180981 -0.0043590926
0.0006068538 -0.005603299 0.00055224745 0.0011751372 0.0003752581 0.0005208052 -0.00019030401 -0.003135854
0.0006552148 -0.00036205025 0.00034453114 0.0030065603 0.0027358811 -0.0015972068 -0.0019471733 0.00023095371
-0.0020290194 -0.0010920212 -8.116948e-05 -0.0009493224 -0.0012764161 -0.0037797922 -0.0010970918 0.0006139518
0.0021732769 0.0007449942 0.0031404826 0.0013144832 0.0017380931 -0.0014355547 -0.0018375933 0.001587947

cos_embedding.bias f4 [128]
00000000: 2bee 3f3e 0adf 9c3e f779 e83e 21d9 b53e
00000010: 9ca9 4f3e 6d9f cebd 235b 353e 9a36 0b3f
00000020: 1c0b 44be 3463 913c 5530 e53d 78c0 793d
00000030: 4141 f13d ecc9 b43e fff3 9d3e 04a8 b03e
00000040: ee26 a33e 5158 903e 58ca f53e cb44 ec3e
00000050: 0649 5abe 8ee4 61be 7448 983e d806 923d
00000060: 222a 713e 6351 41bd 5084 7f3e 4199 3bbe
00000070: 0f3c ad3e 1433 a13e ed8c 013f cf2d 9c3e
00000080: 26a1 63be b132 923e 0469 033f 1d8b 8c3d
00000090: b1bc a83e 73b9 713d 6d37 a1be 13e1 1fbe
000000a0: f94d 493e 0684 823c 77a4 d63d de25 f7bd
000000b0: 24aa 4b3e ece9 a23e 9ed3 7b3d 48aa e93e
000000c0: 732c 4fbe f7fc 183f 16f6 a03e 9627 10be
000000d0: 572c 553e 1454 273e 4be8 473e cea2 e43c
000000e0: 7cca 3a3e 4c37 d33c 6be8 aabd 5460 8fbe
000000f0: af2b 75be b153 8a3e 111d ac3d a506 dc3e
00000100: 4fee 6c3e 5461 70be 40c5 d63e 8781 b43e
00000110: d271 82be bf3c fa3e ccb4 f63d 24ea c2bc
00000120: 8ea6 0ebe f356 bc3e 47f3 31be f51b b83e
00000130: 25d5 493e 58b6 93bd 12af 943e 852d bb3e
00000140: d684 62be 9a80 8e3e 64cd 613e 1e7a ad3e
00000150: 5dd7 81be 3fc2 933e 47f7 523e bcc2 78bd
00000160: ab05 de3e 62b0 62bd 9f87 753e e2b3 21be
00000170: b56f b33e a540 c03e 1973 8d3c a8d6 c23e
00000180: 8631 3a3e f125 ea3e 394c c1bd 7817 c13e
00000190: 563b 0e3f 434f b43d 2c27 ad3e 2c44 133e
000001a0: 83c7 093e 4aa6 ee3e 8398 8f3e aaaf 18be
000001b0: 92dd be3e dee3 39be c9af 83bd 66d5 a13e
000001c0: eb3b 6b3e e3b8 b03e a60c 0f3e 6939 7c3e
000001d0: 3c82 9a3e f1b2 003f d424 cd3c d4ce 743e
000001e0: 4c77 753d 8127 af3e ddec 20be 2961 d93e
000001f0: 3386 53be 83da 913e 22ae 4dbe 4ced 793e
0.18743198 0.30638915 0.45405552 0.3551722 0.20279545 -0.10089002 0.17710547 0.5438019
-0.19144863 0.017747499 0.11190859 0.060974568 0.11780024 0.35310304 0.30850217 0.34503186
0.31865638 0.2819238 0.4800594 0.46146235 -0.21316919 -0.22059843 0.29742777 0.071302116
0.23551229 -0.047196757 0.24952817 -0.1832018 0.33834884 0.31484282 0.5060566 0.305037
-0.22229442 0.285543 0.51332116 0.06862471 0.3295646 0.05901475 -0.314876 -0.15613203
0.1965865 0.015932094 0.10480588 -0.120677695 0.19889122 0.31819093 0.06148111 0.45637727
-0.202318 0.59760994 0.3143775 -0.14077601 0.20817696 0.16340667 0.19522206 0.027909663
0.18241304 0.025783204 -0.083451115 -0.2800318 -0.23942445 0.27016976 0.084039815 0.4297382
0.23137783 -0.23474628 0.41947365 0.35255072 -0.25477463 0.4887447 0.12046203 -0.023793288
-0.13930723 0.36785087 -0.17377959 0.3595883 0.19710214 -0.07212514 0.29039818 0.36558166
-0.22120985 0.2783249 0.22051007 0.3388223 -0.25359622 0.28859136 0.20602141 -0.06073259
0.433637 -0.055343993 0.23977517 -0.15791276 0.35046163 0.3754932 0.017266797 0.38054395
0.18182954 0.45732072 -0.094383664 0.37713218 0.5555929 0.088041805 0.33818948 0.14381474
0.13455014 0.46611243 0.28046045 -0.1491076 0.3727842 -0.1815333 -0.06430013 0.31608123
0.22972076 0.34516057 0.13969669 0.24631275 0.30177486 0.5027304 0.025041975 0.23907024
0.059928223 0.34209827 -0.15715356 0.4245694 -0.20656662 0.28487024 -0.20085958 0.24406928

ff_1.weight f4 [128, 128]
00000000: 61c7 96be 5452 5c3d 58e5 35bf 3a9c 95be
00000010: 1383 fdbd 443e 9fbd f006 53be d140 bfbd
00000020: 6c06 033e bc6a 2d3d 898a ccbd 60c5 bbbd
00000030: 3972 14be 07ba c33d 3aae 0c3d 6751 59bf
00000040: 4376 0a3e f75f 44bf 5e3d c3be f446 69bd
00000050: ed46 5fbc 8e7e 18be fac0 053e 81d2 0bbe
00000060: 007c 1a3e 7557 81bc 7e9c afbc 8673 333e
00000070: b355 e9bf 59a3 3dbe b820 75bd ce1b fc3c
00000080: 7479 823e b02b 173e de9d 233e f1a2 57bb
00000090: cb3e febc 9362 da3c 722d 2c3d da6f 363d
000000a0: 989f 1ebc 3151 9639 7724 033e d862 febc
000000b0: ef53 28bf 7445 cebc ce58 973d b041 2dbf
000000c0: 843b 3ebe 135e 62be 470b 463e 6b16 e1bd
000000d0: 0b41 483d 0aa4 5c3c 04af 80be 3b65 9d3d
000000e0: 2e66 c8bd 2aa2 5c3d 711c 26be 7b3d b2bb
000000f0: 64b2 fd3d 1b33 543d 9970 09bd f6f0 f03d
00000100: 2a37 abbd ab66 213d b75d b5be 0f37 3cbd
00000110: cc8f 24be 63d2 8ebd 2c10 493e 32fa c6bd
00000120: 2331 5c3d 46f1 3d3e 54de d13e c66f 8dbb
00000130: a40a 223d 6a66 86bd e0cd babe 5bd3 933d
00000140: 2f3c 89bb 2b3e 7bbe 14ca 2fbe b1e8 0f3d
00000150: 7160 9cbe 614b 08bb 3a3c bdbd 3d80 d1bc
00000160: 0a1e 293d 7856 d9bd d12e 4d3d bdae 863c
00000170: d07c adbe 8bee cdbd 94df 4f3d 9592 1bbe
00000180: 80d8 6ebd 54f4 2cbf cfbe fdbd 8bd9 ac3d
00000190: 457a 1abe b83e baba 4a35 65be c2af cd3b
000001a0: 8295 db3d e4ff 9bbd 6148 5c3c 5fcf c9bb
000001b0: 6efb 0839 5ad7 23be e94f 86bc 3392 2c3d
000001c0: 77bd 12be bce2 773d 40eb 003e b9a7 aa3d
000001d0: f1cd f33d 3426 893e c1fe cebd ccc5 4d3d
000001e0: 67cf 05bd 0d6b ab3d 33f2 8dbd fa34 8f3d
000001f0: 4ac1 cdbd 3a11 bd3d b42e 4a3d 6c60 ca3c
00000200: 98fe ccbe 9753 ffbe 4ffc c7bd be93 96bd
00000210: f8f4 00be 25ec f6bc 100f f9bd 5dec 863d
00000220: d261 02bd 1d98 083e c18f 66be 3fbd 50be
00000230: 25d8 edbd 64d6 77bd 5553 cbbd 66a9 2f3d
00000240: 5bb4 a9bd 4719 d63d 6d54 91bc 8d6d 103e
00000250: dddb 75be 12f5 99be 1e1f 1b3e 6b25 cdbc
00000260: 49a0 bc3d 835c 383d 783e 383c 0d5b 0fbe
00000270: a9bf 61bf a8f7 d33d 9e45 723d f1f5 9b3d
00000280: 3253 59bd c319 dabd 356c 17be c593 3e3d
00000290: f870 f1be 64c6 a0bd 1f40 efbc 2f54 d2bd
000002a0: 386f 6c3d c69a 6f3d 6e69 f9bc 1f78 31bd
000002b0: eb1c 73bc 1912 24bc 0786 c93d 94da 393e
000002c0: bcf3 423e 9420 8d3e a4aa a8bd 02dc bfbd
000002d0: 8539 c73b ce30 cbbd 08c8 433e d710 2bbd
000002e0: 6bf3 48bd ea79 8fbd dced c03b a202 353e
000002f0: fe38 f2bc 4442 2b3e 4607 cebb 4412 78bd
00000300: 32c9 42be 3a7a 72bc 335b c43d 2ba7 8fbd
00000310: 3639 473d 8799 4bbd 16bf 613d dcef 0b3c
00000320: 475c adbd fe20 5dbe d68a 8e3d 6f13 69be
00000330: 4db3 153b c780 9cbd 149e b63c a29e b6be
00000340: b50b 0abe 0700 263e 88d9 d33c 0f0e 15bc
00000350: c43c 8ebe 9e5b 703d 8f72 5dbe f16e e9bc
00000360: 10ad b1bd 441e 9bbd f834 05be 2fce 23bd
00000370: 66f2 bebe 08b4 483d 254b d3bc d5a0 65bd
00000380: 9d22 d33d 0c8b ea3d 5324 e8bd c5e0 643d
00000390: 95a8 3ebe 4f01 b83d b647 aa3d d045 29bd
000003a0: ddcb 173c 4cef b4bd 8224 213e 6e5b bc3c
000003b0: c3ea 6fbd 3bf5 14bd 819c 20be 0480 22be
000003c0: b95d 23be b383 16bd bca0 c0bd 8e21 22be
000003d0: 9030 943d 0686 663d b5bb 9abe 7e22 223d
000003e0: 245f ab3d 6d9c ccbe 2598 3ebc ac8f d2be
000003f0: 4d2e 83bd 6822 b3be 0d09 df3c 0b22 96bd
-0.2944899 0.05378945 -0.71053076 -0.29220754 -0.12378516 -0.07775548 -0.20608115 -0.093385346
0.12795419 0.042338118 -0.09987361 -0.09168506 -0.14496697 0.09556966 0.034345843 -0.84889835
0.13521676 -0.7670893 -0.38132757 -0.05695243 -0.01362775 -0.14892027 0.13061896 -0.1365452
0.15086365 -0.015788773 -0.021436926 0.17524537 -1.8229278 -0.18519343 -0.059845656 0.030774977
0.25483286 0.14762759 0.1597819 -0.0032903517 -0.031035801 0.026658332 0.042035528 0.044540264
-0.009681605 0.00028670722 0.12806879 -0.031052992 -0.6575307 -0.025179602 0.07389985 -0.67678356
-0.18577391 -0.22106199 0.1934024 -0.10990604 0.048890155 0.013466844 -0.25133526 0.07685324
-0.09785114 0.05386559 -0.16221787 -0.005439458 0.12387541 0.05180655 -0.033554647 0.1176471
-0.08360131 0.039404552 -0.3542306 -0.045950945 -0.16070479 -0.06973722 0.19635075 -0.0971569
0.053757798 0.1854907 0.40989935 -0.004316303 0.03956093 -0.06562503 -0.36485195 0.07218047
-0.0041880826 -0.24535434 -0.1716693 0.03513402 -0.3054233 -0.0020796882 -0.09240003 -0.025573844
0.041288413 -0.10612196 0.050093476 0.016440744 -0.33884287 -0.10055264 0.05075033 -0.15192635
-0.05831194 -0.67560315 -0.123899095 0.084399305 -0.15085705 -0.0014209365 -0.2238361 0.0062770555
0.10721876 -0.07617167 0.013444991 -0.0061587538 0.00013063636 -0.16000119 -0.016395526 0.042131614
-0.14330088 0.060518965 0.12589741 0.08332772 0.119045146 0.2678696 -0.10107184 0.050237462
-0.032668497 0.08370028 -0.069309615 0.06992526 -0.100466326 0.09231801 0.049360946 0.02470418
-0.4003799 -0.4986846 -0.09764921 -0.07352398 -0.12593448 -0.0301419 -0.12161076 0.065880515
-0.03183157 0.13339277 -0.22515775 -0.20384692 -0.11613492 -0.060507193 -0.09928004 0.04288616
-0.08286353 0.1045404 -0.017740453 0.1410429 -0.24009652 -0.30069786 0.15148589 -0.025042256
0.092102595 0.0450101 0.011245362 -0.13999577 -0.88183075 0.10349971 0.059148423 0.07615269
-0.053057857 -0.10649445 -0.14787371 0.046527643 -0.471565 -0.0785034 -0.02920538 -0.10269963
0.057723254 0.058497213 -0.03044578 -0.043327447 -0.014838438 -0.01001408 0.09840017 0.18149787
0.1903829 0.27563918 -0.08235672 -0.09368135 0.006079855 -0.09921418 0.19119275 -0.041764107
-0.049060266 -0.07005675 0.00588773 0.17676786 -0.029568192 0.16724497 -0.006287488 -0.060564294
-0.19022062 -0.014799649 0.09587707 -0.07014307 0.048638545 -0.049706962 0.055113874 0.008541074
-0.08464866 -0.21594617 0.069600746 -0.2276132 0.0022842467 -0.0764175 0.022292174 -0.35667902
-0.13481028 0.16210948 0.025860563 -0.00909759 -0.27780735 0.058681123 -0.21625732 -0.028495284
-0.08675587 -0.07574132 -0.13008487 -0.039991554 -0.3729431 0.048999816 -0.025792668 -0.056061585
0.10309336 0.11452302 -0.11335053 0.05587842 -0.18618996 0.089846246 0.08314459 -0.041326344
0.009264913 -0.08834705 0.15736583 0.022992816 -0.058573496 -0.036366682 -0.15684702 -0.15869147
-0.15953721 -0.036746692 -0.09405658 -0.15833113 0.07235825 0.05628016 -0.30221334 0.039583676
0.08367756 -0.39963093 -0.011632954 -0.41125238 -0.064053155 -0.34987187 0.027225995 -0.07330712
